Final project/competition/savemodel/best_994.pth (torch_old, 668674 bytes, 63 tensors)

price_encoder.attention.weight f4 [1, 90]
0	0x42ba17da	93.046585
1	0xc2ba3aa7	-93.114555
2	0x42ba2b9b	93.08517
3	0x42b97af4	92.74014
4	0x42ba30d0	93.09534
5	0x42b9f25a	92.97334
6	0xc2ba014a	-93.00252
7	0xc2b9f5cf	-92.980095
8	0x42b9ff05	92.998085
9	0x42ba4756	93.13933
10	0xc2ba80d8	-93.25165
11	0x42b9f286	92.97368
12	0xc2ba23d6	-93.06999
13	0x42ba3574	93.1044
14	0x42ba0315	93.00602
15	0xc2ba2f66	-93.092575
16	0x42b9f094	92.96988
17	0x42ba4d79	93.15131
18	0x42ba3786	93.108444
19	0xc2ba5c9b	-93.18087
20	0x42ba534b	93.16268
21	0xc2ba4d28	-93.150696
22	0xc2ba36d5	-93.10709
23	0x42ba13c7	93.03863
24	0x42ba4fc4	93.15579
25	0x42b9e888	92.95416
26	0x42b9f335	92.97501
27	0x42ba0ab8	93.020935
28	0x42b9f454	92.9772
29	0xc2ba2e04	-93.089874
30	0x42b9eb62	92.95973
31	0xc2b9fa86	-92.9893
32	0x42b9f39e	92.975815
33	0xc2b976ef	-92.73229
34	0x42ba5a72	93.17665
35	0x42ba0b6f	93.02233
36	0xc2b9ec6f	-92.961784
37	0xc2b9fd77	-92.99505
38	0x42ba085a	93.01631
39	0x42ba2da8	93.08917
40	0xc2ba45f3	-93.13662
41	0x42ba02a8	93.00519
42	0xc2b9e6a7	-92.95049
43	0x42b9f907	92.98638
44	0x42ba03dc	93.00754
45	0xc2b9cc23	-92.898705
46	0x42ba1c60	93.05542
47	0x42b9f278	92.97357
48	0x42ba6dfd	93.21482
49	0xc2ba5b0e	-93.17784
50	0x42b9db93	92.928856
51	0xc2b9d987	-92.92486
52	0xc2ba0f66	-93.030075
53	0x42ba2811	93.078255
54	0x42b9e826	92.953415
55	0x42ba220c	93.0665
56	0x42ba1cee	93.0565
57	0x42ba05ea	93.01155
58	0x42ba2b7f	93.08495
59	0xc2ba23ad	-93.06968
60	0xc2ba1254	-93.0358
61	0xc2ba5ad2	-93.17738
62	0xc2ba4d5a	-93.15108
63	0xc2ba2351	-93.06898
64	0xc2ba27b8	-93.077576
65	0xc2b9fa22	-92.98854
66	0xc2ba09ba	-93.019
67	0xc2b9d4df	-92.915764
68	0xc2b9eb19	-92.959175
69	0xc2ba0f62	-93.030045
70	0xc2ba30ec	-93.09555
71	0xc2ba0eb2	-93.0287
72	0xc2ba3679	-93.10639
73	0xc2b9ebe6	-92.96074
74	0xc2ba0b31	-93.02186
75	0xc2ba2fbc	-93.09323
76	0xc2ba4901	-93.142586
77	0xc2ba1783	-93.04592
78	0xc2b9d130	-92.90857
79	0xc2ba6f4b	-93.21737
80	0xc2ba98dc	-93.29855
81	0xc2ba5625	-93.16825
82	0xc2ba075e	-93.01439
83	0xc2ba2ef9	-93.09174
84	0xc2ba05be	-93.011215
85	0xc2ba1613	-93.04311
86	0xc2ba53bf	-93.16357
87	0xc2ba5834	-93.17227
88	0xc2ba0203	-93.00393
89	0xc2ba0321	-93.00611

price_encoder.encoder.weight_ih_l0 f4 [120, 45]
0	0xbce4d130	-0.02793178
1	0x3e29e314	0.1659053
2	0x3db68048	0.089111865
3	0xbdd7ba68	-0.10533601
4	0x3d239408	0.039936095
5	0x3df6e424	0.12055233
6	0xbd2b0e24	-0.041761532
7	0x3d82613e	0.06366204
8	0xbc3574a0	-0.011075169
9	0x3d8e404c	0.069458574
10	0xbe07d866	-0.13266143
11	0xbd0cf4a0	-0.03441298
12	0x3afc1300	0.0019231737
13	0xbdf06a8b	-0.117390715
14	0xbddf9432	-0.10916938
15	0xbda72a0e	-0.08162318
16	0x3e3544a6	0.17701969
17	0xbdc72b3b	-0.097250424
18	0xbdefb5e0	-0.11704612
19	0x3e2fb3e0	0.1715846
20	0xbdf08195	-0.11743466
21	0xbdb9c2cd	-0.090703584
22	0xbcbf7c78	-0.023374781
23	0x3d5ccda0	0.053907037
24	0xbe00ec2a	-0.1259009
25	0x3def53d4	0.11685911
26	0xbb1973c0	-0.002341494
27	0xbe143b99	-0.1447586
28	0xbe0812e1	-0.13288452
29	0xbda28a58	-0.07936543
30	0xbdd5285b	-0.10408088
31	0x3cc9b350	0.024621636
32	0xbe1c3b4b	-0.15256993
33	0x40d13b5b	6.5384955
34	0x42ba3c68	93.11798
35	0x42ba07c0	93.01514
36	0x42ba47f2	93.14052
37	0x42baaeb8	93.34125
38	0xbe2ca27f	-0.16858862
39	0x42b9c147	92.877495
40	0x42b9b02b	92.84408
41	0x42ba0fc6	93.03081
42	0x42b9e73c	92.95163
43	0xbd9dc1a9	-0.07702953
44	0x3e15d9d4	0.14633876
45	0xbdb37c37	-0.087639265
46	0x3e16ab9c	0.14713901
47	0x3dc8ebe4	0.098106176
48	0x3c83b388	0.016076818
49	0x3da7893c	0.08180472
50	0x3e31f5ca	0.17378917
51	0xbc0b2d10	-0.00849463
52	0x3e03015c	0.12793487
53	0xbe24d1b6	-0.16095623
54	0x3d95389c	0.07286188
55	0xbe0c363d	-0.13692565
56	0x3e33284e	0.17495844
57	0xbbbcac00	-0.0057578087
58	0x3e036abe	0.12833688
59	0xbbde9c60	-0.0067935437
60	0x3e364a24	0.1780172
61	0xbcb6dfe8	-0.022323564
62	0xbe384e68	-0.1799866
63	0x3df683c0	0.12036848
64	0xbd8a97ed	-0.06767259
65	0xbe31fd99	-0.17381896
66	0x3db12da0	0.086512804
67	0xbe198762	-0.1499305
68	0xbb475500	-0.0030415654
69	0xbda44a8b	-0.080220304
70	0x3af45f80	0.0018644184
71	0x3d39c3c8	0.045352727
72	0x3da15340	0.07877207
73	0x3d6a21e0	0.057161212
74	0xbce50ac8	-0.027959242
75	0xbd306974	-0.043069318
76	0xbd5725cc	-0.05252628
77	0x3d441848	0.04787472
78	0x4135d7cb	11.365184
79	0x42baa351	93.31898
80	0x42ba8d11	93.27552
81	0x42ba7417	93.22674
82	0x42ba9641	93.293465
83	0x3d4907f0	0.049079835
84	0x42b9e479	92.946236
85	0x42b9f64f	92.98107
86	0x42b9d7de	92.921616
87	0x42b9c893	92.89175
88	0xbdf7534a	-0.12076433
89	0xbd564540	-0.052312136
90	0xbd492af4	-0.04911323
91	0xbd98780b	-0.074447714
92	0xbdc87a06	-0.09788899
93	0xbdfa03e4	-0.12207773
94	0xbe28fc39	-0.16502465
95	0xbd9b40ff	-0.075807564
96	0x3e12021c	0.14258617
97	0xbdba099b	-0.09083863
98	0xbdd74d63	-0.10512807
99	0xbd25eb50	-0.040507615
100	0xbbf53b40	-0.00748387
101	0xbe196bfc	-0.14982599
102	0x3dc3716c	0.09543118
103	0x3e0be5e4	0.13661915
104	0x3d67d8f4	0.056603387
105	0xbe0a3cfa	-0.13499823
106	0x3e10ab80	0.14127922
107	0x3dd146a0	0.10218549
108	0x3e1103b0	0.14161563
109	0xbd595308	-0.0530577
110	0x3d8aa6c0	0.06770086
111	0x3aa68380	0.0012703985
112	0xbe244135	-0.160405
113	0x3d9ac5a8	0.07557231
114	0xbd83f3b4	-0.06442967
115	0xbc49e890	-0.012323514
116	0x3cdcae08	0.026938453
117	0x3e269968	0.16269457
118	0x3e0c98e8	0.13730204
119	0x3e2d7d8c	0.16942424
120	0x3dca2a18	0.0987131
121	0x3e2d24ee	0.16908619
122	0xbcaf1e38	-0.021376714
123	0x3fcbe35c	1.592876
124	0x42ba6f88	93.217834
125	0x42ba3571	93.10438
126	0x42ba1861	93.047615
127	0x42ba236c	93.06918
128	0x3d5096d0	0.050925076
129	0xc2b9fc6c	-92.99301
130	0xc2b9d824	-92.92215
131	0xc2b9b3d9	-92.851265
132	0xc2b9710c	-92.720795
133	0xbe20e9dd	-0.15714212
134	0x3e35e03c	0.1776132
135	0x3e334a3c	0.17508787
136	0xbdb86067	-0.09002762
137	0xbe2bb7e7	-0.16769372
138	0x3e0616e0	0.13094664
139	0x3d12e6e8	0.03586474
140	0x3da928e4	0.082597524
141	0x3d535808	0.051597625
142	0xbe1f1bae	-0.15537903
143	0xbe14c7ce	-0.14529344
144	0xbc874bc0	-0.016515613
145	0x3dfb47dc	0.122695655
146	0xbdff94f3	-0.12479582
147	0x3de2e4bc	0.11078784
148	0x3e31eae6	0.17374763
149	0xbb0b7d00	-0.0021284223
150	0x3d3ddb54	0.046351746
151	0x3db2e87c	0.08735749
152	0xbe005395	-0.12531884
153	0x3e35c5fe	0.1775131
154	0xbdf6e324	-0.120550424
155	0xbd841c3c	-0.06450698
156	0x3d11872c	0.0355293
157	0x3d59bff4	0.053161576
158	0xbcaeb590	-0.02132681
159	0x3e105de4	0.14098316
160	0x3de58318	0.11206645
161	0xbe1f8c75	-0.15580924
162	0xbdf5d96e	-0.12004362
163	0x3d98825c	0.07446739
164	0xbe28ff59	-0.16503657
165	0xbe2b80ec	-0.16748399
166	0xbdc1b54b	-0.09458407
167	0xbd7cf912	-0.06176097
168	0xc25b6da8	-54.857086
169	0xc2baa49e	-93.32152
170	0xc2bad945	-93.424355
171	0xc2bae49e	-93.44652
172	0xc2bae6c9	-93.45075
173	0x3e152f20	0.14568758
174	0xc2b99105	-92.78324
175	0xc2b98086	-92.75102
176	0xc2b9ac0f	-92.83605
177	0xc2b9dde9	-92.93342
178	0xbd968578	-0.07349676
179	0x3cfa73a8	0.030572727
180	0x3e1c2456	0.15248236
181	0x3de0b670	0.10972297
182	0x3d696b64	0.05698718
183	0x3d47b11c	0.04875289
184	0x3ddbd998	0.10734862
185	0xbe27dd64	-0.16393048
186	0xbe1cbccc	-0.15306395
187	0x3df7282c	0.12068209
188	0xbd6944f4	-0.056950524
189	0xbe32cb2a	-0.17460313
190	0xbe16a22e	-0.14710304
191	0x3e3ab9fe	0.18235013
192	0xbdf6f76e	-0.12058912
193	0x3c014520	0.007890016
194	0xbd0179dc	-0.031610355
195	0x3c8731c8	0.01650323
196	0xbe2fb979	-0.17160596
197	0xbd1202ec	-0.035647318
198	0xbdb45ac9	-0.088063784
199	0xbe06391c	-0.13107723
200	0xbe3a304a	-0.18182483
201	0x3d085b40	0.033290148
202	0xbd4662d8	-0.04843411
203	0xbdfd4d66	-0.12368278
204	0x3d7b4b20	0.06135094
205	0x3ddfd4d4	0.109292656
206	0xbd5f1bd8	-0.054469913
207	0xbd9b7be9	-0.07591993
208	0x3e2fc148	0.17163575
209	0xbe1e5733	-0.15462951
210	0xbe07bfbc	-0.13256735
211	0xbdd86bf0	-0.105674624
212	0xbd6ed966	-0.058312796
213	0xc163947e	-14.223753
214	0x42ba1b90	93.05383
215	0x42b974c8	92.72809
216	0x42ba0532	93.01015
217	0x42b978fc	92.7363
218	0xbd06a7d4	-0.032874897
219	0xc2b99b1f	-92.80297
220	0xc2b9cead	-92.90366
221	0xc2b9c038	-92.87543
222	0xc2b99e4c	-92.80917
223	0x3e083a36	0.13303456
224	0x3be5a7c0	0.0070085227
225	0x3e069e3c	0.13146299
226	0x3e0b9c22	0.13633779
227	0xbe07ba0f	-0.1325457
228	0xbd9e59f3	-0.07732
229	0xbdd6b1e4	-0.10483149
230	0xbdd037b2	-0.10166873
231	0x3d826378	0.063666284
232	0xbdea89aa	-0.114520386
233	0x3d0f3138	0.034959048
234	0x3d2f8b94	0.04285772
235	0xbdc3dd8f	-0.09563743
236	0x3e231c66	0.15928802
237	0xbdaa0633	-0.08301964
238	0xbcb26178	-0.021774992
239	0x3d488dbc	0.048963293
240	0x3ccda850	0.025104672
241	0xbd581c00	-0.052761078
242	0x3bcab760	0.006186411
243	0xbdc69bc3	-0.09697678
244	0x3e06547a	0.13118163
245	0x3db5374c	0.08848438
246	0x3d8bd104	0.06826976
247	0x3e3604f8	0.17775333
248	0xbdd391a6	-0.103305146
249	0xbe029db8	-0.12755477
250	0x3dcc0bfc	0.09963223
251	0xbe31b828	-0.17355406
252	0x3db15750	0.08659232
253	0x3e0e3968	0.13889086
254	0xbda1528e	-0.07877074
255	0x3d6da618	0.058019727

price_encoder.encoder.weight_hh_l0 f4 [120, 30]
0	0xc2b9fa70	-92.989136
1	0x42b9d323	92.91238
2	0xc2b9ce13	-92.90249
3	0xc2b9f03f	-92.96923
4	0xc2ba08cf	-93.017204
5	0xc2b9fb3c	-92.99069
6	0x42b9c33a	92.8813
7	0x42ba2562	93.07301
8	0xc2ba1746	-93.045456
9	0xc2ba48e6	-93.14238
10	0x42b9c6d2	92.88832
11	0xc2ba3cab	-93.11849
12	0x42b9fa72	92.98915
13	0xc2ba45eb	-93.13656
14	0xc2ba483f	-93.141106
15	0x42ba04a2	93.00905
16	0xc2b9e219	-92.9416
17	0xc2ba13d3	-93.03872
18	0xc2b9f63a	-92.98091
19	0x42ba4136	93.127365
20	0xc2b9acca	-92.83748
21	0x42ba0bc2	93.022964
22	0x42ba0d15	93.02555
23	0xc2ba000c	-93.00009
24	0xc2ba0dcf	-93.02697
25	0xc2ba0aa4	-93.02078
26	0xc2ba4e28	-93.15265
27	0xc2b9ebeb	-92.96078
28	0xc2b9bfaf	-92.87438
29	0x42ba2119	93.064644
30	0xc2ba317d	-93.09666
31	0x42b9feaa	92.99739
32	0xc2b9aa52	-92.83266
33	0xc2b9a13a	-92.814896
34	0xc2b9b76e	-92.85826
35	0xc2ba0557	-93.01043
36	0x42ba1b45	93.05326
37	0x42ba813e	93.252426
38	0xc2b9e372	-92.94423
39	0xc2ba3b4d	-93.11582
40	0x42b98abf	92.77099
41	0xc2b9ec74	-92.96182
42	0x42b9d9b0	92.92517
43	0xc2ba6049	-93.18806
44	0xc2ba25b7	-93.07366
45	0x42ba1e39	93.05903
46	0xc2ba42e4	-93.130646
47	0xc2ba2f6b	-93.09261
48	0xc2ba3f1b	-93.12325
49	0x42ba2521	93.07252
50	0xc2b9b3d2	-92.85121
51	0x42b9b296	92.8488
52	0x42b9d3fe	92.91405
53	0xc2ba3dec	-93.12094
54	0xc2b9fed1	-92.99769
55	0xc2ba6ff7	-93.21868
56	0xc2b9b2b9	-92.84907
57	0xc2b9d0ad	-92.90757
58	0xc2b9e5f3	-92.94912
59	0xc2b9f6b0	-92.98181
60	0xc2ba6267	-93.19219
61	0x42b9bee4	92.87283
62	0xc2b9c648	-92.88727
63	0x42b986db	92.76339
64	0xc2ba3586	-93.10454
65	0xc2b9e1a6	-92.94072
66	0x42ba682d	93.20347
67	0x42ba05ce	93.01134
68	0xc2b9d2d9	-92.91181
69	0xc2ba1f1f	-93.06078
70	0x42ba0abb	93.02096
71	0xc2b9ffa8	-92.99933
72	0x42b9ca71	92.89539
73	0xc2ba4671	-93.13758
74	0xc2ba280b	-93.07821
75	0x42ba0767	93.01446
76	0xc2ba7679	-93.23139
77	0xc2b9b786	-92.858444
78	0xc2ba4840	-93.14111
79	0x42b9ba6f	92.86413
80	0xc2b9afe3	-92.84353
81	0x42b9d7a7	92.921196
82	0x42ba279d	93.07737
83	0xc2ba28ea	-93.07991
84	0xc2ba5a9e	-93.17699
85	0xc2b9feb5	-92.997475
86	0xc2ba5fd2	-93.18715
87	0xc2ba6ba0	-93.210205
88	0xc2b99669	-92.79377
89	0x42ba091e	93.01781
90	0x42b9d0be	92.9077
91	0xc2ba3d30	-93.11951
92	0xc2ba2624	-93.07449
93	0x42ba28ed	93.07993
94	0x42ba135a	93.037796
95	0x42ba7af2	93.24013
96	0xc2ba44e0	-93.13452
97	0xc2ba19ee	-93.050644
98	0x42ba3dd3	93.12075
99	0xc2b7e09b	-91.93868
100	0xc2b9d2a4	-92.91141
101	0x42b9ce5d	92.90305
102	0xc2b9fc14	-92.99234
103	0x42ba0ca2	93.02467
104	0xc2b9fbfa	-92.99214
105	0xc2ba12b5	-93.03654
106	0x42ba03e5	93.00761
107	0x42ba3edd	93.12278
108	0xc2b9ca28	-92.89484
109	0xc2ba124d	-93.03574
110	0x42b98611	92.76185
111	0xc2ba4460	-93.133545
112	0xc2b9f535	-92.97892
113	0x42b99ad7	92.80242
114	0x42ba2505	93.0723
115	0x42b9b761	92.85816
116	0x42ba0ce9	93.025215
117	0x42ba1a66	93.05156
118	0xc2b97582	-92.72951
119	0x42b9b493	92.852684
120	0xc2ba3a66	-93.11406
121	0x42b9fea5	92.99735
122	0xc2b9c324	-92.881134
123	0x42b9babe	92.86473
124	0xc2b98189	-92.753
125	0xc2b9e8e1	-92.95484
126	0x42ba339a	93.100784
127	0x42ba2d3b	93.08834
128	0xc2ba4387	-93.13189
129	0xc2b99d5b	-92.807335
130	0x42b9ebd5	92.96061
131	0xc2ba3dd4	-93.12076
132	0x42ba2aca	93.08357
133	0xc2b9b5dd	-92.8552
134	0xc2b99ef2	-92.81044
135	0x42b9e87e	92.95409
136	0xc2ba2d02	-93.087906
137	0xc2b9c388	-92.8819
138	0xc2ba356a	-93.104324
139	0x42b9db80	92.92871
140	0xc2b9b6f7	-92.85735
141	0x42b9d178	92.90912
142	0x42b9ecd9	92.96259
143	0xc2b9947a	-92.78999
144	0xc2b9d0c7	-92.90777
145	0xc2ba1c30	-93.05505
146	0xc2ba34fd	-93.10349
147	0xc2b9bc77	-92.868095
148	0xc2b99708	-92.79498
149	0x42b9e6e4	92.95096
150	0xc2ba1b9a	-93.05391
151	0x42ba58a6	93.17314
152	0xc2b9ed44	-92.96341
153	0xc2b9b046	-92.844284
154	0xc2b9e902	-92.95509
155	0xc2ba3b14	-93.11539
156	0x42ba36b8	93.10687
157	0x42baa511	93.322395
158	0xc2ba5ef8	-93.185486
159	0xc2b9de61	-92.93433
160	0x42b9c0db	92.87667
161	0xc2ba920c	-93.28525
162	0x42b9f020	92.968994
163	0xc2ba2463	-93.07107
164	0xc2b9aadf	-92.83373
165	0x42b9f829	92.98469
166	0xc2b9f3cf	-92.97619
167	0xc2ba4b4e	-93.14708
168	0xc2b99b4c	-92.803314
169	0x42ba3ef4	93.122955
170	0xc2b9a3c8	-92.819885
171	0x42b9c3d1	92.882454
172	0x42ba2e12	93.08998
173	0xc2b9ef4f	-92.9674
174	0xc2ba66a1	-93.20045
175	0xc2b9e307	-92.94341
176	0xc2b9d917	-92.924
177	0xc2ba56a0	-93.16919
178	0xc2b9dbfe	-92.92967
179	0xc2b99a90	-92.80188
180	0xc2ba2fac	-93.09311
181	0x42b9d454	92.9147
182	0xc2ba4849	-93.14118
183	0xc2b9ccf4	-92.9003
184	0xc2b9f9c3	-92.987816
185	0xc2ba185e	-93.04759
186	0x42ba0c63	93.02419
187	0x42ba00db	93.00167
188	0xc2b9c0d5	-92.876625
189	0xc2ba0dc4	-93.026886
190	0x42ba20b5	93.06388
191	0xc2b9e99f	-92.95629
192	0x42b9b911	92.86146
193	0xc2b9fb30	-92.9906
194	0xc2b99d87	-92.80767
195	0x42b9f104	92.97073
196	0xc2ba5a9f	-93.176994
197	0xc2ba0fb5	-93.03068
198	0x42b98ff2	92.78114
199	0x42ba0a22	93.01979
200	0xc2ba50ec	-93.15805
201	0x42b9fc04	92.99222
202	0x42ba59e8	93.1756
203	0xc2ba4308	-93.13092
204	0xc2ba1c64	-93.05545
205	0xc2ba3a16	-93.11345
206	0xc2ba2dc7	-93.08941
207	0xc2b9f249	-92.97321
208	0xc2b97f33	-92.748436
209	0xc2b99f50	-92.81116
210	0xc2b9d4ba	-92.91548
211	0x42b9f74a	92.98299
212	0xc2b9d799	-92.92109
213	0xc2b9f000	-92.96875
214	0xc2ba0457	-93.00848
215	0xc2ba5cda	-93.18135
216	0x42ba499e	93.14378
217	0x42b9f4a8	92.977844
218	0xc2b9d448	-92.91461
219	0xc2ba03b2	-93.00722
220	0x42b9f7f6	92.9843
221	0xc2ba1a43	-93.05129
222	0x42b9a004	92.81253
223	0xc2ba39fa	-93.113235
224	0xc2ba3d30	-93.11951
225	0x42ba47be	93.14012
226	0xc2ba1f6f	-93.06139
227	0xc2ba331c	-93.09982
228	0x42b9a74d	92.82676
229	0x42b9c447	92.883354
230	0xc2b9a0de	-92.81419
231	0x42ba5202	93.16017
232	0x42ba2c7d	93.08689
233	0xc2ba1370	-93.037964
234	0xc2ba0bcd	-93.02305
235	0xc2ba4b77	-93.14739
236	0xc2ba4f64	-93.15506
237	0xc2b9ef27	-92.967094
238	0xc2b8eaf7	-92.458916
239	0xc2b9b434	-92.85196
240	0xc2b9d27e	-92.91112
241	0x42b9d3f1	92.91395
242	0xc2b9bc96	-92.86833
243	0xc2b9f461	-92.9773
244	0xc2b9db40	-92.92822
245	0xc2ba43ac	-93.13217
246	0x42ba2f48	93.09235
247	0x42ba59c5	93.17533
248	0xc2b9de13	-92.93374
249	0xc2b9fb07	-92.99029
250	0x42b9ebe6	92.96074
251	0xc2ba8e17	-93.27752
252	0x42ba1e53	93.05923
253	0xc2ba3806	-93.10942
254	0xc2ba1aff	-93.05273
255	0x42ba620b	93.19149

price_encoder.encoder.bias_ih_l0 f4 [120]
0	0x42ba990e	93.298935
1	0x42baf88b	93.485435
2	0x42ba5a0f	93.175896
3	0xc2bb4763	-93.63943
4	0x42b9c954	92.89322
5	0x42babae1	93.365
6	0x42bb28f3	93.57998
7	0x42bb2647	93.57476
8	0x42ba798e	93.23741
9	0x42bb0502	93.50978
10	0x42b9115a	92.53389
11	0x42bb1bc0	93.5542
12	0x42ba387c	93.11032
13	0x42bae8d2	93.45473
14	0x42ba47bc	93.14011
15	0x42ba89ee	93.269394
16	0x42bb3fbd	93.62449
17	0x42ba4d8e	93.151474
18	0x42b97661	92.73121
19	0x42b944d6	92.634445
20	0x42b9e4e8	92.94708
21	0x42bad3b6	93.4135
22	0x42bad4f3	93.41592
23	0x42ba9ec8	93.31012
24	0x42bad882	93.42287
25	0x42bb497d	93.64353
26	0x42ba5bdf	93.179436
27	0x42baf62a	93.48079
28	0x42b9bc5d	92.8679
29	0x42b90df2	92.52724
30	0x42ba78bd	93.23582
31	0x42baa3c0	93.319824
32	0x42ba1539	93.04145
33	0xc2bab808	-93.359436
34	0x42b988af	92.76696
35	0x42bacb52	93.39711
36	0x42ba6e5e	93.21556
37	0x42babdc6	93.37065
38	0x42ba92c2	93.28664
39	0x42ba322e	93.09801
40	0x42b93358	92.60028
41	0x42babcc8	93.36871
42	0x42b9d636	92.91838
43	0x42baf3aa	93.47591
44	0x42b9ff9e	92.99925
45	0x42baa47b	93.32125
46	0x42badafe	93.42772
47	0x42ba5ce7	93.18145
48	0x42b9bfd4	92.874664
49	0x42b9771f	92.73266
50	0x42b9d428	92.91437
51	0x42ba35f8	93.10541
52	0x42ba2d8b	93.08895
53	0x42ba3448	93.10211
54	0x42baf11f	93.47094
55	0x42ba5e32	93.183975
56	0x42ba6eb6	93.21623
57	0x42babba1	93.36646
58	0x42b97afe	92.74022
59	0x42b936c2	92.60695
60	0xc2bb37c5	-93.608925
61	0x42bb5db5	93.68302
62	0xc2bae503	-93.44729
63	0x42ba0c31	93.02381
64	0xc2ba38fa	-93.11128
65	0xc2bb6867	-93.70391
66	0x42bb8c7a	93.77437
67	0x42bc12c3	94.036644
68	0xc2bb553b	-93.666466
69	0xc2bddfb6	-94.936935
70	0x42badd6b	93.43246
71	0xc2bcb894	-94.360504
72	0x42bb0b88	93.52252
73	0xc2bae762	-93.45192
74	0xc2bcc5bd	-94.38621
75	0x42bd4d29	94.6507
76	0xc2be815e	-95.25267
77	0xc2bd4235	-94.62931
78	0xc2bc2c9c	-94.08713
79	0x42baa2a9	93.317696
80	0xc2ba71f4	-93.222565
81	0x42bb0a31	93.519905
82	0x42bc0a18	94.019714
83	0xc2bdf316	-94.97478
84	0xc2bb8d90	-93.77649
85	0xc2bd2fb0	-94.59314
86	0xc2bc42fe	-94.130844
87	0xc2bc1b56	-94.05339
88	0xc2c367bf	-97.70263
89	0x42baf6f1	93.48231
90	0x42bbb0e2	93.845474
91	0x42bc2793	94.07729
92	0x42baaa5d	93.33274
93	0xc2bb6634	-93.699615
94	0x42b9aca1	92.837166
95	0x42bc5b41	94.17823
96	0x42bc2c3a	94.08638
97	0x42bbfbff	93.99218
98	0x42bb789a	93.73555
99	0x42bb3665	93.60624
100	0x42b8aa43	92.33254
101	0x42bcb87c	94.36032
102	0x42ba96f6	93.294846
103	0x42bb824f	93.75451
104	0x42bb409b	93.62618
105	0x42bc2812	94.07826
106	0x42bc26ba	94.07564
107	0x42bb060b	93.5118
108	0x42b94b9b	92.64767
109	0x42b987c7	92.76519
110	0x42b9e217	92.94158
111	0x42bbeb8e	93.96007
112	0x42bb10c6	93.53276
113	0x42ba9cd0	93.306274
114	0x42bbde8f	93.934685
115	0x42bbbf8a	93.8741
116	0x42babb62	93.36598
117	0x42bb79f1	93.73817
118	0x42b9f201	92.972664
119	0x42b9512c	92.65854

price_encoder.encoder.bias_hh_l0 f4 [120]
0	0x42bab785	93.35844
1	0x42ba985c	93.29758
2	0x42ba5af2	93.17763
3	0xc2bae206	-93.44145
4	0x42ba0f69	93.0301
5	0x42bafcfc	93.49411
6	0x42baaf0d	93.341896
7	0x42baafa1	93.343025
8	0x42bae593	93.44839
9	0x42baf0fc	93.47067
10	0x42b93263	92.59841
11	0x42bb32e4	93.599396
12	0x42ba70f7	93.220634
13	0x42baf8e5	93.48612
14	0x42ba8b32	93.271866
15	0x42bb0002	93.500015
16	0x42bacf63	93.40505
17	0x42ba4fd1	93.15589
18	0x42b9f25e	92.97337
19	0x42b92ffc	92.59372
20	0x42ba68b5	93.204506
21	0x42ba6c50	93.21155
22	0x42baaeeb	93.34164
23	0x42ba7954	93.23697
24	0x42baf228	93.47296
25	0x42bb2e2c	93.59018
26	0x42ba3ca8	93.11847
27	0x42bae148	93.44
28	0x42b94813	92.64077
29	0x42b95565	92.66679
30	0x42baa1b5	93.315834
31	0x42bab591	93.35462
32	0x42ba0c97	93.02459
33	0xc2bb0de0	-93.5271
34	0x42b9f09c	92.96994
35	0x42bab57b	93.354454
36	0x42ba64c1	93.196785
37	0x42baafa7	93.34307
38	0x42ba6827	93.20342
39	0x42ba97d0	93.29651
40	0x42b90ea3	92.52859
41	0x42bad4b6	93.41545
42	0x42ba7a0c	93.23837
43	0x42bacfc5	93.4058
44	0x42ba0eb1	93.028694
45	0x42bac460	93.383545
46	0x42bac6b3	93.388084
47	0x42ba8a94	93.27066
48	0x42b96b0a	92.70906
49	0x42b97b90	92.74133
50	0x42b9c969	92.89338
51	0x42babbd3	93.366844
52	0x42ba4040	93.12549
53	0x42ba4b0f	93.1466
54	0x42babf31	93.37342
55	0x42baced2	93.403946
56	0x42ba3d14	93.11929
57	0x42ba5682	93.16896
58	0x42b97196	92.72185
59	0x42b92753	92.576805
60	0xc2bb4382	-93.63185
61	0x42bb956a	93.791824
62	0xc2ba78f8	-93.23627
63	0x42b9bfd2	92.87465
64	0xc2ba3072	-93.09462
65	0xc2bb67b0	-93.702515
66	0x42bb3fca	93.62459
67	0x42bc1efe	94.06053
68	0xc2bb356f	-93.60436
69	0xc2bd87e4	-94.76541
70	0x42bad597	93.41717
71	0xc2bcf557	-94.47918
72	0x42bae317	93.443535
73	0xc2bb2aa3	-93.583275
74	0xc2bcbdad	-94.37046
75	0x42bd4637	94.63714
76	0xc2be4ec3	-95.15383
77	0xc2bd12d4	-94.53677
78	0xc2bc5ae2	-94.177505
79	0x42ba8120	93.2522
80	0xc2ba6a24	-93.207306
81	0x42badcef	93.43151
82	0x42bb85b8	93.76117
83	0xc2be4f2c	-95.15463
84	0xc2bb93cb	-93.78866
85	0xc2bcef35	-94.4672
86	0xc2bcb4d5	-94.35319
87	0xc2bbfe25	-93.996376
88	0xc2c36e9f	-97.71606
89	0x42bb6128	93.68976
90	0x42bbc084	93.87601
91	0x42bc2e20	94.09009
92	0x42ba70c2	93.22023
93	0xc2bb6bc2	-93.710464
94	0x42b9b912	92.861465
95	0x42bc9b37	94.303154
96	0x42bb9cd0	93.806274
97	0x42bc3dd5	94.120766
98	0x42bb7da2	93.74538
99	0x42bb1ed1	93.56019
100	0x42b8cfde	92.40599
101	0x42bc27e8	94.07794
102	0x42ba2b89	93.08503
103	0x42bb7645	93.730995
104	0x42bb213a	93.564896
105	0x42bbc938	93.893005
106	0x42bba198	93.81561
107	0x42bb301a	93.59395
108	0x42b9426b	92.62972
109	0x42b99d86	92.80766
110	0x42b9e518	92.94745
111	0x42bb8d0a	93.77547
112	0x42baceae	93.40367
113	0x42bb249a	93.57149
114	0x42bc43db	94.13253
115	0x42bbf925	93.98661
116	0x42bad0dd	93.407936
117	0x42bb5c9e	93.68089
118	0x42b9de49	92.93415
119	0x42b90f18	92.52948

key_encoder.attention.weight f4 [1, 83]
0	0x42b93bd9	92.61689
1	0x42b98766	92.76445
2	0x42b9877d	92.764626
3	0x42b999d0	92.800415
4	0x42b953a3	92.66335
5	0xc2b9710c	-92.720795
6	0x42b9a026	92.81279
7	0x42b96a40	92.70752
8	0x42b97ede	92.74779
9	0x42b93d48	92.61969
10	0x42b96947	92.70562
11	0x42b95b07	92.67779
12	0x42b94ded	92.6522
13	0x42b978cd	92.73594
14	0x42b94b71	92.64735
15	0x42b9f949	92.986885
16	0x42b94346	92.63139
17	0x42b946db	92.63839
18	0x42b99e3d	92.80906
19	0xc2b97946	-92.73686
20	0x42b99508	92.79108
21	0xc2b99077	-92.78216
22	0x42b9fe39	92.99653
23	0xc2b965da	-92.69893
24	0x42b94efc	92.65427
25	0x42b97ed2	92.747696
26	0x42b963a8	92.69464
27	0x42b9b649	92.856026
28	0x42b96b0c	92.709076
29	0x42b9c9fe	92.894516
30	0x42b96a16	92.7072
31	0xc2b987ce	-92.76524
32	0x42b9c7b5	92.89005
33	0x42b9445b	92.63351
34	0x42b97826	92.734665
35	0x42b99374	92.787994
36	0x42b975f8	92.73041
37	0x42b9730b	92.72469
38	0x42b99f1c	92.81076
39	0x42b9b653	92.8561
40	0x42b9bca3	92.86843
41	0x42b98d0a	92.77547
42	0x42b96440	92.6958
43	0x42b9b031	92.844124
44	0x42b966f2	92.701065
45	0xc2b9705f	-92.719475
46	0x42b998dd	92.79856
47	0xc2b97560	-92.72925
48	0x42b9d2ee	92.91197
49	0xc2b973b1	-92.72596
50	0x42b97bcc	92.74179
51	0x42b99778	92.79584
52	0x41d55ca6	26.670238
53	0xc28f35b4	-71.60489
54	0xc2a96f3c	-84.717255
55	0xc25a4c06	-54.57424
56	0xc25cd21a	-55.205177
57	0xc2a947d8	-84.64032
58	0xc2b9ed2b	-92.96322
59	0x4254ccad	53.19988
60	0xc2b4043e	-90.008286
61	0xc2b606b0	-91.01306
62	0x42b23212	89.09779
63	0x42513f99	52.312107
64	0xc2b9bb95	-92.86637
65	0xc2ac8254	-86.25455
66	0xc2b84e94	-92.15347
67	0xc123659a	-10.212305
68	0x4214ba83	37.18214
69	0xc2b3835d	-89.75657
70	0xc271e810	-60.476624
71	0xc2b7783d	-91.73484
72	0xc2ab7ae2	-85.740005
73	0xc2b9485a	-92.64131
74	0xc2b9cad3	-92.89614
75	0xc2b982b1	-92.75526
76	0xc2a17395	-80.725746
77	0xc29fd482	-79.915054
78	0xc2b88d11	-92.27552
79	0xc2b3150c	-89.54111
80	0x42bc33aa	94.10091
81	0xc2111868	-36.273834
82	0x4210b6b8	36.178436

key_encoder.encoder.weight_ih_l0 f4 [104, 38]
0	0x42ba5dbd	93.18308
1	0x42b9c37d	92.88181
2	0x42b9a0b4	92.81387
3	0x42b9eebb	92.96627
4	0x42b9a8d8	92.82977
5	0x42b9cb67	92.89727
6	0x42b9ed58	92.96356
7	0x42b990a9	92.78254
8	0x42ba003a	93.00044
9	0x42b9ac84	92.836945
10	0x42b9ba3b	92.86373
11	0x42ba4bd9	93.14814
12	0x42b9ebb6	92.96037
13	0x42b98a7b	92.77047
14	0x42b9acca	92.83748
15	0x42ba0186	93.002975
16	0x42ba22ba	93.067825
17	0x42b9f093	92.96987
18	0x42b98b12	92.77162
19	0x42babe13	93.37124
20	0x42b9cf29	92.90461
21	0x42ba3e34	93.12149
22	0x42ba0e95	93.02848
23	0x42b9b2a2	92.84889
24	0x42b98c78	92.77435
25	0x42ba2edf	93.091545
26	0x42b9ec13	92.96108
27	0x42ba3564	93.10428
28	0x42bad4a0	93.41528
29	0x42b9faef	92.990105
30	0x42b99dcc	92.8082
31	0x42b9b677	92.85638
32	0x42b9f16a	92.97151
33	0x42b9b630	92.855835
34	0x42ba2be3	93.08572
35	0x42b97d22	92.7444
36	0x42ba1a78	93.0517
37	0x42b9e4f2	92.94716
38	0x42baf1a5	93.47196
39	0x42ba2b16	93.08415
40	0x42ba0c80	93.024414
41	0x42ba4bd4	93.1481
42	0x42b9fac8	92.98981
43	0x42b9aab4	92.833405
44	0x42b9b6f9	92.85737
45	0x42ba0f68	93.03009
46	0x42ba5948	93.17438
47	0x42b9c47b	92.88375
48	0x42b9e092	92.938614
49	0x42ba4a00	93.14453
50	0x42ba5f80	93.18652
51	0x42b9a663	92.824974
52	0x42ba2080	93.06348
53	0x42ba22cb	93.067955
54	0x42b9abdb	92.835655
55	0x42b9edde	92.964584
56	0x42b9a729	92.826485
57	0x42bad430	93.41443
58	0x42b9e97e	92.95604
59	0x42ba1737	93.04534
60	0x42ba13e7	93.03887
61	0x42b9e2ed	92.943214
62	0x42b9b72a	92.85774
63	0x42ba3134	93.0961
64	0x42ba3a1e	93.11351
65	0x42ba2cc6	93.08745
66	0x42baa993	93.3312
67	0x42b9f86d	92.98521
68	0x42b9e09c	92.93869
69	0x42ba0950	93.01819
70	0x42ba3ab8	93.114685
71	0x42b9d3ff	92.914055
72	0x42b9e2ab	92.94271
73	0x42ba0269	93.00471
74	0x42b99122	92.78346
75	0x42ba4a7d	93.145485
76	0x42ba31d2	93.097305
77	0x42b9bdcf	92.87072
78	0x42b9c62b	92.88705
79	0x42b9b41b	92.85177
80	0x42ba18cd	93.04844
81	0x42ba2b70	93.08484
82	0x42ba0184	93.00296
83	0x42ba3dc8	93.12067
84	0x42b97ee0	92.7478
85	0x42ba1964	93.04959
86	0x42b9c5eb	92.88656
87	0x42b9dae5	92.92753
88	0x42b9eb30	92.95935
89	0x42ba2735	93.07658
90	0x42b9840a	92.75789
91	0x42b9e36c	92.94418
92	0x42b9bf39	92.87348
93	0x42ba09b8	93.01898
94	0x42b98843	92.766136
95	0x42baccf5	93.40031
96	0x42b97d62	92.74489
97	0x42b9c8c9	92.89216
98	0x42b99c9f	92.8059
99	0x42b999fc	92.80075
100	0x42b997b4	92.796295
101	0x42b9ceda	92.90401
102	0x42b9ab0d	92.83408
103	0x42ba0941	93.018074
104	0x42ba70fb	93.220665
105	0x42b99df9	92.80854
106	0x42b98559	92.760445
107	0x42ba3bfc	93.11716
108	0x42ba28ab	93.07943
109	0x42b9f776	92.98332
110	0x42b9f1d3	92.97231
111	0x42b9efad	92.96812
112	0x42b9fa44	92.9888
113	0x42ba0412	93.00795
114	0x42ba66b3	93.200584
115	0x42ba4671	93.13758
116	0x42b9eab0	92.958374
117	0x42ba07ea	93.01546
118	0x42b99b53	92.80337
119	0x42b9fd67	92.99493
120	0x42ba169d	93.04417
121	0x42b9c62c	92.887054
122	0x42ba0b90	93.02258
123	0x42ba25c3	93.07375
124	0x42b9dea0	92.934814
125	0x42b9a468	92.821106
126	0x42ba1526	93.041306
127	0x42b9bc6e	92.86803
128	0x42b9fa47	92.98882
129	0x42b9ff04	92.99808
130	0x42b99744	92.79544
131	0x42b9f8d1	92.98597
132	0x42b9c3e1	92.882576
133	0x42bae70c	93.45126
134	0x42b9edd5	92.964516
135	0x42b9950c	92.79111
136	0x42b9d9cf	92.92541
137	0x42b9dc9d	92.930885
138	0x42b99ad8	92.80243
139	0x42b9e4c2	92.94679
140	0x42ba3fec	93.12485
141	0x42b9faaa	92.98958
142	0x42ba80dc	93.25168
143	0x42ba2501	93.07227
144	0x42ba3e1b	93.1213
145	0x42b9dd5c	92.93234
146	0x42b9f2e1	92.97437
147	0x42ba46d7	93.13836
148	0x42b99250	92.78577
149	0x42b9b4d7	92.8532
150	0x42b99117	92.78338
151	0x42b99a15	92.80094
152	0x42baa566	93.323044
153	0x42ba1b00	93.052734
154	0x42b9cd45	92.90092
155	0x42ba31fb	93.09762
156	0x42b9ac77	92.836845
157	0x42b9b829	92.85969
158	0x42ba4a9f	93.145744
159	0x42ba13ac	93.03842
160	0x42b9b2a1	92.848885
161	0x42b9cadf	92.89623
162	0x42ba3f36	93.12346
163	0x42b9b4f5	92.85343
164	0x42b9ca35	92.894936
165	0x42b98ffd	92.78123
166	0x42ba1d49	93.0572
167	0x42b9b403	92.851585
168	0x42ba0799	93.01484
169	0x42ba3203	93.09768
170	0x42ba0926	93.01787
171	0x42bab1ad	93.34702
172	0x42b9d633	92.91836
173	0x42ba4314	93.13101
174	0x42b9e8b3	92.95449
175	0x42ba20ba	93.06392
176	0x42ba13d0	93.0387
177	0x42ba42ef	93.13073
178	0x42ba40a5	93.12626
179	0x42b9ac0e	92.836044
180	0x42bac892	93.39174
181	0x42b99399	92.78828
182	0x42ba127c	93.0361
183	0x42b9a97f	92.83105
184	0x42b9a8f0	92.829956
185	0x42b9dbc9	92.92927
186	0x42b9ea5f	92.957756
187	0x42b9e069	92.9383
188	0x42ba4547	93.13531
189	0x42b9bfa5	92.874306
190	0x42ba95d9	93.29267
191	0x42ba330d	93.09971
192	0x42ba33d0	93.1012
193	0x42ba1d68	93.057434
194	0x42b9f5ff	92.98046
195	0x42b99d68	92.807434
196	0x42ba2050	93.06311
197	0x42b9e3c2	92.94484
198	0x42b9eaeb	92.958824
199	0x42ba2a1b	93.08224
200	0x42ba174b	93.045494
201	0x42b9b9d3	92.86294
202	0x42ba3246	93.09819
203	0x42b97b4d	92.74082
204	0x42b9f8c7	92.98589
205	0x42b97bbf	92.74169
206	0x42b95dc7	92.68316
207	0x42ba049b	93.008995
208	0x42b9d218	92.91034
209	0x42baeb48	93.45953
210	0xc2ba3f3e	-93.12352
211	0x42b981bb	92.75338
212	0x42b9dd3d	92.932106
213	0x42b8671c	92.201385
214	0x42ba0b69	93.022285
215	0xc2bb5906	-93.673874
216	0x42b9dacd	92.927345
217	0x42b96e6d	92.715675
218	0x42bb2135	93.56486
219	0xc2b9ef5c	-92.9675
220	0x42b98653	92.76235
221	0x42b9ea23	92.9573
222	0x42ba3605	93.10551
223	0x42ba295e	93.080795
224	0x42ba23cb	93.06991
225	0x42ba037b	93.0068
226	0x42593d80	54.31006
227	0x42ba39af	93.11266
228	0x42ba695c	93.20578
229	0x42b9ee5d	92.96555
230	0x42b9bc42	92.86769
231	0x42ba1241	93.03565
232	0x42b9e04e	92.938095
233	0x42b9e976	92.95598
234	0x42b98f31	92.77967
235	0x42b9cff5	92.906166
236	0x42b9e380	92.944336
237	0x42ba3a06	93.11333
238	0x42b9c7e0	92.89038
239	0x42ba0b87	93.022514
240	0x42ba44c0	93.13428
241	0x42ba17f1	93.04676
242	0x42b9af6e	92.842636
243	0x42ba1075	93.03214
244	0x42b9a852	92.82875
245	0x42ba1e50	93.059204
246	0x42ba53d5	93.163734
247	0x42bb1a55	93.55143
248	0x42ba20f3	93.064354
249	0x42ba07fe	93.01561
250	0x42ba0c3c	93.023895
251	0x42b9c8bc	92.89206
252	0x42b9f875	92.98527
253	0x42ba14ac	93.040375
254	0x42b989f6	92.769455
255	0x42b9922b	92.785484

key_encoder.encoder.weight_hh_l0 f4 [104, 26]
0	0xc2b9af4e	-92.84239
1	0xc2b9f0a0	-92.96997
2	0xc2b9ae02	-92.83986
3	0xc2b9dcf6	-92.931564
4	0xc2b9ef7f	-92.967766
5	0x42b9a993	92.8312
6	0xc2b9ba45	-92.86381
7	0xc2b99362	-92.78786
8	0xc2b98d91	-92.7765
9	0xc2b9d0e8	-92.90802
10	0xc2ba2e8b	-93.090904
11	0xc2ba4070	-93.125854
12	0xc2ba2bca	-93.085526
13	0xc2b9f032	-92.96913
14	0xc2b9ed6d	-92.96372
15	0x42b9ee48	92.96539
16	0xc2b9f6cc	-92.982025
17	0xc2b9b300	-92.84961
18	0xc2ba286a	-93.07893
19	0x42b9adfc	92.83981
20	0xc2b996df	-92.79467
21	0x42ba2ba2	93.08522
22	0xc2ba1848	-93.047424
23	0x42b9f26c	92.97348
24	0xc2ba3051	-93.09437
25	0xc2b9daff	-92.92773
26	0xc2ba3a85	-93.114296
27	0xc2ba4ea4	-93.153595
28	0xc2b9acb6	-92.837326
29	0xc2b9ad12	-92.83803
30	0xc2ba358a	-93.10457
31	0x42ba3651	93.10609
32	0xc2b9d712	-92.92006
33	0xc2ba2ead	-93.09116
34	0xc2ba9756	-93.29558
35	0xc2ba49f9	-93.14448
36	0xc2b9c841	-92.89112
37	0xc2ba656e	-93.198105
38	0xc2b9e17a	-92.940384
39	0xc2ba5836	-93.17229
40	0xc2ba3f27	-93.123344
41	0x42ba4566	93.135544
42	0xc2ba5377	-93.16302
43	0xc2ba1538	-93.04144
44	0xc2b9b7d0	-92.85901
45	0x42b9fc08	92.99225
46	0xc2ba1c37	-93.05511
47	0x42ba4e48	93.15289
48	0x42b9d922	92.92409
49	0x42b9cf84	92.905304
50	0xc2b9fcbf	-92.993645
51	0xc2b9ebb5	-92.960365
52	0xc2b99a75	-92.801674
53	0xc2b9c065	-92.87577
54	0xc2b9f5d8	-92.98016
55	0xc2b9a91b	-92.830284
56	0xc2b9a335	-92.81876
57	0x42b99e0d	92.80869
58	0xc2b9ba78	-92.8642
59	0xc2ba3dc3	-93.12063
60	0xc2b9fb1d	-92.990456
61	0xc2b9efcd	-92.96836
62	0xc2b9e186	-92.940475
63	0xc2b99b95	-92.80387
64	0xc2ba0142	-93.00246
65	0xc2b9ffd2	-92.99965
66	0xc2b9b88e	-92.86046
67	0x42b9c455	92.88346
68	0xc2b9aa77	-92.83294
69	0xc2b9a811	-92.828255
70	0xc2b99150	-92.78381
71	0x42ba18a7	93.04815
72	0xc2b9b473	-92.85244
73	0x42b9a2f2	92.81825
74	0xc2b9ab2b	-92.83431
75	0x42b9e3cf	92.94494
76	0xc2ba2f4a	-93.09236
77	0xc2b9a984	-92.831085
78	0xc2ba3e6c	-93.12192
79	0xc2b9efdb	-92.96847
80	0xc2b9cce8	-92.90021
81	0xc2b9a559	-92.822945
82	0xc2ba462d	-93.13706
83	0x42ba4acb	93.14608
84	0xc2b9acde	-92.83763
85	0xc2b9f4f1	-92.9784
86	0xc2b9abcb	-92.83553
87	0xc2b9c83e	-92.8911
88	0xc2b9dbb9	-92.929146
89	0xc2b9e102	-92.93947
90	0xc2ba2a1a	-93.08223
91	0xc2b9ae88	-92.84088
92	0xc2ba05de	-93.01146
93	0x42b99235	92.78556
94	0xc2b98b03	-92.77151
95	0xc2b9e165	-92.94022
96	0xc2ba1853	-93.04751
97	0x42b9ae4d	92.84043
98	0xc2ba3f81	-93.12403
99	0x42ba090a	93.017654
100	0xc2ba1bc3	-93.05422
101	0x42b9f129	92.971016
102	0xc2b9c282	-92.8799
103	0xc2b9974e	-92.79552
104	0xc2b9ed4f	-92.96349
105	0xc2b9bce5	-92.868935
106	0xc2b991a1	-92.78443
107	0xc2ba2ea7	-93.09112
108	0xc2ba0b02	-93.0215
109	0x42b9e65a	92.949905
110	0xc2ba3e89	-93.12214
111	0xc2b9b0d8	-92.8454
112	0xc2b9c6b7	-92.888115
113	0xc2b9a56b	-92.82308
114	0xc2b9e02f	-92.93786
115	0xc2b9f9b8	-92.98773
116	0xc2b9ea03	-92.957054
117	0xc2b9c6df	-92.88842
118	0xc2b9e72a	-92.95149
119	0x42b9e002	92.937515
120	0xc2b9b54d	-92.8541
121	0xc2b9a2fd	-92.81834
122	0xc2ba330a	-93.099686
123	0x42b9bce9	92.868965
124	0xc2b9835a	-92.756546
125	0x42ba35d8	93.10516
126	0xc2b97666	-92.73125
127	0x42b9dbee	92.92955
128	0xc2b998f5	-92.798744
129	0xc2b9b2e6	-92.84941
130	0xc2ba4fbf	-93.155754
131	0xc2b9adb1	-92.83924
132	0xc2b9e526	-92.947556
133	0xc2b99f01	-92.810555
134	0xc2b9e944	-92.9556
135	0x42b9b225	92.84794
136	0xc2b9ea73	-92.95791
137	0xc2b9d5d8	-92.91766
138	0xc2ba477c	-93.13962
139	0xc2ba00eb	-93.00179
140	0xc2b9c12f	-92.87731
141	0xc2b9eed6	-92.96648
142	0xc2ba26f1	-93.07606
143	0xc2b98f7e	-92.78026
144	0xc2b9a6ee	-92.826035
145	0x42b9b7fa	92.85933
146	0xc2ba0a54	-93.02017
147	0xc2b9bf86	-92.87407
148	0xc2ba36c4	-93.106964
149	0x42b9dcb7	92.93108
150	0xc2b9bfef	-92.87487
151	0x42ba49c9	93.14411
152	0xc2b9dd3f	-92.93212
153	0x42ba4d22	93.15065
154	0xc2b9cdc9	-92.901924
155	0xc2b9d42e	-92.91441
156	0xc2ba4ade	-93.146225
157	0xc2b9944b	-92.789635
158	0xc2b997c7	-92.79644
159	0xc2b9b8bd	-92.86082
160	0xc2b9bd35	-92.869545
161	0x42ba1dff	93.058586
162	0xc2ba52c0	-93.16162
163	0xc2ba49de	-93.14427
164	0xc2ba0b45	-93.02201
165	0xc2b9b5c1	-92.85499
166	0xc2ba0a40	-93.02002
167	0xc2b9ac78	-92.83685
168	0xc2b9b853	-92.86001
169	0xc2b9b7cc	-92.85898
170	0xc2ba0e13	-93.02749
171	0x42ba1675	93.04386
172	0xc2ba4968	-93.14337
173	0xc2b9eb3c	-92.95944
174	0xc2ba31f4	-93.097565
175	0x42b9f1ec	92.9725
176	0xc2b9e86a	-92.95393
177	0x42ba40f1	93.12684
178	0xc2ba1226	-93.035446
179	0x42b9fd16	92.99431
180	0xc2b98ae4	-92.77127
181	0xc2b9a6a0	-92.82544
182	0xc2b99f98	-92.81171
183	0xc2ba20b5	-93.06388
184	0xc2ba19b6	-93.05022
185	0xc2ba61a5	-93.19071
186	0xc2ba60a3	-93.18874
187	0x42ba1df9	93.05854
188	0xc2b9caec	-92.89633
189	0xc2b9ebf1	-92.96082
190	0xc2bace69	-93.403145
191	0xc2ba709c	-93.21994
192	0xc2b9be1d	-92.871315
193	0xc2ba0193	-93.003075
194	0xc2ba886c	-93.26645
195	0xc2ba4d00	-93.15039
196	0xc2ba69cf	-93.20666
197	0x42b9f6bc	92.9819
198	0xc2b9db1f	-92.92797
199	0xc2ba6e09	-93.21491
200	0xc2b9bb52	-92.86586
201	0x42ba8763	93.26443
202	0xc2ba681e	-93.203354
203	0x42b9f808	92.984436
204	0x42b9add3	92.8395
205	0x42ba5ee3	93.185326
206	0xc2ba1167	-93.03399
207	0xc2b9edfc	-92.96481
208	0xc2b9ae08	-92.839905
209	0xc2ba10fb	-93.033165
210	0xc2ba4379	-93.13178
211	0xc2b9f68a	-92.98152
212	0xc2ba4287	-93.12994
213	0x42ba06b4	93.01309
214	0xc2b9c7d4	-92.89029
215	0xc2ba4d9f	-93.1516
216	0xc2bac064	-93.37576
217	0xc2b9e47c	-92.94626
218	0xc2b9c8e6	-92.89238
219	0xc2ba056e	-93.010605
220	0xc2ba8cb4	-93.27481
221	0xc2b9b8c3	-92.86086
222	0xc2b9be8b	-92.872154
223	0x42ba2f65	93.09257
224	0xc2b9f695	-92.981606
225	0xc2ba20f7	-93.064384
226	0xc2ba47d9	-93.14033
227	0x42ba884e	93.26622
228	0xc2ba3f44	-93.123566
229	0x42ba5f9e	93.18675
230	0x42b98d23	92.77566
231	0x42b9dc19	92.92988
232	0xc2ba8c4f	-93.27404
233	0xc2ba2784	-93.07718
234	0xc2ba1878	-93.04779
235	0xc2ba6244	-93.191925
236	0xc2ba2a57	-93.082695
237	0xc2b9fd92	-92.995255
238	0xc2ba36b5	-93.10685
239	0x42ba80b3	93.251366
240	0xc2ba2da3	-93.089134
241	0xc2ba7a83	-93.23928
242	0xc2ba54f9	-93.16596
243	0xc2ba178d	-93.046
244	0xc2b9b08d	-92.844826
245	0xc2ba237b	-93.0693
246	0xc2ba2186	-93.065475
247	0xc2ba1a4d	-93.05137
248	0xc2ba35be	-93.104965
249	0x42ba0abe	93.02098
250	0xc2ba7871	-93.23524
251	0xc2ba3416	-93.10173
252	0xc2ba3247	-93.0982
253	0x42ba024c	93.004486
254	0xc2ba38c1	-93.11085
255	0x42ba41bd	93.128395

key_encoder.encoder.bias_ih_l0 f4 [104]
0	0x42ba4171	93.127815
1	0x42bb24f7	93.5722
2	0x42ba6a5b	93.207726
3	0x42ba1e59	93.05927
4	0x42ba18b8	93.04828
5	0x42bade3d	93.43406
6	0x42ba55a3	93.16726
7	0x42bbd093	93.90737
8	0x42bc05e9	94.01154
9	0x42bbdb99	93.9289
10	0x42bb444e	93.63341
11	0x42bbe473	93.94619
12	0x42bbb0c0	93.845215
13	0x42bae1e2	93.44118
14	0x42ba6736	93.201584
15	0x42b96308	92.69342
16	0x42bb334f	93.60021
17	0x42bb7fcb	93.749596
18	0x42bb25e0	93.573975
19	0x42bb780e	93.73448
20	0x42bc078b	94.01473
21	0x42bac5e2	93.38649
22	0x42ba39c1	93.1128
23	0x42ba52fa	93.16206
24	0x42bbd991	93.924934
25	0x42ba638a	93.19441
26	0x42b9a83d	92.82859
27	0x42ba504a	93.156815
28	0x42b9e28a	92.94246
29	0x42b9a5f5	92.824135
30	0x42ba317e	93.096664
31	0x42b9ee89	92.96589
32	0x42b9da50	92.92639
33	0x42bb0b04	93.521515
34	0x42bb6b4e	93.70958
35	0x42bacec4	93.40384
36	0x42ba1006	93.031296
37	0x42bb011d	93.502174
38	0x42bae20e	93.44151
39	0x42b9b896	92.86052
40	0x42b9a68b	92.82528
41	0xc2b9bd2c	-92.86948
42	0x42ba5cf9	93.18159
43	0x42bb4066	93.62578
44	0x42ba3e15	93.121254
45	0x42b9f3c3	92.9761
46	0x42bb693e	93.70555
47	0x42b9d73b	92.92037
48	0x42b9c869	92.891426
49	0x42b9fa68	92.989075
50	0x42bac2e0	93.380615
51	0x42b9eb52	92.95961
52	0xc2bbc75e	-93.88939
53	0xc2bbb14a	-93.84627
54	0xc2baf1ec	-93.4725
55	0xc2bb8476	-93.75871
56	0xc2bb906f	-93.7821
57	0x42bb4c84	93.649445
58	0xc2bab363	-93.350365
59	0xc2bc0d0d	-94.02549
60	0xc2bc40cf	-94.12658
61	0xc2bbd650	-93.91858
62	0xc2bd45c5	-94.63627
63	0xc2bc2a56	-94.08269
64	0xc2bbc54b	-93.88534
65	0xc2bb31aa	-93.597
66	0xc2bca7b5	-94.32755
67	0xc2b9ef59	-92.967476
68	0xc2bc0de8	-94.02716
69	0xc2bbf81e	-93.984604
70	0xc2bba27f	-93.817375
71	0x42bb88db	93.767296
72	0xc2bc1065	-94.03202
73	0x42ba5016	93.15642
74	0xc2b64e33	-91.15273
75	0x42bacbf6	93.39836
76	0xc2bbc67d	-93.88767
77	0xc2bbe6ce	-93.95079
78	0x42ba7a4b	93.23885
79	0x42bb3e8d	93.62217
80	0x42baac83	93.33694
81	0x42ba7772	93.23329
82	0x42ba2868	93.07892
83	0x42bafc67	93.49297
84	0x42bad7b3	93.42129
85	0x42bbf71b	93.98263
86	0x42bdc634	94.887115
87	0x42bc784a	94.23494
88	0x42ba5d07	93.181694
89	0x42bc95a5	94.292274
90	0x42bc1d8f	94.05773
91	0x42baa7b8	93.327576
92	0x42ba0ffe	93.031235
93	0x42b9c56a	92.885574
94	0x42bb246f	93.57116
95	0x42bcc2c2	94.38039
96	0x42bad3f2	93.413956
97	0x42bb4899	93.64179
98	0x42bcfaf9	94.49018
99	0x42ba650e	93.19737
100	0x42ba75bf	93.22997
101	0x42bade06	93.43364
102	0x42bc412d	94.1273
103	0x42ba1316	93.03728

key_encoder.encoder.bias_hh_l0 f4 [104]
0	0x42ba7397	93.22576
1	0x42bb332d	93.59995
2	0x42ba5a6b	93.1766
3	0x42ba4d17	93.150566
4	0x42ba1d74	93.057526
5	0x42baf5d4	93.48013
6	0x42ba5316	93.16228
7	0x42bb75d9	93.73017
8	0x42bc1741	94.04542
9	0x42bbf908	93.98639
10	0x42bb2889	93.57917
11	0x42bc76e1	94.232185
12	0x42bba383	93.81936
13	0x42ba843d	93.25828
14	0x42bb1722	93.54518
15	0x42b9460c	92.63681
16	0x42bb977a	93.79585
17	0x42bb55b0	93.66736
18	0x42bb4c9d	93.649635
19	0x42bb3bae	93.61656
20	0x42bb8b44	93.772
21	0x42bae090	93.4386
22	0x42ba3c93	93.11831
23	0x42bac1e0	93.37866
24	0x42bb7f35	93.74845
25	0x42baa2e2	93.31813
26	0x42b9ffaf	92.99938
27	0x42ba16ab	93.04427
28	0x42b9f1ed	92.97251
29	0x42b99026	92.78154
30	0x42b9acd4	92.837555
31	0x42ba0d2e	93.02574
32	0x42b9ba8b	92.86434
33	0x42bad3fb	93.414024
34	0x42bb7072	93.71962
35	0x42bb1dbd	93.55808
36	0x42ba1a28	93.05109
37	0x42bb6e84	93.71585
38	0x42babbf2	93.36708
39	0x42b9b2c0	92.84912
40	0x42ba29d5	93.0817
41	0xc2b9f22c	-92.97299
42	0x42bac602	93.386734
43	0x42bb3337	93.60003
44	0x42b9bbca	92.866776
45	0x42ba73f2	93.226456
46	0x42baf344	93.47513
47	0x42b9f110	92.970825
48	0x42b9d675	92.91886
49	0x42ba176d	93.04575
50	0x42bb4c1a	93.648636
51	0x42b99b01	92.80274
52	0xc2bbb7be	-93.85887
53	0xc2bc18d8	-94.04852
54	0xc2bb50d4	-93.65787
55	0xc2bc3ae1	-94.115
56	0xc2bb0f35	-93.5297
57	0x42bb2391	93.569466
58	0xc2ba3c66	-93.117966
59	0xc2bbde7d	-93.93455
60	0xc2bc11f9	-94.0351
61	0xc2bb7335	-93.72501
62	0xc2bcb1cf	-94.34728
63	0xc2bc2bca	-94.085526
64	0xc2bbf22d	-93.973
65	0xc2ba8bf3	-93.27334
66	0xc2bbfd7d	-93.995094
67	0xc2b9cf24	-92.90457
68	0xc2bc00ef	-94.00182
69	0xc2bb9c1d	-93.80491
70	0xc2bc0521	-94.01002
71	0x42bb9914	93.79898
72	0xc2bbfc6b	-93.993004
73	0x42baa0f6	93.31438
74	0xc2b5a98f	-90.83117
75	0x42bac6dd	93.388405
76	0xc2bbf76a	-93.98323
77	0xc2bbd4fd	-93.91599
78	0x42ba1f3f	93.06103
79	0x42ba92f6	93.28703
80	0x42ba5622	93.16823
81	0x42ba86c0	93.26318
82	0x42ba3ac0	93.114746
83	0x42bad79e	93.42113
84	0x42ba6075	93.18839
85	0x42bba464	93.821075
86	0x42bd77f9	94.73432
87	0x42bc570c	94.17001
88	0x42ba04a3	93.009056
89	0x42bcb482	94.352554
90	0x42bbdab7	93.92718
91	0x42ba9372	93.28798
92	0x42babce0	93.3689
93	0x42b98e86	92.778366
94	0x42bb285e	93.57884
95	0x42bcfc7b	94.493126
96	0x42ba421a	93.129105
97	0x42bb411c	93.62717
98	0x42bd201a	94.5627
99	0x42ba957c	93.29196
100	0x42ba6845	93.20365
101	0x42ba7137	93.22112
102	0x42bc8c77	94.274345
103	0x42ba07da	93.015335

atten_layer.0.weight f4 [56, 168]
0	0x3cfaaf1c	0.030601077
1	0x3d974ec3	0.073880695
2	0x3d9b3a81	0.07579518
3	0x3d3a161a	0.045431234
4	0x3bbe2da0	0.005803779
5	0x3cca9900	0.02473116
6	0xbd1681b6	-0.036744796
7	0x3c913704	0.017726429
8	0x3cfa5c58	0.030561611
9	0xbd1cd4ec	-0.038288996
10	0x3c619488	0.013768323
11	0x3b6c6fa0	0.0036077276
12	0xbd8d5f75	-0.069029726
13	0x3d683fc2	0.05670143
14	0x3d67e5fa	0.056615807
15	0x3c087260	0.00832805
16	0xbb141d20	-0.0022600368
17	0xbc8dbf54	-0.017303146
18	0x3d92720b	0.07150658
19	0xbd49806a	-0.04919473
20	0x3c1b03a8	0.009461321
21	0xbd17cdeb	-0.037061613
22	0x3c7956d0	0.015218452
23	0x3b018520	0.0019763187
24	0xbd903ba4	-0.070426255
25	0x3d011462	0.03151358
26	0xbd710be4	-0.05884923
27	0x3ae98ac0	0.001781784
28	0x3cbdf508	0.023188129
29	0x3cb7b1a4	0.022423573
30	0x3ccc4590	0.024935514
31	0xbbbafc40	-0.00570634
32	0x3d83fde9	0.06444914
33	0xbd1c5cb6	-0.038174354
34	0xbd080eca	-0.03321723
35	0x3d48fc1a	0.049068548
36	0x3d8e83fb	0.06958767
37	0x3cb4fc84	0.022093065
38	0xbd3f9d6c	-0.04678099
39	0x3d7a3a72	0.061090894
40	0x3d85cdb9	0.06533379
41	0xbd56a334	-0.052401736
42	0x3d916d59	0.071009345
43	0x3cbd97d4	0.023143686
44	0xb95b8000	-0.00020933151
45	0x3cccd258	0.025002643
46	0x3d2f9b58	0.042872757
47	0x3d819d83	0.06328871
48	0x3c746f18	0.014919065
49	0x3c4200a0	0.011840969
50	0xbd6a1a2c	-0.057153866
51	0x3d139cf6	0.03603836
52	0xbd079466	-0.03310051
53	0x3b8b7ca0	0.0042568
54	0xbd3de724	-0.04636301
55	0x3bdb92d0	0.006700851
56	0x3d7d7bf2	0.06188578
57	0xbcf00ce0	-0.029303014
58	0x3a9560c0	0.0011396632
59	0x3d09e890	0.033669055
60	0xbd7962eb	-0.06088535
61	0x3d803f87	0.06262117
62	0x3d8e5027	0.069488816
63	0xbcadec36	-0.021230798
64	0x3d9c1d35	0.07622758
65	0xbd1ceb87	-0.038310554
66	0x3c116980	0.008875251
67	0x3d8517f7	0.064987116
68	0xbd3977db	-0.04528032
69	0xbc83c022	-0.016082827
70	0x3d9abfc5	0.075561084
71	0xbcdba1fc	-0.026810639
72	0xbd51b924	-0.051201954
73	0x3baa4ed0	0.0051973835
74	0xbd758a2c	-0.059946224
75	0xbccfc1ea	-0.02536102
76	0x3ac3d040	0.0014939383
77	0xbd734708	-0.059393913
78	0xbca72ae0	-0.020406187
79	0x3d3bea52	0.045877762
80	0x3d7f01d6	0.06225761
81	0xbd6fa00b	-0.05850224
82	0x3d3bac20	0.045818448
83	0x3d2803e6	0.041019343
84	0xbc5e5560	-0.01357016
85	0xbc7595e8	-0.014989354
86	0x3d98e8cb	0.07466277
87	0x3d33e7e4	0.04392232
88	0x3d4dd49e	0.050251596
89	0x3abb1400	0.0014272928
90	0xbd621626	-0.055196904
91	0x3d02b400	0.031909943
92	0x3cf50b60	0.02991265
93	0xbbd3f3e0	-0.006468281
94	0xbc4fc1d0	-0.012680486
95	0x3c4550d0	0.012043193
96	0xbd37921c	-0.044817075
97	0xbd23a4c6	-0.039952062
98	0x3d3380fe	0.04382419
99	0xbd2b4966	-0.041818045
100	0x3d30d864	0.043175116
101	0x3d6a3b4e	0.057185464
102	0x3d145106	0.036210082
103	0x3ba60700	0.0050667524
104	0xbcb776c8	-0.022395507
105	0x3d7e6f36	0.062117778
106	0x3d8da165	0.06915549
107	0x3d4a5a2e	0.04940241
108	0x3c3ad500	0.011403322
109	0xbcdac9b6	-0.026707511
110	0x3cf61684	0.030040033
111	0xbceee288	-0.029160753
112	0x42b9b834	92.85977
113	0xc2b9cd1f	-92.90063
114	0x42b9e2b6	92.942795
115	0xc2b9bbda	-92.8669
116	0xc2b9c3fc	-92.88278
117	0x42b9e0a6	92.93877
118	0xc2b9cd09	-92.90046
119	0xc2b9eebc	-92.96628
120	0x42b9c1ff	92.8789
121	0x42b9e904	92.95511
122	0x42b9c8fc	92.89255
123	0x42b9e4e7	92.947075
124	0xc2b9daf8	-92.92767
125	0x42b9c7f0	92.8905
126	0x42b9a336	92.81877
127	0xc2b9d303	-92.91213
128	0x42b9e3d3	92.94497
129	0x42b9a425	92.820595
130	0xc2b9b8ec	-92.861176
131	0x42b99e98	92.80975
132	0x42b9e1fb	92.94137
133	0xc2b9d6ab	-92.91927
134	0xc2b9b9e3	-92.86306
135	0x42b9d128	92.90851
136	0x42b9b728	92.85773
137	0x42b9baed	92.86509
138	0x42b9d36b	92.912926
139	0x42b9cbe3	92.89822
140	0x42b9a130	92.81482
141	0x42b9d032	92.90663
142	0xc2b9f1b5	-92.972084
143	0xc2ba02b1	-93.00526
144	0xc2b9e812	-92.95326
145	0xc2b9ee56	-92.9655
146	0xc2b9e96c	-92.9559
147	0x42b9cba4	92.897736
148	0xc2b9d07d	-92.9072
149	0xc2b9e2fa	-92.94331
150	0xc2ba41fa	-93.12886
151	0xc2ba21ba	-93.06587
152	0xc2ba038c	-93.00693
153	0xc2b9f8e4	-92.986115
154	0xc2ba07c9	-93.015205
155	0xc2b9e85b	-92.95382
156	0xc2b9f61c	-92.98068
157	0xc2b9b221	-92.84791
158	0xc2b9dada	-92.927444
159	0xc2b9eb3b	-92.959435
160	0xc2b9f218	-92.97284
161	0x42b9c3c0	92.882324
162	0xc2ba12f5	-93.037025
163	0x42b9cc47	92.89898
164	0xc2b9b89e	-92.86058
165	0x42b9cc97	92.89959
166	0xc2b9e268	-92.9422
167	0xc2b9bdf5	-92.87101
168	0xbcd57008	-0.026054397
169	0x3d7eff86	0.062255405
170	0x3d7431ba	0.059617735
171	0x3b6e0520	0.0036318973
172	0x3bbba630	0.005726598
173	0xbcbd286c	-0.023090564
174	0x3aa7fe00	0.0012816787
175	0x3d9aaf73	0.075529955
176	0xbb7b5dc0	-0.003835544
177	0x3d81007f	0.06298923
178	0xbd386e25	-0.045026917
179	0xbd0c47f0	-0.034248292
180	0x3d0d7bb4	0.0345418
181	0x3d412096	0.047150217
182	0x3d309444	0.043110147
183	0x3d53498a	0.051583804
184	0xbb99be30	-0.0046918616
185	0xbd36b25f	-0.0446037
186	0xbc130a58	-0.008974634
187	0xbce590e2	-0.028023187
188	0x3d57dbfe	0.052700035
189	0x3c89d05c	0.016822986
190	0xbcce7708	-0.025203243
191	0x3d3ed24a	0.046587266
192	0xbba3a510	-0.004994042
193	0x3d3dadde	0.04630839
194	0x3d814acd	0.06313095
195	0x3d719982	0.058984287
196	0xbc774590	-0.015092269
197	0xbd0f4b5e	-0.034983985
198	0x3d0f7d8e	0.035031848
199	0x3d84fd33	0.064936064
200	0x3cd768f8	0.02629517
201	0xbd8e929f	-0.069615595
202	0xbb29ff60	-0.002593957
203	0x3d1ef2d6	0.038805805
204	0x3bd8be30	0.006614469
205	0x3d24ebaa	0.04026381
206	0xbcd950dc	-0.026527815
207	0x3d94a4bb	0.07257982
208	0xbd8b5c72	-0.06804742
209	0x3cd42a4c	0.025899075
210	0xbd938c98	-0.072045505
211	0xbd8082b4	-0.0627493
212	0x3c187d90	0.00930728
213	0xba999840	-0.0011718348
214	0xbcf3fdd4	-0.02978412
215	0xbcd2ea6e	-0.02574655
216	0x3d4523fa	0.048130013
217	0x3a8aca80	0.0010588914
218	0x3d47e632	0.048803516
219	0xbd81866b	-0.06324466
220	0xbd957582	-0.072978035
221	0xbd7c20da	-0.061554767
222	0xbcca6406	-0.024705898
223	0xbd897ffc	-0.06713864
224	0x3d3e469e	0.046454065
225	0x3cfda688	0.030963197
226	0xbd8eb6ac	-0.06968436
227	0x3d56a6ea	0.052405275
228	0xbd202604	-0.039098755
229	0x3d327580	0.043569088
230	0x3d1f4e0a	0.038892783
231	0xbce0274c	-0.027362488
232	0x3d41f9a0	0.0473572
233	0xbca7ddd6	-0.020491522
234	0xbd6a4458	-0.057194084
235	0x3d84ae5b	0.06478568
236	0x3bc076a0	0.005873516
237	0x3ce3811c	0.027771525
238	0x3d7632ba	0.06010697
239	0x3c0e2898	0.0086766705
240	0x3cbfb418	0.023401305
241	0xbd473384	-0.048633114
242	0xbd6b7815	-0.057487566
243	0x3c4721a0	0.012154013
244	0xbcfbf3ce	-0.030755904
245	0x3d6a14ba	0.057148673
246	0xbd376470	-0.04477352
247	0x3d8d0729	0.06886131
248	0xbd9c5c23	-0.07634761
249	0x3d9b623f	0.07587098
250	0x3d5daa7e	0.054117672
251	0x3d27914c	0.04091005
252	0x3d975eb1	0.07391108
253	0x3cbd1f44	0.023086198
254	0x3c548640	0.012971461
255	0x3d4c88aa	0.04993502

atten_layer.0.bias f4 [56]
0	0xc2b9c359	-92.88154
1	0x42b9fa5a	92.98897
2	0xc2ba154b	-93.04159
3	0xc2ba3aaa	-93.11458
4	0x42ba5c90	93.180786
5	0x42ba1cc5	93.05619
6	0xc2ba2e16	-93.09001
7	0x42b9b817	92.85955
8	0xc2b9cfea	-92.90608
9	0xc2b9c5db	-92.88644
10	0x42ba22e6	93.06816
11	0x42ba40ac	93.12631
12	0xc2b99c80	-92.805664
13	0x42b9f6ce	92.98204
14	0x42ba2b2a	93.084305
15	0xc2b9e829	-92.95344
16	0xc2b9f3d7	-92.97625
17	0x42ba1615	93.04313
18	0x42b9ec96	92.96208
19	0x42ba0cba	93.02486
20	0x42b9dcb3	92.93105
21	0xc2ba1d57	-93.057304
22	0x42b9c5bf	92.88622
23	0x42b9f93f	92.98681
24	0xc2ba210f	-93.06457
25	0xc2b9e901	-92.955086
26	0x42ba2b5b	93.08468
27	0x42b9f7cb	92.98397
28	0xc2ba5ecc	-93.18515
29	0xc2b9e020	-92.937744
30	0xc2b9e788	-92.95221
31	0xc2b9bcb6	-92.868576
32	0x42ba0c3b	93.02389
33	0xc2b9bfde	-92.87474
34	0x42b9e270	92.94226
35	0x42ba0d12	93.02553
36	0x42ba4481	93.1338
37	0xc2b9fe87	-92.99712
38	0x42ba184b	93.04745
39	0x42b9ba2e	92.86363
40	0x42b9abd1	92.83558
41	0xc2b9e622	-92.94948
42	0x42ba2c5e	93.086655
43	0xc2b9eda2	-92.96413
44	0xc2ba3c74	-93.11807
45	0x42b9d5d1	92.91761
46	0xc2b9e240	-92.941895
47	0xc2ba1b54	-93.053375
48	0x42b9c6ee	92.888535
49	0xc2ba1c28	-93.05499
50	0x42ba241b	93.07052
51	0x42b9f87a	92.985306
52	0x42b9e090	92.9386
53	0x42b9f66d	92.9813
54	0x42b9aa6c	92.832855
55	0x42ba45f1	93.136604

atten_layer.2.weight f4 [1, 56]
0	0xc2ba21f9	-93.06635
1	0xc2ba1114	-93.033356
2	0x42ba6ce3	93.21267
3	0x42baec2a	93.46126
4	0xc2bb21ed	-93.56626
5	0xc2bae882	-93.45412
6	0x42bab5a8	93.3548
7	0x42b95787	92.67095
8	0xc2b942f2	-92.63075
9	0x42bb349f	93.602776
10	0xc2bae029	-93.43781
11	0xc2bb12fa	-93.53706
12	0xc2b97e3e	-92.74657
13	0xc2bb2d85	-93.588905
14	0xc2bb0f59	-93.529976
15	0xc2b9bb5c	-92.86594
16	0x42bb17b0	93.546265
17	0xc2bafb85	-93.49125
18	0x42b951ff	92.66015
19	0xc2ba63ec	-93.19516
20	0x42b96927	92.705376
21	0x42bb3477	93.60247
22	0xc2baa6d6	-93.32585
23	0xc2bac62c	-93.387054
24	0x42bb25e6	93.57402
25	0x42baaa80	93.33301
26	0xc2bb0a07	-93.519585
27	0xc2baaab7	-93.33343
28	0x42bba332	93.81874
29	0xc2b9fbbf	-92.99169
30	0x42bb1b0c	93.552826
31	0x42b85d55	92.18229
32	0xc2bab6a7	-93.35674
33	0x42badd6a	93.43245
34	0x42ba0d1e	93.02562
35	0x42b90f07	92.52935
36	0xc2bb4637	-93.63714
37	0x42baad3c	93.33835
38	0xc2bb00b1	-93.50135
39	0xc2bac04c	-93.37558
40	0xc2baf977	-93.487236
41	0xc2b8c97f	-92.39355
42	0xc2badad4	-93.4274
43	0x42ba8214	93.25406
44	0x42bb37eb	93.609215
45	0xc2babc04	-93.36722
46	0x42baa032	93.31288
47	0xc2b8d8d4	-92.42349
48	0xc2bae422	-93.44557
49	0x42baffee	93.49986
50	0xc2bae97e	-93.45604
51	0x42b93272	92.598526
52	0xc2ba501e	-93.15648
53	0x42b96eec	92.716644
54	0xc2bb1b31	-93.55311
55	0xc2bae283	-93.442406
