Final project/competition/savemodel/best_995.pth (torch_old, 668674 bytes, 63 tensors)

price_encoder.attention.weight f4 [1, 90]
0	0x42ba4877	93.14153
1	0xc2ba6b44	-93.2095
2	0x42ba5c38	93.180115
3	0x42b9ab91	92.83509
4	0x42ba616d	93.190285
5	0x42ba22f7	93.06829
6	0xc2ba31e7	-93.097466
7	0xc2ba266c	-93.07504
8	0x42ba2fa2	93.09303
9	0x42ba77f3	93.234276
10	0xc2bab175	-93.346596
11	0x42ba2323	93.06863
12	0xc2ba5473	-93.16494
13	0x42ba6611	93.19935
14	0x42ba33b2	93.10097
15	0xc2ba6003	-93.18752
16	0x42ba2131	93.06483
17	0x42ba7e16	93.24626
18	0x42ba6823	93.20339
19	0xc2ba8d38	-93.27582
20	0x42ba83e8	93.25763
21	0xc2ba7dc5	-93.24564
22	0xc2ba6772	-93.20204
23	0x42ba4464	93.133575
24	0x42ba8061	93.25074
25	0x42ba1925	93.04911
26	0x42ba23d2	93.06996
27	0x42ba3b55	93.11588
28	0x42ba24f1	93.07215
29	0xc2ba5ea1	-93.18482
30	0x42ba1bff	93.05468
31	0xc2ba2b23	-93.08425
32	0x42ba243b	93.07076
33	0xc2b9a78c	-92.82724
34	0x42ba8b0f	93.2716
35	0x42ba3c0c	93.11728
36	0xc2ba1d0c	-93.05673
37	0xc2ba2e14	-93.09
38	0x42ba38f7	93.11126
39	0x42ba5e45	93.18412
40	0xc2ba7690	-93.23157
41	0x42ba3345	93.100136
42	0xc2ba1744	-93.04544
43	0x42ba29a4	93.08133
44	0x42ba3479	93.102486
45	0xc2b9fcc0	-92.99365
46	0x42ba4cfd	93.15037
47	0x42ba2315	93.06852
48	0x42ba9e9a	93.30977
49	0xc2ba8bab	-93.27279
50	0x42ba0c30	93.0238
51	0xc2ba0a24	-93.019806
52	0xc2ba4003	-93.12502
53	0x42ba58ae	93.1732
54	0x42ba18c3	93.04836
55	0x42ba52a9	93.161446
56	0x42ba4d8b	93.15145
57	0x42ba3687	93.1065
58	0x42ba5c1c	93.1799
59	0xc2ba544a	-93.16463
60	0xc2ba42f1	-93.130745
61	0xc2ba8b6f	-93.27233
62	0xc2ba7df7	-93.246025
63	0xc2ba53ee	-93.163925
64	0xc2ba5855	-93.17252
65	0xc2ba2abf	-93.08349
66	0xc2ba3a57	-93.113945
67	0xc2ba057c	-93.01071
68	0xc2ba1bb6	-93.05412
69	0xc2ba3fff	-93.12499
70	0xc2ba6189	-93.1905
71	0xc2ba3f4f	-93.12365
72	0xc2ba6716	-93.20134
73	0xc2ba1c83	-93.05569
74	0xc2ba3bce	-93.116806
75	0xc2ba6059	-93.18818
76	0xc2ba799e	-93.23753
77	0xc2ba4820	-93.14087
78	0xc2ba01cd	-93.00352
79	0xc2ba9fe8	-93.31232
80	0xc2bac979	-93.3935
81	0xc2ba86c2	-93.2632
82	0xc2ba37fb	-93.10934
83	0xc2ba5f96	-93.18669
84	0xc2ba365b	-93.10616
85	0xc2ba46b0	-93.13806
86	0xc2ba845c	-93.258514
87	0xc2ba88d1	-93.26722
88	0xc2ba32a0	-93.09888
89	0xc2ba33be	-93.10106

price_encoder.encoder.weight_ih_l0 f4 [120, 45]
0	0xbce4d130	-0.02793178
1	0x3e29e314	0.1659053
2	0x3db68048	0.089111865
3	0xbdd7ba68	-0.10533601
4	0x3d239408	0.039936095
5	0x3df6e424	0.12055233
6	0xbd2b0e24	-0.041761532
7	0x3d82613e	0.06366204
8	0xbc3574a0	-0.011075169
9	0x3d8e404c	0.069458574
10	0xbe07d866	-0.13266143
11	0xbd0cf4a0	-0.03441298
12	0x3afc1300	0.0019231737
13	0xbdf06a8b	-0.117390715
14	0xbddf9432	-0.10916938
15	0xbda72a0e	-0.08162318
16	0x3e3544a6	0.17701969
17	0xbdc72b3b	-0.097250424
18	0xbdefb5e0	-0.11704612
19	0x3e2fb3e0	0.1715846
20	0xbdf08195	-0.11743466
21	0xbdb9c2cd	-0.090703584
22	0xbcbf7c78	-0.023374781
23	0x3d5ccda0	0.053907037
24	0xbe00ec2a	-0.1259009
25	0x3def53d4	0.11685911
26	0xbb1973c0	-0.002341494
27	0xbe143b99	-0.1447586
28	0xbe0812e1	-0.13288452
29	0xbda28a58	-0.07936543
30	0xbdd5285b	-0.10408088
31	0x3cc9b350	0.024621636
32	0xbe1c3b4b	-0.15256993
33	0x40d171e8	6.5451546
34	0x42ba6d05	93.21293
35	0x42ba385d	93.110085
36	0x42ba788f	93.235466
37	0x42badf55	93.436195
38	0xbe2ca27f	-0.16858862
39	0x42b9f1e4	92.97244
40	0x42b9e0c8	92.939026
41	0x42ba4063	93.125755
42	0x42ba17d9	93.04658
43	0xbd9dc1a9	-0.07702953
44	0x3e15d9d4	0.14633876
45	0xbdb37c37	-0.087639265
46	0x3e16ab9c	0.14713901
47	0x3dc8ebe4	0.098106176
48	0x3c83b388	0.016076818
49	0x3da7893c	0.08180472
50	0x3e31f5ca	0.17378917
51	0xbc0b2d10	-0.00849463
52	0x3e03015c	0.12793487
53	0xbe24d1b6	-0.16095623
54	0x3d95389c	0.07286188
55	0xbe0c363d	-0.13692565
56	0x3e33284e	0.17495844
57	0xbbbcac00	-0.0057578087
58	0x3e036abe	0.12833688
59	0xbbde9c60	-0.0067935437
60	0x3e364a24	0.1780172
61	0xbcb6dfe8	-0.022323564
62	0xbe384e68	-0.1799866
63	0x3df683c0	0.12036848
64	0xbd8a97ed	-0.06767259
65	0xbe31fd99	-0.17381896
66	0x3db12da0	0.086512804
67	0xbe198762	-0.1499305
68	0xbb475500	-0.0030415654
69	0xbda44a8b	-0.080220304
70	0x3af45f80	0.0018644184
71	0x3d39c3c8	0.045352727
72	0x3da15340	0.07877207
73	0x3d6a21e0	0.057161212
74	0xbce50ac8	-0.027959242
75	0xbd306974	-0.043069318
76	0xbd5725cc	-0.05252628
77	0x3d441848	0.04787472
78	0x41360809	11.376962
79	0x42bad3ee	93.413925
80	0x42babdae	93.37047
81	0x42baa4b4	93.321686
82	0x42bac6de	93.38841
83	0x3d4907f0	0.049079835
84	0x42ba1516	93.04118
85	0x42ba26ec	93.07602
86	0x42ba087b	93.01656
87	0x42b9f930	92.986694
88	0xbdf7534a	-0.12076433
89	0xbd564540	-0.052312136
90	0xbd492af4	-0.04911323
91	0xbd98780b	-0.074447714
92	0xbdc87a06	-0.09788899
93	0xbdfa03e4	-0.12207773
94	0xbe28fc39	-0.16502465
95	0xbd9b40ff	-0.075807564
96	0x3e12021c	0.14258617
97	0xbdba099b	-0.09083863
98	0xbdd74d63	-0.10512807
99	0xbd25eb50	-0.040507615
100	0xbbf53b40	-0.00748387
101	0xbe196bfc	-0.14982599
102	0x3dc3716c	0.09543118
103	0x3e0be5e4	0.13661915
104	0x3d67d8f4	0.056603387
105	0xbe0a3cfa	-0.13499823
106	0x3e10ab80	0.14127922
107	0x3dd146a0	0.10218549
108	0x3e1103b0	0.14161563
109	0xbd595308	-0.0530577
110	0x3d8aa6c0	0.06770086
111	0x3aa68380	0.0012703985
112	0xbe244135	-0.160405
113	0x3d9ac5a8	0.07557231
114	0xbd83f3b4	-0.06442967
115	0xbc49e890	-0.012323514
116	0x3cdcae08	0.026938453
117	0x3e269968	0.16269457
118	0x3e0c98e8	0.13730204
119	0x3e2d7d8c	0.16942424
120	0x3dca2a18	0.0987131
121	0x3e2d24ee	0.16908619
122	0xbcaf1e38	-0.021376714
123	0x3fcc1458	1.5943708
124	0x42baa025	93.31278
125	0x42ba660e	93.199326
126	0x42ba48fe	93.14256
127	0x42ba5409	93.16413
128	0x3d5096d0	0.050925076
129	0xc2ba2d09	-93.08796
130	0xc2ba08c1	-93.0171
131	0xc2b9e476	-92.94621
132	0xc2b9a1a9	-92.81574
133	0xbe20e9dd	-0.15714212
134	0x3e35e03c	0.1776132
135	0x3e334a3c	0.17508787
136	0xbdb86067	-0.09002762
137	0xbe2bb7e7	-0.16769372
138	0x3e0616e0	0.13094664
139	0x3d12e6e8	0.03586474
140	0x3da928e4	0.082597524
141	0x3d535808	0.051597625
142	0xbe1f1bae	-0.15537903
143	0xbe14c7ce	-0.14529344
144	0xbc874bc0	-0.016515613
145	0x3dfb47dc	0.122695655
146	0xbdff94f3	-0.12479582
147	0x3de2e4bc	0.11078784
148	0x3e31eae6	0.17374763
149	0xbb0b7d00	-0.0021284223
150	0x3d3ddb54	0.046351746
151	0x3db2e87c	0.08735749
152	0xbe005395	-0.12531884
153	0x3e35c5fe	0.1775131
154	0xbdf6e324	-0.120550424
155	0xbd841c3c	-0.06450698
156	0x3d11872c	0.0355293
157	0x3d59bff4	0.053161576
158	0xbcaeb590	-0.02132681
159	0x3e105de4	0.14098316
160	0x3de58318	0.11206645
161	0xbe1f8c75	-0.15580924
162	0xbdf5d96e	-0.12004362
163	0x3d98825c	0.07446739
164	0xbe28ff59	-0.16503657
165	0xbe2b80ec	-0.16748399
166	0xbdc1b54b	-0.09458407
167	0xbd7cf912	-0.06176097
168	0xc25ba72d	-54.913258
169	0xc2bad53b	-93.416466
170	0xc2bb09e2	-93.5193
171	0xc2bb153b	-93.541466
172	0xc2bb1766	-93.5457
173	0x3e152f20	0.14568758
174	0xc2b9c1a2	-92.87819
175	0xc2b9b123	-92.84597
176	0xc2b9dcac	-92.931
177	0xc2ba0e86	-93.028366
178	0xbd968578	-0.07349676
179	0x3cfa73a8	0.030572727
180	0x3e1c2456	0.15248236
181	0x3de0b670	0.10972297
182	0x3d696b64	0.05698718
183	0x3d47b11c	0.04875289
184	0x3ddbd998	0.10734862
185	0xbe27dd64	-0.16393048
186	0xbe1cbccc	-0.15306395
187	0x3df7282c	0.12068209
188	0xbd6944f4	-0.056950524
189	0xbe32cb2a	-0.17460313
190	0xbe16a22e	-0.14710304
191	0x3e3ab9fe	0.18235013
192	0xbdf6f76e	-0.12058912
193	0x3c014520	0.007890016
194	0xbd0179dc	-0.031610355
195	0x3c8731c8	0.01650323
196	0xbe2fb979	-0.17160596
197	0xbd1202ec	-0.035647318
198	0xbdb45ac9	-0.088063784
199	0xbe06391c	-0.13107723
200	0xbe3a304a	-0.18182483
201	0x3d085b40	0.033290148
202	0xbd4662d8	-0.04843411
203	0xbdfd4d66	-0.12368278
204	0x3d7b4b20	0.06135094
205	0x3ddfd4d4	0.109292656
206	0xbd5f1bd8	-0.054469913
207	0xbd9b7be9	-0.07591993
208	0x3e2fc148	0.17163575
209	0xbe1e5733	-0.15462951
210	0xbe07bfbc	-0.13256735
211	0xbdd86bf0	-0.105674624
212	0xbd6ed966	-0.058312796
213	0xc163cf7f	-14.238158
214	0x42ba4c2d	93.14878
215	0x42b9a565	92.82304
216	0x42ba35cf	93.105095
217	0x42b9a999	92.831245
218	0xbd06a7d4	-0.032874897
219	0xc2b9cbbc	-92.89792
220	0xc2b9ff4a	-92.99861
221	0xc2b9f0d5	-92.970375
222	0xc2b9cee9	-92.90412
223	0x3e083a36	0.13303456
224	0x3be5a7c0	0.0070085227
225	0x3e069e3c	0.13146299
226	0x3e0b9c22	0.13633779
227	0xbe07ba0f	-0.1325457
228	0xbd9e59f3	-0.07732
229	0xbdd6b1e4	-0.10483149
230	0xbdd037b2	-0.10166873
231	0x3d826378	0.063666284
232	0xbdea89aa	-0.114520386
233	0x3d0f3138	0.034959048
234	0x3d2f8b94	0.04285772
235	0xbdc3dd8f	-0.09563743
236	0x3e231c66	0.15928802
237	0xbdaa0633	-0.08301964
238	0xbcb26178	-0.021774992
239	0x3d488dbc	0.048963293
240	0x3ccda850	0.025104672
241	0xbd581c00	-0.052761078
242	0x3bcab760	0.006186411
243	0xbdc69bc3	-0.09697678
244	0x3e06547a	0.13118163
245	0x3db5374c	0.08848438
246	0x3d8bd104	0.06826976
247	0x3e3604f8	0.17775333
248	0xbdd391a6	-0.103305146
249	0xbe029db8	-0.12755477
250	0x3dcc0bfc	0.09963223
251	0xbe31b828	-0.17355406
252	0x3db15750	0.08659232
253	0x3e0e3968	0.13889086
254	0xbda1528e	-0.07877074
255	0x3d6da618	0.058019727

price_encoder.encoder.weight_hh_l0 f4 [120, 30]
0	0xc2ba2b0d	-93.08408
1	0x42ba03c0	93.007324
2	0xc2b9feb0	-92.99744
3	0xc2ba20dc	-93.06418
4	0xc2ba396c	-93.11215
5	0xc2ba2bd9	-93.08564
6	0x42b9f3d7	92.97625
7	0x42ba55ff	93.16796
8	0xc2ba47e3	-93.1404
9	0xc2ba7983	-93.23733
10	0x42b9f76f	92.98327
11	0xc2ba6d48	-93.21344
12	0x42ba2b0f	93.0841
13	0xc2ba7688	-93.23151
14	0xc2ba78dc	-93.23605
15	0x42ba353f	93.104
16	0xc2ba12b6	-93.036545
17	0xc2ba4470	-93.13367
18	0xc2ba26d7	-93.07586
19	0x42ba71d3	93.22231
20	0xc2b9dd67	-92.93243
21	0x42ba3c5f	93.11791
22	0x42ba3db2	93.1205
23	0xc2ba30a9	-93.09504
24	0xc2ba3e6c	-93.12192
25	0xc2ba3b41	-93.11573
26	0xc2ba7ec5	-93.2476
27	0xc2ba1c88	-93.055725
28	0xc2b9f04c	-92.96933
29	0x42ba51b6	93.15959
30	0xc2ba621a	-93.191605
31	0x42ba2f47	93.09234
32	0xc2b9daef	-92.927605
33	0xc2b9d1d7	-92.90984
34	0xc2b9e80b	-92.95321
35	0xc2ba35f4	-93.10538
36	0x42ba4be2	93.14821
37	0x42bab1db	93.347374
38	0xc2ba140f	-93.03918
39	0xc2ba6bea	-93.21077
40	0x42b9bb5c	92.86594
41	0xc2ba1d11	-93.05677
42	0x42ba0a4d	93.02012
43	0xc2ba90e6	-93.283005
44	0xc2ba5654	-93.16861
45	0x42ba4ed6	93.15398
46	0xc2ba7381	-93.22559
47	0xc2ba6008	-93.18756
48	0xc2ba6fb8	-93.2182
49	0x42ba55be	93.167465
50	0xc2b9e46f	-92.94616
51	0x42b9e333	92.94375
52	0x42ba049b	93.008995
53	0xc2ba6e89	-93.21589
54	0xc2ba2f6e	-93.092636
55	0xc2baa094	-93.31363
56	0xc2b9e356	-92.944016
57	0xc2ba014a	-93.00252
58	0xc2ba1690	-93.04407
59	0xc2ba274d	-93.07676
60	0xc2ba9304	-93.28714
61	0x42b9ef81	92.96778
62	0xc2b9f6e5	-92.982216
63	0x42b9b778	92.85834
64	0xc2ba6623	-93.199486
65	0xc2ba1243	-93.03567
66	0x42ba98ca	93.298416
67	0x42ba366b	93.106285
68	0xc2ba0376	-93.00676
69	0xc2ba4fbc	-93.15573
70	0x42ba3b58	93.115906
71	0xc2ba3045	-93.09428
72	0x42b9fb0e	92.99034
73	0xc2ba770e	-93.23253
74	0xc2ba58a8	-93.17316
75	0x42ba3804	93.109406
76	0xc2baa716	-93.32634
77	0xc2b9e823	-92.95339
78	0xc2ba78dd	-93.23606
79	0x42b9eb0c	92.959076
80	0xc2b9e080	-92.93848
81	0x42ba0844	93.01614
82	0x42ba583a	93.17232
83	0xc2ba5987	-93.17486
84	0xc2ba8b3b	-93.271935
85	0xc2ba2f52	-93.09242
86	0xc2ba906f	-93.2821
87	0xc2ba9c3d	-93.30515
88	0xc2b9c706	-92.88872
89	0x42ba39bb	93.112755
90	0x42ba015b	93.00265
91	0xc2ba6dcd	-93.214455
92	0xc2ba56c1	-93.16944
93	0x42ba598a	93.17488
94	0x42ba43f7	93.132744
95	0x42baab8f	93.335075
96	0xc2ba757d	-93.22947
97	0xc2ba4a8b	-93.14559
98	0x42ba6e70	93.2157
99	0xc2b81138	-92.03363
100	0xc2ba0341	-93.006355
101	0x42b9fefa	92.998
102	0xc2ba2cb1	-93.08729
103	0x42ba3d3f	93.11962
104	0xc2ba2c97	-93.08709
105	0xc2ba4352	-93.131485
106	0x42ba3482	93.102554
107	0x42ba6f7a	93.21773
108	0xc2b9fac5	-92.989784
109	0xc2ba42ea	-93.13069
110	0x42b9b6ae	92.8568
111	0xc2ba74fd	-93.22849
112	0xc2ba25d2	-93.07387
113	0x42b9cb74	92.89737
114	0x42ba55a2	93.16725
115	0x42b9e7fe	92.95311
116	0x42ba3d86	93.12016
117	0x42ba4b03	93.14651
118	0xc2b9a61f	-92.824455
119	0x42b9e530	92.94763
120	0xc2ba6b03	-93.20901
121	0x42ba2f42	93.0923
122	0xc2b9f3c1	-92.97608
123	0x42b9eb5b	92.95968
124	0xc2b9b226	-92.847946
125	0xc2ba197e	-93.04979
126	0x42ba6437	93.19573
127	0x42ba5dd8	93.18329
128	0xc2ba7424	-93.22684
129	0xc2b9cdf8	-92.90228
130	0x42ba1c72	93.05556
131	0xc2ba6e71	-93.215706
132	0x42ba5b67	93.17852
133	0xc2b9e67a	-92.95015
134	0xc2b9cf8f	-92.90539
135	0x42ba191b	93.049034
136	0xc2ba5d9f	-93.18285
137	0xc2b9f425	-92.976845
138	0xc2ba6607	-93.19927
139	0x42ba0c1d	93.02366
140	0xc2b9e794	-92.9523
141	0x42ba0215	93.00407
142	0x42ba1d76	93.05754
143	0xc2b9c517	-92.88494
144	0xc2ba0164	-93.002716
145	0xc2ba4ccd	-93.15
146	0xc2ba659a	-93.19844
147	0xc2b9ed14	-92.96304
148	0xc2b9c7a5	-92.88993
149	0x42ba1781	93.045906
150	0xc2ba4c37	-93.14886
151	0x42ba8943	93.26809
152	0xc2ba1de1	-93.05836
153	0xc2b9e0e3	-92.93923
154	0xc2ba199f	-93.05004
155	0xc2ba6bb1	-93.210335
156	0x42ba6755	93.20182
157	0x42bad5ae	93.41734
158	0xc2ba8f95	-93.28043
159	0xc2ba0efe	-93.02928
160	0x42b9f178	92.97162
161	0xc2bac2a9	-93.380196
162	0x42ba20bd	93.06394
163	0xc2ba5500	-93.166016
164	0xc2b9db7c	-92.92868
165	0x42ba28c6	93.079636
166	0xc2ba246c	-93.07114
167	0xc2ba7beb	-93.24203
168	0xc2b9cbe9	-92.89826
169	0x42ba6f91	93.2179
170	0xc2b9d465	-92.91483
171	0x42b9f46e	92.9774
172	0x42ba5eaf	93.18493
173	0xc2ba1fec	-93.06235
174	0xc2ba973e	-93.295395
175	0xc2ba13a4	-93.03836
176	0xc2ba09b4	-93.01895
177	0xc2ba873d	-93.26414
178	0xc2ba0c9b	-93.02462
179	0xc2b9cb2d	-92.89683
180	0xc2ba6049	-93.18806
181	0x42ba04f1	93.00965
182	0xc2ba78e6	-93.23613
183	0xc2b9fd91	-92.99525
184	0xc2ba2a60	-93.08276
185	0xc2ba48fb	-93.14254
186	0x42ba3d00	93.11914
187	0x42ba3178	93.09662
188	0xc2b9f172	-92.97157
189	0xc2ba3e61	-93.12183
190	0x42ba5152	93.15883
191	0xc2ba1a3c	-93.05124
192	0x42b9e9ae	92.956406
193	0xc2ba2bcd	-93.08555
194	0xc2b9ce24	-92.90262
195	0x42ba21a1	93.06568
196	0xc2ba8b3c	-93.27194
197	0xc2ba4052	-93.125626
198	0x42b9c08f	92.87609
199	0x42ba3abf	93.11474
200	0xc2ba8189	-93.253
201	0x42ba2ca1	93.087166
202	0x42ba8a85	93.270546
203	0xc2ba73a5	-93.22587
204	0xc2ba4d01	-93.1504
205	0xc2ba6ab3	-93.2084
206	0xc2ba5e64	-93.18436
207	0xc2ba22e6	-93.06816
208	0xc2b9afd0	-92.84338
209	0xc2b9cfed	-92.906105
210	0xc2ba0557	-93.01043
211	0x42ba27e7	93.077934
212	0xc2ba0836	-93.01604
213	0xc2ba209d	-93.0637
214	0xc2ba34f4	-93.103424
215	0xc2ba8d77	-93.2763
216	0x42ba7a3b	93.23873
217	0x42ba2545	93.07279
218	0xc2ba04e5	-93.00956
219	0xc2ba344f	-93.102165
220	0x42ba2893	93.07925
221	0xc2ba4ae0	-93.14624
222	0x42b9d0a1	92.90748
223	0xc2ba6a97	-93.20818
224	0xc2ba6dcd	-93.214455
225	0x42ba785b	93.23507
226	0xc2ba500c	-93.15634
227	0xc2ba63b9	-93.19477
228	0x42b9d7ea	92.92171
229	0x42b9f4e4	92.9783
230	0xc2b9d17b	-92.90914
231	0x42ba829f	93.25512
232	0x42ba5d1a	93.18184
233	0xc2ba440d	-93.13291
234	0xc2ba3c6a	-93.118
235	0xc2ba7c14	-93.24234
236	0xc2ba8001	-93.25001
237	0xc2ba1fc4	-93.06204
238	0xc2b91b94	-92.55386
239	0xc2b9e4d1	-92.94691
240	0xc2ba031b	-93.006065
241	0x42ba048e	93.008896
242	0xc2b9ed33	-92.96328
243	0xc2ba24fe	-93.07225
244	0xc2ba0bdd	-93.02317
245	0xc2ba7449	-93.22712
246	0x42ba5fe5	93.187294
247	0x42ba8a62	93.27028
248	0xc2ba0eb0	-93.02869
249	0xc2ba2ba4	-93.085236
250	0x42ba1c83	93.05569
251	0xc2babeb4	-93.37247
252	0x42ba4ef0	93.154175
253	0xc2ba68a3	-93.20437
254	0xc2ba4b9c	-93.147675
255	0x42ba92a8	93.28644

price_encoder.encoder.bias_ih_l0 f4 [120]
0	0x42bac9ab	93.39388
1	0x42bb2928	93.58038
2	0x42ba8aac	93.27084
3	0xc2bb7800	-93.734375
4	0x42b9f9f1	92.98817
5	0x42baeb7e	93.459946
6	0x42bb5990	93.67493
7	0x42bb56e4	93.66971
8	0x42baaa2b	93.33236
9	0x42bb359f	93.60473
10	0x42b941f7	92.62884
11	0x42bb4c5d	93.64915
12	0x42ba6919	93.20527
13	0x42bb196f	93.549675
14	0x42ba7859	93.235054
15	0x42baba8b	93.36434
16	0x42bb705a	93.71944
17	0x42ba7e2b	93.24642
18	0x42b9a6fe	92.82616
19	0x42b97573	92.72939
20	0x42ba1585	93.04203
21	0x42bb0453	93.508446
22	0x42bb0590	93.510864
23	0x42bacf65	93.40507
24	0x42bb091f	93.517815
25	0x42bb7a1a	93.73848
26	0x42ba8c7c	93.27438
27	0x42bb26c7	93.57574
28	0x42b9ecfa	92.962845
29	0x42b93e8f	92.622185
30	0x42baa95a	93.330765
31	0x42bad45d	93.41477
32	0x42ba45d6	93.1364
33	0xc2bae8a5	-93.454384
34	0x42b9b94c	92.86191
35	0x42bafbef	93.49206
36	0x42ba9efb	93.31051
37	0x42baee63	93.4656
38	0x42bac35f	93.381584
39	0x42ba62cb	93.192955
40	0x42b963f5	92.69523
41	0x42baed65	93.46366
42	0x42ba06d3	93.01333
43	0x42bb2447	93.570854
44	0x42ba303b	93.0942
45	0x42bad518	93.4162
46	0x42bb0b9b	93.52267
47	0x42ba8d84	93.2764
48	0x42b9f071	92.96961
49	0x42b9a7bc	92.82761
50	0x42ba04c5	93.009315
51	0x42ba6695	93.200356
52	0x42ba5e28	93.1839
53	0x42ba64e5	93.19706
54	0x42bb21bc	93.56589
55	0x42ba8ecf	93.27892
56	0x42ba9f53	93.31118
57	0x42baec3e	93.46141
58	0x42b9ab9b	92.83517
59	0x42b9675f	92.7019
60	0xc2bb6862	-93.70387
61	0x42bb8e52	93.77797
62	0xc2bb15a0	-93.54224
63	0x42ba3cce	93.11876
64	0xc2ba6997	-93.20623
65	0xc2bb9904	-93.79886
66	0x42bbbd17	93.869316
67	0x42bc4360	94.13159
68	0xc2bb85d8	-93.76141
69	0xc2be1053	-95.03188
70	0x42bb0e08	93.527405
71	0xc2bce931	-94.45545
72	0x42bb3c25	93.61747
73	0xc2bb17ff	-93.54687
74	0xc2bcf65a	-94.481155
75	0x42bd7dc6	94.74565
76	0xc2beb1fb	-95.34762
77	0xc2bd72d2	-94.72426
78	0xc2bc5d39	-94.182076
79	0x42bad346	93.41264
80	0xc2baa291	-93.31751
81	0x42bb3ace	93.61485
82	0x42bc3ab5	94.11466
83	0xc2be23b3	-95.069725
84	0xc2bbbe2d	-93.87144
85	0xc2bd604d	-94.68809
86	0xc2bc739b	-94.22579
87	0xc2bc4bf3	-94.14834
88	0xc2c3985c	-97.79758
89	0x42bb278e	93.577255
90	0x42bbe17f	93.94042
91	0x42bc5830	94.17224
92	0x42badafa	93.42769
93	0xc2bb96d1	-93.79456
94	0x42b9dd3e	92.93211
95	0x42bc8bde	94.27318
96	0x42bc5cd7	94.18133
97	0x42bc2c9c	94.08713
98	0x42bba937	93.8305
99	0x42bb6702	93.70119
100	0x42b8dae0	92.42749
101	0x42bce919	94.45527
102	0x42bac793	93.38979
103	0x42bbb2ec	93.84946
104	0x42bb7138	93.72113
105	0x42bc58af	94.17321
106	0x42bc5757	94.170586
107	0x42bb36a8	93.60675
108	0x42b97c38	92.742615
109	0x42b9b864	92.86014
110	0x42ba12b4	93.03653
111	0x42bc1c2b	94.055016
112	0x42bb4163	93.62771
113	0x42bacd6d	93.40122
114	0x42bc0f2c	94.02963
115	0x42bbf027	93.96905
116	0x42baebff	93.46093
117	0x42bbaa8e	93.833115
118	0x42ba229e	93.06761
119	0x42b981c9	92.75349

price_encoder.encoder.bias_hh_l0 f4 [120]
0	0x42bae822	93.453384
1	0x42bac8f9	93.392525
2	0x42ba8b8f	93.272575
3	0xc2bb12a3	-93.5364
4	0x42ba4006	93.125046
5	0x42bb2d99	93.58906
6	0x42badfaa	93.436844
7	0x42bae03e	93.43797
8	0x42bb1630	93.543335
9	0x42bb2199	93.56562
10	0x42b96300	92.69336
11	0x42bb6381	93.69434
12	0x42baa194	93.31558
13	0x42bb2982	93.58107
14	0x42babbcf	93.36681
15	0x42bb309f	93.59496
16	0x42bb0000	93.5
17	0x42ba806e	93.25084
18	0x42ba22fb	93.06832
19	0x42b96099	92.68867
20	0x42ba9952	93.29945
21	0x42ba9ced	93.306496
22	0x42badf88	93.436584
23	0x42baa9f1	93.33192
24	0x42bb22c5	93.56791
25	0x42bb5ec9	93.68513
26	0x42ba6d45	93.21342
27	0x42bb11e5	93.53495
28	0x42b978b0	92.73572
29	0x42b98602	92.761734
30	0x42bad252	93.41078
31	0x42bae62e	93.44957
32	0x42ba3d34	93.11954
33	0xc2bb3e7d	-93.62205
34	0x42ba2139	93.06489
35	0x42bae618	93.4494
36	0x42ba955e	93.29173
37	0x42bae044	93.43802
38	0x42ba98c4	93.29837
39	0x42bac86d	93.39146
40	0x42b93f40	92.623535
41	0x42bb0553	93.5104
42	0x42baaaa9	93.33332
43	0x42bb0062	93.50075
44	0x42ba3f4e	93.12364
45	0x42baf4fd	93.47849
46	0x42baf750	93.48303
47	0x42babb31	93.36561
48	0x42b99ba7	92.80401
49	0x42b9ac2d	92.83628
50	0x42b9fa06	92.98833
51	0x42baec70	93.46179
52	0x42ba70dd	93.220436
53	0x42ba7bac	93.24155
54	0x42baefce	93.46837
55	0x42baff6f	93.49889
56	0x42ba6db1	93.21424
57	0x42ba871f	93.26391
58	0x42b9a233	92.816795
59	0x42b957f0	92.67175
60	0xc2bb741f	-93.7268
61	0x42bbc607	93.88677
62	0xc2baa995	-93.331215
63	0x42b9f06f	92.9696
64	0xc2ba610f	-93.18957
65	0xc2bb984d	-93.79746
66	0x42bb7067	93.719536
67	0x42bc4f9b	94.15548
68	0xc2bb660c	-93.69931
69	0xc2bdb881	-94.86036
70	0x42bb0634	93.512115
71	0xc2bd25f4	-94.57413
72	0x42bb13b4	93.53848
73	0xc2bb5b40	-93.67822
74	0xc2bcee4a	-94.46541
75	0x42bd76d4	94.732086
76	0xc2be7f60	-95.24878
77	0xc2bd4371	-94.63172
78	0xc2bc8b7f	-94.27245
79	0x42bab1bd	93.347145
80	0xc2ba9ac1	-93.30225
81	0x42bb0d8c	93.52646
82	0x42bbb655	93.85612
83	0xc2be7fc9	-95.24958
84	0xc2bbc468	-93.883606
85	0xc2bd1fd2	-94.56215
86	0xc2bce572	-94.448135
87	0xc2bc2ec2	-94.091324
88	0xc2c39f3c	-97.811005
89	0x42bb91c5	93.784706
90	0x42bbf121	93.970955
91	0x42bc5ebd	94.185036
92	0x42baa15f	93.31518
93	0xc2bb9c5f	-93.80541
94	0x42b9e9af	92.95641
95	0x42bccbd4	94.3981
96	0x42bbcd6d	93.90122
97	0x42bc6e72	94.21571
98	0x42bbae3f	93.840324
99	0x42bb4f6e	93.655136
100	0x42b9007b	92.50094
101	0x42bc5885	94.17289
102	0x42ba5c26	93.17998
103	0x42bba6e2	93.82594
104	0x42bb51d7	93.65984
105	0x42bbf9d5	93.98795
106	0x42bbd235	93.91056
107	0x42bb60b7	93.688896
108	0x42b97308	92.72467
109	0x42b9ce23	92.90261
110	0x42ba15b5	93.0424
111	0x42bbbda7	93.870415
112	0x42baff4b	93.49862
113	0x42bb5537	93.666435
114	0x42bc7478	94.22748
115	0x42bc29c2	94.08156
116	0x42bb017a	93.502884
117	0x42bb8d3b	93.77584
118	0x42ba0ee6	93.0291
119	0x42b93fb5	92.62443

key_encoder.attention.weight f4 [1, 83]
0	0x42b96c76	92.71184
1	0x42b9b803	92.8594
2	0x42b9b81a	92.85957
3	0x42b9ca6d	92.89536
4	0x42b98440	92.7583
5	0xc2b9a1a9	-92.81574
6	0x42b9d0c3	92.90774
7	0x42b99add	92.80247
8	0x42b9af7b	92.842735
9	0x42b96de5	92.71464
10	0x42b999e4	92.80057
11	0x42b98ba4	92.772736
12	0x42b97e8a	92.74715
13	0x42b9a96a	92.83089
14	0x42b97c0e	92.742294
15	0x42ba29e6	93.08183
16	0x42b973e3	92.72634
17	0x42b97778	92.73334
18	0x42b9ceda	92.90401
19	0xc2b9a9e3	-92.83181
20	0x42b9c5a5	92.886024
21	0xc2b9c114	-92.877106
22	0x42ba2ed6	93.09148
23	0xc2b99677	-92.79388
24	0x42b97f99	92.749214
25	0x42b9af6f	92.84264
26	0x42b99445	92.78959
27	0x42b9e6e6	92.95097
28	0x42b99ba9	92.80402
29	0x42b9fa9b	92.98946
30	0x42b99ab3	92.80215
31	0xc2b9b86b	-92.86019
32	0x42b9f852	92.985
33	0x42b974f8	92.728455
34	0x42b9a8c3	92.82961
35	0x42b9c411	92.88294
36	0x42b9a695	92.825356
37	0x42b9a3a8	92.81964
38	0x42b9cfb9	92.90571
39	0x42b9e6f0	92.95105
40	0x42b9ed40	92.96338
41	0x42b9bda7	92.870415
42	0x42b994dd	92.79075
43	0x42b9e0ce	92.93907
44	0x42b9978f	92.79601
45	0xc2b9a0fc	-92.81442
46	0x42b9c97a	92.89351
47	0xc2b9a5fd	-92.824196
48	0x42ba038b	93.00692
49	0xc2b9a44e	-92.82091
50	0x42b9ac69	92.83674
51	0x42b9c815	92.890785
52	0x41d49a32	26.57529
53	0xc28f6651	-71.69984
54	0xc2a99fd9	-84.8122
55	0xc25aad40	-54.66919
56	0xc25d3354	-55.300125
57	0xc2a97875	-84.73527
58	0xc2ba1dc8	-93.05817
59	0x42552da0	53.294556
60	0xc2b434db	-90.10323
61	0xc2b6374d	-91.10801
62	0x42b25768	89.170715
63	0x4251a0d3	52.407055
64	0xc2b9ec32	-92.96132
65	0xc2acb2f1	-86.349495
66	0xc2b87f31	-92.24842
67	0xc124eae1	-10.3073435
68	0x42145949	37.087193
69	0xc2b3b3fa	-89.85152
70	0xc272494a	-60.57157
71	0xc2b7a8da	-91.82979
72	0xc2abab7f	-85.83495
73	0xc2b978f7	-92.73626
74	0xc2b9fb70	-92.99109
75	0xc2b9b34e	-92.850204
76	0xc2a1a432	-80.820694
77	0xc2a0051f	-80.01
78	0xc2b8bdae	-92.37047
79	0xc2b345a9	-89.636055
80	0x42bc6447	94.195854
81	0xc21179a2	-36.368782
82	0x421117f2	36.273384

key_encoder.encoder.weight_ih_l0 f4 [104, 38]
0	0x42ba8e5a	93.27803
1	0x42b9f41a	92.97676
2	0x42b9d151	92.90882
3	0x42ba1f58	93.06122
4	0x42b9d975	92.92472
5	0x42b9fc04	92.99222
6	0x42ba1df5	93.05851
7	0x42b9c146	92.87749
8	0x42ba30d7	93.09539
9	0x42b9dd21	92.93189
10	0x42b9ead8	92.95868
11	0x42ba7c76	93.24309
12	0x42ba1c53	93.05532
13	0x42b9bb18	92.86542
14	0x42b9dd67	92.93243
15	0x42ba3223	93.09792
16	0x42ba5357	93.16277
17	0x42ba2130	93.06482
18	0x42b9bbaf	92.86657
19	0x42baeeb0	93.46619
20	0x42b9ffc6	92.99956
21	0x42ba6ed1	93.21644
22	0x42ba3f32	93.12343
23	0x42b9e33f	92.94384
24	0x42b9bd15	92.8693
25	0x42ba5f7c	93.18649
26	0x42ba1cb0	93.05603
27	0x42ba6601	93.19923
28	0x42bb053d	93.51023
29	0x42ba2b8c	93.08505
30	0x42b9ce69	92.903145
31	0x42b9e714	92.951324
32	0x42ba2207	93.06646
33	0x42b9e6cd	92.95078
34	0x42ba5c80	93.180664
35	0x42b9adbf	92.83935
36	0x42ba4b15	93.146645
37	0x42ba158f	93.04211
38	0x42bb2242	93.56691
39	0x42ba5bb3	93.1791
40	0x42ba3d1d	93.11936
41	0x42ba7c71	93.24305
42	0x42ba2b65	93.084755
43	0x42b9db51	92.92835
44	0x42b9e796	92.95232
45	0x42ba4005	93.12504
46	0x42ba89e5	93.269325
47	0x42b9f518	92.9787
48	0x42ba112f	93.03356
49	0x42ba7a9d	93.23948
50	0x42ba901d	93.28147
51	0x42b9d700	92.91992
52	0x42ba511d	93.158424
53	0x42ba5368	93.1629
54	0x42b9dc78	92.9306
55	0x42ba1e7b	93.05953
56	0x42b9d7c6	92.92143
57	0x42bb04cd	93.50938
58	0x42ba1a1b	93.05099
59	0x42ba47d4	93.14029
60	0x42ba4484	93.13382
61	0x42ba138a	93.03816
62	0x42b9e7c7	92.95269
63	0x42ba61d1	93.19105
64	0x42ba6abb	93.20846
65	0x42ba5d63	93.182396
66	0x42bada30	93.42615
67	0x42ba290a	93.080154
68	0x42ba1139	93.03364
69	0x42ba39ed	93.11314
70	0x42ba6b55	93.20963
71	0x42ba049c	93.009
72	0x42ba1348	93.03766
73	0x42ba3306	93.099655
74	0x42b9c1bf	92.87841
75	0x42ba7b1a	93.24043
76	0x42ba626f	93.19225
77	0x42b9ee6c	92.96567
78	0x42b9f6c8	92.981995
79	0x42b9e4b8	92.94672
80	0x42ba496a	93.14339
81	0x42ba5c0d	93.17979
82	0x42ba3221	93.09791
83	0x42ba6e65	93.215614
84	0x42b9af7d	92.84275
85	0x42ba4a01	93.14454
86	0x42b9f688	92.98151
87	0x42ba0b82	93.02248
88	0x42ba1bcd	93.0543
89	0x42ba57d2	93.171524
90	0x42b9b4a7	92.85284
91	0x42ba1409	93.03913
92	0x42b9efd6	92.96843
93	0x42ba3a55	93.11393
94	0x42b9b8e0	92.861084
95	0x42bafd92	93.495255
96	0x42b9adff	92.839836
97	0x42b9f966	92.98711
98	0x42b9cd3c	92.90085
99	0x42b9ca99	92.8957
100	0x42b9c851	92.89124
101	0x42b9ff77	92.998955
102	0x42b9dbaa	92.92903
103	0x42ba39de	93.11302
104	0x42baa198	93.31561
105	0x42b9ce96	92.90349
106	0x42b9b5f6	92.85539
107	0x42ba6c99	93.212105
108	0x42ba5948	93.17438
109	0x42ba2813	93.07827
110	0x42ba2270	93.06726
111	0x42ba204a	93.063065
112	0x42ba2ae1	93.08375
113	0x42ba34af	93.1029
114	0x42ba9750	93.29553
115	0x42ba770e	93.23253
116	0x42ba1b4d	93.05332
117	0x42ba3887	93.110405
118	0x42b9cbf0	92.898315
119	0x42ba2e04	93.089874
120	0x42ba473a	93.139114
121	0x42b9f6c9	92.982
122	0x42ba3c2d	93.11753
123	0x42ba5660	93.1687
124	0x42ba0f3d	93.02976
125	0x42b9d505	92.91605
126	0x42ba45c3	93.13625
127	0x42b9ed0b	92.962975
128	0x42ba2ae4	93.08377
129	0x42ba2fa1	93.093025
130	0x42b9c7e1	92.89039
131	0x42ba296e	93.08092
132	0x42b9f47e	92.97752
133	0x42bb17a9	93.54621
134	0x42ba1e72	93.05946
135	0x42b9c5a9	92.886055
136	0x42ba0a6c	93.020355
137	0x42ba0d3a	93.02583
138	0x42b9cb75	92.89738
139	0x42ba155f	93.04174
140	0x42ba7089	93.219795
141	0x42ba2b47	93.084526
142	0x42bab179	93.34663
143	0x42ba559e	93.16722
144	0x42ba6eb8	93.21625
145	0x42ba0df9	93.02729
146	0x42ba237e	93.06932
147	0x42ba7774	93.23331
148	0x42b9c2ed	92.880714
149	0x42b9e574	92.94815
150	0x42b9c1b4	92.87833
151	0x42b9cab2	92.89589
152	0x42bad603	93.41799
153	0x42ba4b9d	93.14768
154	0x42b9fde2	92.995865
155	0x42ba6298	93.192566
156	0x42b9dd14	92.93179
157	0x42b9e8c6	92.954636
158	0x42ba7b3c	93.24069
159	0x42ba4449	93.13337
160	0x42b9e33e	92.94383
161	0x42b9fb7c	92.99118
162	0x42ba6fd3	93.21841
163	0x42b9e592	92.94838
164	0x42b9fad2	92.98988
165	0x42b9c09a	92.876175
166	0x42ba4de6	93.152145
167	0x42b9e4a0	92.94653
168	0x42ba3836	93.10979
169	0x42ba62a0	93.19263
170	0x42ba39c3	93.112816
171	0x42bae24a	93.44197
172	0x42ba06d0	93.013306
173	0x42ba73b1	93.22596
174	0x42ba1950	93.04944
175	0x42ba5157	93.15887
176	0x42ba446d	93.133644
177	0x42ba738c	93.22568
178	0x42ba7142	93.22121
179	0x42b9dcab	92.93099
180	0x42baf92f	93.48669
181	0x42b9c436	92.883224
182	0x42ba4319	93.13105
183	0x42b9da1c	92.925995
184	0x42b9d98d	92.924904
185	0x42ba0c66	93.024216
186	0x42ba1afc	93.052704
187	0x42ba1106	93.03325
188	0x42ba75e4	93.230255
189	0x42b9f042	92.96925
190	0x42bac676	93.38762
191	0x42ba63aa	93.19466
192	0x42ba646d	93.196144
193	0x42ba4e05	93.15238
194	0x42ba269c	93.07541
195	0x42b9ce05	92.90238
196	0x42ba50ed	93.15806
197	0x42ba145f	93.03979
198	0x42ba1b88	93.05377
199	0x42ba5ab8	93.177185
200	0x42ba47e8	93.14044
201	0x42b9ea70	92.957886
202	0x42ba62e3	93.19314
203	0x42b9abea	92.83577
204	0x42ba2964	93.08084
205	0x42b9ac5c	92.83664
206	0x42b98e64	92.77811
207	0x42ba3538	93.10394
208	0x42ba02b5	93.00529
209	0x42bb1be5	93.55448
210	0xc2ba6fdb	-93.21847
211	0x42b9b258	92.84833
212	0x42ba0dda	93.027054
213	0x42b897b9	92.29633
214	0x42ba3c06	93.11723
215	0xc2bb89a3	-93.76882
216	0x42ba0b6a	93.02229
217	0x42b99f0a	92.81062
218	0x42bb51d2	93.659805
219	0xc2ba1ff9	-93.06245
220	0x42b9b6f0	92.8573
221	0x42ba1ac0	93.052246
222	0x42ba66a2	93.200455
223	0x42ba59fb	93.17574
224	0x42ba5468	93.164856
225	0x42ba3418	93.101746
226	0x42599eba	54.405006
227	0x42ba6a4c	93.20761
228	0x42ba99f9	93.30073
229	0x42ba1efa	93.0605
230	0x42b9ecdf	92.96264
231	0x42ba42de	93.1306
232	0x42ba10eb	93.03304
233	0x42ba1a13	93.05093
234	0x42b9bfce	92.87462
235	0x42ba0092	93.001114
236	0x42ba141d	93.03928
237	0x42ba6aa3	93.208275
238	0x42b9f87d	92.98533
239	0x42ba3c24	93.11746
240	0x42ba755d	93.229225
241	0x42ba488e	93.14171
242	0x42b9e00b	92.937584
243	0x42ba4112	93.12709
244	0x42b9d8ef	92.9237
245	0x42ba4eed	93.15415
246	0x42ba8472	93.25868
247	0x42bb4af2	93.64638
248	0x42ba5190	93.1593
249	0x42ba389b	93.11056
250	0x42ba3cd9	93.11884
251	0x42b9f959	92.98701
252	0x42ba2912	93.080215
253	0x42ba4549	93.13532
254	0x42b9ba93	92.8644
255	0x42b9c2c8	92.88043

key_encoder.encoder.weight_hh_l0 f4 [104, 26]
0	0xc2b9dfeb	-92.93734
1	0xc2ba213d	-93.06492
2	0xc2b9de9f	-92.93481
3	0xc2ba0d93	-93.02651
4	0xc2ba201c	-93.06271
5	0x42b9da30	92.92615
6	0xc2b9eae2	-92.958755
7	0xc2b9c3ff	-92.882805
8	0xc2b9be2e	-92.871445
9	0xc2ba0185	-93.00297
10	0xc2ba5f28	-93.18585
11	0xc2ba710d	-93.2208
12	0xc2ba5c67	-93.18047
13	0xc2ba20cf	-93.06408
14	0xc2ba1e0a	-93.05867
15	0x42ba1ee5	93.06034
16	0xc2ba2769	-93.07697
17	0xc2b9e39d	-92.94456
18	0xc2ba5907	-93.17388
19	0x42b9de99	92.93476
20	0xc2b9c77c	-92.88962
21	0x42ba5c3f	93.18017
22	0xc2ba48e5	-93.14237
23	0x42ba2309	93.06843
24	0xc2ba60ee	-93.189316
25	0xc2ba0b9c	-93.022675
26	0xc2ba6b22	-93.20924
27	0xc2ba7f41	-93.24854
28	0xc2b9dd53	-92.932274
29	0xc2b9ddaf	-92.932976
30	0xc2ba6627	-93.19952
31	0x42ba66ee	93.201035
32	0xc2ba07af	-93.01501
33	0xc2ba5f4a	-93.18611
34	0xc2bac7f3	-93.390526
35	0xc2ba7a96	-93.239426
36	0xc2b9f8de	-92.98607
37	0xc2ba960b	-93.29305
38	0xc2ba1217	-93.03533
39	0xc2ba88d3	-93.267235
40	0xc2ba6fc4	-93.21829
41	0x42ba7603	93.23049
42	0xc2ba8414	-93.257965
43	0xc2ba45d5	-93.13639
44	0xc2b9e86d	-92.95396
45	0x42ba2ca5	93.0872
46	0xc2ba4cd4	-93.150055
47	0x42ba7ee5	93.24784
48	0x42ba09bf	93.019035
49	0x42ba0021	93.00025
50	0xc2ba2d5c	-93.08859
51	0xc2ba1c52	-93.05531
52	0xc2b9cb12	-92.89662
53	0xc2b9f102	-92.97072
54	0xc2ba2675	-93.07511
55	0xc2b9d9b8	-92.92523
56	0xc2b9d3d2	-92.91371
57	0x42b9ceaa	92.90364
58	0xc2b9eb15	-92.959145
59	0xc2ba6e60	-93.215576
60	0xc2ba2bba	-93.0854
61	0xc2ba206a	-93.06331
62	0xc2ba1223	-93.03542
63	0xc2b9cc32	-92.89882
64	0xc2ba31df	-93.097404
65	0xc2ba306f	-93.0946
66	0xc2b9e92b	-92.95541
67	0x42b9f4f2	92.97841
68	0xc2b9db14	-92.92789
69	0xc2b9d8ae	-92.9232
70	0xc2b9c1ed	-92.87876
71	0x42ba4944	93.1431
72	0xc2b9e510	-92.94739
73	0x42b9d38f	92.9132
74	0xc2b9dbc8	-92.92926
75	0x42ba146c	93.03989
76	0xc2ba5fe7	-93.18731
77	0xc2b9da21	-92.92603
78	0xc2ba6f09	-93.216866
79	0xc2ba2078	-93.063416
80	0xc2b9fd85	-92.995155
81	0xc2b9d5f6	-92.91789
82	0xc2ba76ca	-93.23201
83	0x42ba7b68	93.24103
84	0xc2b9dd7b	-92.93258
85	0xc2ba258e	-93.07335
86	0xc2b9dc68	-92.93048
87	0xc2b9f8db	-92.986046
88	0xc2ba0c56	-93.02409
89	0xc2ba119f	-93.03442
90	0xc2ba5ab7	-93.17718
91	0xc2b9df25	-92.93583
92	0xc2ba367b	-93.10641
93	0x42b9c2d2	92.88051
94	0xc2b9bba0	-92.866455
95	0xc2ba1202	-93.03517
96	0xc2ba48f0	-93.142456
97	0x42b9deea	92.93538
98	0xc2ba701e	-93.21898
99	0x42ba39a7	93.1126
100	0xc2ba4c60	-93.14917
101	0x42ba21c6	93.06596
102	0xc2b9f31f	-92.974846
103	0xc2b9c7eb	-92.890465
104	0xc2ba1dec	-93.05844
105	0xc2b9ed82	-92.96388
106	0xc2b9c23e	-92.87938
107	0xc2ba5f44	-93.186066
108	0xc2ba3b9f	-93.11645
109	0x42ba16f7	93.04485
110	0xc2ba6f26	-93.21709
111	0xc2b9e175	-92.940346
112	0xc2b9f754	-92.98306
113	0xc2b9d608	-92.91803
114	0xc2ba10cc	-93.03281
115	0xc2ba2a55	-93.08268
116	0xc2ba1aa0	-93.052
117	0xc2b9f77c	-92.98337
118	0xc2ba17c7	-93.04644
119	0x42ba109f	93.03246
120	0xc2b9e5ea	-92.94905
121	0xc2b9d39a	-92.913284
122	0xc2ba63a7	-93.19463
123	0x42b9ed86	92.96391
124	0xc2b9b3f7	-92.851494
125	0x42ba6675	93.20011
126	0xc2b9a703	-92.826195
127	0x42ba0c8b	93.0245
128	0xc2b9c992	-92.89369
129	0xc2b9e383	-92.94436
130	0xc2ba805c	-93.2507
131	0xc2b9de4e	-92.93419
132	0xc2ba15c3	-93.0425
133	0xc2b9cf9e	-92.9055
134	0xc2ba19e1	-93.050545
135	0x42b9e2c2	92.94289
136	0xc2ba1b10	-93.05286
137	0xc2ba0675	-93.01261
138	0xc2ba7819	-93.234566
139	0xc2ba3188	-93.09674
140	0xc2b9f1cc	-92.97226
141	0xc2ba1f73	-93.061424
142	0xc2ba578e	-93.171005
143	0xc2b9c01b	-92.875206
144	0xc2b9d78b	-92.92098
145	0x42b9e897	92.95428
146	0xc2ba3af1	-93.11512
147	0xc2b9f023	-92.96902
148	0xc2ba6761	-93.20191
149	0x42ba0d54	93.02603
150	0xc2b9f08c	-92.96982
151	0x42ba7a66	93.23906
152	0xc2ba0ddc	-93.02707
153	0x42ba7dbf	93.2456
154	0xc2b9fe66	-92.99687
155	0xc2ba04cb	-93.00936
156	0xc2ba7b7b	-93.24117
157	0xc2b9c4e8	-92.88458
158	0xc2b9c864	-92.89139
159	0xc2b9e95a	-92.955765
160	0xc2b9edd2	-92.96449
161	0x42ba4e9c	93.153534
162	0xc2ba835d	-93.25657
163	0xc2ba7a7b	-93.23922
164	0xc2ba3be2	-93.11696
165	0xc2b9e65e	-92.949936
166	0xc2ba3add	-93.11497
167	0xc2b9dd15	-92.9318
168	0xc2b9e8f0	-92.954956
169	0xc2b9e869	-92.953926
170	0xc2ba3eb0	-93.12244
171	0x42ba4712	93.13881
172	0xc2ba7a05	-93.23832
173	0xc2ba1bd9	-93.05439
174	0xc2ba6291	-93.19251
175	0x42ba2289	93.06745
176	0xc2ba1907	-93.04888
177	0x42ba718e	93.22179
178	0xc2ba42c3	-93.130394
179	0x42ba2db3	93.08926
180	0xc2b9bb81	-92.86622
181	0xc2b9d73d	-92.92039
182	0xc2b9d035	-92.906654
183	0xc2ba5152	-93.15883
184	0xc2ba4a53	-93.145164
185	0xc2ba9242	-93.28566
186	0xc2ba9140	-93.28369
187	0x42ba4e96	93.15349
188	0xc2b9fb89	-92.99128
189	0xc2ba1c8e	-93.05577
190	0xc2baff06	-93.49809
191	0xc2baa139	-93.31489
192	0xc2b9eeba	-92.96626
193	0xc2ba3230	-93.09802
194	0xc2bab909	-93.3614
195	0xc2ba7d9d	-93.24534
196	0xc2ba9a6c	-93.301605
197	0x42ba2759	93.07685
198	0xc2ba0bbc	-93.02292
199	0xc2ba9ea6	-93.30986
200	0xc2b9ebef	-92.96081
201	0x42bab800	93.359375
202	0xc2ba98bb	-93.2983
203	0x42ba28a5	93.079384
204	0x42b9de70	92.93445
205	0x42ba8f80	93.28027
206	0xc2ba4204	-93.12894
207	0xc2ba1e99	-93.05976
208	0xc2b9dea5	-92.93485
209	0xc2ba4198	-93.12811
210	0xc2ba7416	-93.22673
211	0xc2ba2727	-93.07647
212	0xc2ba7324	-93.224884
213	0x42ba3751	93.10804
214	0xc2b9f871	-92.98524
215	0xc2ba7e3c	-93.24655
216	0xc2baf101	-93.47071
217	0xc2ba1519	-93.04121
218	0xc2b9f983	-92.98733
219	0xc2ba360b	-93.10555
220	0xc2babd51	-93.36976
221	0xc2b9e960	-92.95581
222	0xc2b9ef28	-92.9671
223	0x42ba6002	93.187515
224	0xc2ba2732	-93.07655
225	0xc2ba5194	-93.15933
226	0xc2ba7876	-93.235275
227	0x42bab8eb	93.36117
228	0xc2ba6fe1	-93.21851
229	0x42ba903b	93.2817
230	0x42b9bdc0	92.870605
231	0x42ba0cb6	93.024826
232	0xc2babcec	-93.36899
233	0xc2ba5821	-93.17213
234	0xc2ba4915	-93.14274
235	0xc2ba92e1	-93.28687
236	0xc2ba5af4	-93.17764
237	0xc2ba2e2f	-93.0902
238	0xc2ba6752	-93.2018
239	0x42bab150	93.34631
240	0xc2ba5e40	-93.18408
241	0xc2baab20	-93.33423
242	0xc2ba8596	-93.26091
243	0xc2ba482a	-93.140945
244	0xc2b9e12a	-92.93977
245	0xc2ba5418	-93.164246
246	0xc2ba5223	-93.16042
247	0xc2ba4aea	-93.14632
248	0xc2ba665b	-93.19991
249	0x42ba3b5b	93.11593
250	0xc2baa90e	-93.330185
251	0xc2ba64b3	-93.19668
252	0xc2ba62e4	-93.193146
253	0x42ba32e9	93.099434
254	0xc2ba695e	-93.205795
255	0x42ba725a	93.22334

key_encoder.encoder.bias_ih_l0 f4 [104]
0	0x42ba720e	93.22276
1	0x42bb5594	93.667145
2	0x42ba9af8	93.30267
3	0x42ba4ef6	93.15422
4	0x42ba4955	93.14323
5	0x42bb0eda	93.52901
6	0x42ba8640	93.26221
7	0x42bc0130	94.00232
8	0x42bc3686	94.10649
9	0x42bc0c36	94.02385
10	0x42bb74eb	93.728355
11	0x42bc1510	94.04114
12	0x42bbe15d	93.94016
13	0x42bb127f	93.536125
14	0x42ba97d3	93.29653
15	0x42b993a5	92.78837
16	0x42bb63ec	93.69516
17	0x42bbb068	93.84454
18	0x42bb567d	93.66892
19	0x42bba8ab	93.82943
20	0x42bc3828	94.10968
21	0x42baf67f	93.48144
22	0x42ba6a5e	93.20775
23	0x42ba8397	93.25701
24	0x42bc0a2e	94.01988
25	0x42ba9427	93.28936
26	0x42b9d8da	92.92354
27	0x42ba80e7	93.25176
28	0x42ba1327	93.03741
29	0x42b9d692	92.91908
30	0x42ba621b	93.19161
31	0x42ba1f26	93.06084
32	0x42ba0aed	93.02134
33	0x42bb3ba1	93.61646
34	0x42bb9beb	93.80453
35	0x42baff61	93.49879
36	0x42ba40a3	93.12624
37	0x42bb31ba	93.59712
38	0x42bb12ab	93.53646
39	0x42b9e933	92.95547
40	0x42b9d728	92.92023
41	0xc2b9edc9	-92.964424
42	0x42ba8d96	93.276535
43	0x42bb7103	93.720726
44	0x42ba6eb2	93.2162
45	0x42ba2460	93.071045
46	0x42bb99db	93.8005
47	0x42ba07d8	93.01532
48	0x42b9f906	92.986374
49	0x42ba2b05	93.08402
50	0x42baf37d	93.47556
51	0x42ba1bef	93.05456
52	0xc2bbf7fb	-93.98434
53	0xc2bbe1e7	-93.941216
54	0xc2bb2289	-93.56745
55	0xc2bbb513	-93.85366
56	0xc2bbc10c	-93.877045
57	0x42bb7d21	93.74439
58	0xc2bae400	-93.44531
59	0xc2bc3daa	-94.12044
60	0xc2bc716c	-94.22153
61	0xc2bc06ed	-94.01353
62	0xc2bd7662	-94.73122
63	0xc2bc5af3	-94.177635
64	0xc2bbf5e8	-93.980286
65	0xc2bb6247	-93.69195
66	0xc2bcd852	-94.4225
67	0xc2ba1ff6	-93.06242
68	0xc2bc3e85	-94.12211
69	0xc2bc28bb	-94.07955
70	0xc2bbd31c	-93.91232
71	0x42bbb978	93.86224
72	0xc2bc4102	-94.12697
73	0x42ba80b3	93.251366
74	0xc2b67ed0	-91.24768
75	0x42bafc93	93.49331
76	0xc2bbf71a	-93.98262
77	0xc2bc176b	-94.04574
78	0x42baaae8	93.3338
79	0x42bb6f2a	93.71712
80	0x42badd20	93.431885
81	0x42baa80f	93.32824
82	0x42ba5905	93.17387
83	0x42bb2d04	93.58792
84	0x42bb0850	93.516235
85	0x42bc27b8	94.077576
86	0x42bdf6d1	94.98206
87	0x42bca8e7	94.32989
88	0x42ba8da4	93.27664
89	0x42bcc642	94.38722
90	0x42bc4e2c	94.15268
91	0x42bad855	93.42252
92	0x42ba409b	93.12618
93	0x42b9f607	92.98052
94	0x42bb550c	93.66611
95	0x42bcf35f	94.475334
96	0x42bb048f	93.5089
97	0x42bb7936	93.73674
98	0x42bd2b96	94.58513
99	0x42ba95ab	93.29232
100	0x42baa65c	93.32492
101	0x42bb0ea3	93.52859
102	0x42bc71ca	94.222244
103	0x42ba43b3	93.132225

key_encoder.encoder.bias_hh_l0 f4 [104]
0	0x42baa434	93.32071
1	0x42bb63ca	93.6949
2	0x42ba8b08	93.271545
3	0x42ba7db4	93.245514
4	0x42ba4e11	93.15247
5	0x42bb2671	93.57508
6	0x42ba83b3	93.257225
7	0x42bba676	93.82512
8	0x42bc47de	94.140366
9	0x42bc29a5	94.08134
10	0x42bb5926	93.67412
11	0x42bca77e	94.32713
12	0x42bbd420	93.91431
13	0x42bab4da	93.353226
14	0x42bb47bf	93.64013
15	0x42b976a9	92.73176
16	0x42bbc817	93.8908
17	0x42bb864d	93.76231
18	0x42bb7d3a	93.74458
19	0x42bb6c4b	93.71151
20	0x42bbbbe1	93.86695
21	0x42bb112d	93.53355
22	0x42ba6d30	93.21326
23	0x42baf27d	93.47361
24	0x42bbafd2	93.8434
25	0x42bad37f	93.41308
26	0x42ba304c	93.09433
27	0x42ba4748	93.13922
28	0x42ba228a	93.06746
29	0x42b9c0c3	92.87649
30	0x42b9dd71	92.9325
31	0x42ba3dcb	93.12069
32	0x42b9eb28	92.95929
33	0x42bb0498	93.50897
34	0x42bba10f	93.81457
35	0x42bb4e5a	93.65303
36	0x42ba4ac5	93.146034
37	0x42bb9f21	93.8108
38	0x42baec8f	93.46203
39	0x42b9e35d	92.94407
40	0x42ba5a72	93.17665
41	0xc2ba22c9	-93.06794
42	0x42baf69f	93.48168
43	0x42bb63d4	93.69498
44	0x42b9ec67	92.96172
45	0x42baa48f	93.3214
46	0x42bb23e1	93.570076
47	0x42ba21ad	93.06577
48	0x42ba0712	93.01381
49	0x42ba480a	93.1407
50	0x42bb7cb7	93.74358
51	0x42b9cb9e	92.89769
52	0xc2bbe85b	-93.95382
53	0xc2bc4975	-94.14347
54	0xc2bb8171	-93.752815
55	0xc2bc6b7e	-94.209946
56	0xc2bb3fd2	-93.62465
57	0x42bb542e	93.66441
58	0xc2ba6d03	-93.21291
59	0xc2bc0f1a	-94.029495
60	0xc2bc4296	-94.13005
61	0xc2bba3d2	-93.81996
62	0xc2bce26c	-94.44223
63	0xc2bc5c67	-94.18047
64	0xc2bc22ca	-94.06795
65	0xc2babc90	-93.368286
66	0xc2bc2e1a	-94.09004
67	0xc2b9ffc1	-92.99952
68	0xc2bc318c	-94.09677
69	0xc2bbccba	-93.89986
70	0xc2bc35be	-94.104965
71	0x42bbc9b1	93.89393
72	0xc2bc2d08	-94.08795
73	0x42bad193	93.409325
74	0xc2b5da2c	-90.92612
75	0x42baf77a	93.48335
76	0xc2bc2807	-94.07818
77	0xc2bc059a	-94.01094
78	0x42ba4fdc	93.155975
79	0x42bac393	93.38198
80	0x42ba86bf	93.263176
81	0x42bab75d	93.35813
82	0x42ba6b5d	93.209694
83	0x42bb083b	93.516075
84	0x42ba9112	93.28334
85	0x42bbd501	93.91602
86	0x42bda896	94.82927
87	0x42bc87a9	94.26496
88	0x42ba3540	93.104004
89	0x42bce51f	94.4475
90	0x42bc0b54	94.022125
91	0x42bac40f	93.38293
92	0x42baed7d	93.463844
93	0x42b9bf23	92.873314
94	0x42bb58fb	93.67379
95	0x42bd2d18	94.58807
96	0x42ba72b7	93.22405
97	0x42bb71b9	93.722115
98	0x42bd50b7	94.657646
99	0x42bac619	93.38691
100	0x42ba98e2	93.2986
101	0x42baa1d4	93.31607
102	0x42bcbd14	94.36929
103	0x42ba3877	93.11028

atten_layer.0.weight f4 [56, 168]
0	0x3cfaaf1c	0.030601077
1	0x3d974ec3	0.073880695
2	0x3d9b3a81	0.07579518
3	0x3d3a161a	0.045431234
4	0x3bbe2da0	0.005803779
5	0x3cca9900	0.02473116
6	0xbd1681b6	-0.036744796
7	0x3c913704	0.017726429
8	0x3cfa5c58	0.030561611
9	0xbd1cd4ec	-0.038288996
10	0x3c619488	0.013768323
11	0x3b6c6fa0	0.0036077276
12	0xbd8d5f75	-0.069029726
13	0x3d683fc2	0.05670143
14	0x3d67e5fa	0.056615807
15	0x3c087260	0.00832805
16	0xbb141d20	-0.0022600368
17	0xbc8dbf54	-0.017303146
18	0x3d92720b	0.07150658
19	0xbd49806a	-0.04919473
20	0x3c1b03a8	0.009461321
21	0xbd17cdeb	-0.037061613
22	0x3c7956d0	0.015218452
23	0x3b018520	0.0019763187
24	0xbd903ba4	-0.070426255
25	0x3d011462	0.03151358
26	0xbd710be4	-0.05884923
27	0x3ae98ac0	0.001781784
28	0x3cbdf508	0.023188129
29	0x3cb7b1a4	0.022423573
30	0x3ccc4590	0.024935514
31	0xbbbafc40	-0.00570634
32	0x3d83fde9	0.06444914
33	0xbd1c5cb6	-0.038174354
34	0xbd080eca	-0.03321723
35	0x3d48fc1a	0.049068548
36	0x3d8e83fb	0.06958767
37	0x3cb4fc84	0.022093065
38	0xbd3f9d6c	-0.04678099
39	0x3d7a3a72	0.061090894
40	0x3d85cdb9	0.06533379
41	0xbd56a334	-0.052401736
42	0x3d916d59	0.071009345
43	0x3cbd97d4	0.023143686
44	0xb95b8000	-0.00020933151
45	0x3cccd258	0.025002643
46	0x3d2f9b58	0.042872757
47	0x3d819d83	0.06328871
48	0x3c746f18	0.014919065
49	0x3c4200a0	0.011840969
50	0xbd6a1a2c	-0.057153866
51	0x3d139cf6	0.03603836
52	0xbd079466	-0.03310051
53	0x3b8b7ca0	0.0042568
54	0xbd3de724	-0.04636301
55	0x3bdb92d0	0.006700851
56	0x3d7d7bf2	0.06188578
57	0xbcf00ce0	-0.029303014
58	0x3a9560c0	0.0011396632
59	0x3d09e890	0.033669055
60	0xbd7962eb	-0.06088535
61	0x3d803f87	0.06262117
62	0x3d8e5027	0.069488816
63	0xbcadec36	-0.021230798
64	0x3d9c1d35	0.07622758
65	0xbd1ceb87	-0.038310554
66	0x3c116980	0.008875251
67	0x3d8517f7	0.064987116
68	0xbd3977db	-0.04528032
69	0xbc83c022	-0.016082827
70	0x3d9abfc5	0.075561084
71	0xbcdba1fc	-0.026810639
72	0xbd51b924	-0.051201954
73	0x3baa4ed0	0.0051973835
74	0xbd758a2c	-0.059946224
75	0xbccfc1ea	-0.02536102
76	0x3ac3d040	0.0014939383
77	0xbd734708	-0.059393913
78	0xbca72ae0	-0.020406187
79	0x3d3bea52	0.045877762
80	0x3d7f01d6	0.06225761
81	0xbd6fa00b	-0.05850224
82	0x3d3bac20	0.045818448
83	0x3d2803e6	0.041019343
84	0xbc5e5560	-0.01357016
85	0xbc7595e8	-0.014989354
86	0x3d98e8cb	0.07466277
87	0x3d33e7e4	0.04392232
88	0x3d4dd49e	0.050251596
89	0x3abb1400	0.0014272928
90	0xbd621626	-0.055196904
91	0x3d02b400	0.031909943
92	0x3cf50b60	0.02991265
93	0xbbd3f3e0	-0.006468281
94	0xbc4fc1d0	-0.012680486
95	0x3c4550d0	0.012043193
96	0xbd37921c	-0.044817075
97	0xbd23a4c6	-0.039952062
98	0x3d3380fe	0.04382419
99	0xbd2b4966	-0.041818045
100	0x3d30d864	0.043175116
101	0x3d6a3b4e	0.057185464
102	0x3d145106	0.036210082
103	0x3ba60700	0.0050667524
104	0xbcb776c8	-0.022395507
105	0x3d7e6f36	0.062117778
106	0x3d8da165	0.06915549
107	0x3d4a5a2e	0.04940241
108	0x3c3ad500	0.011403322
109	0xbcdac9b6	-0.026707511
110	0x3cf61684	0.030040033
111	0xbceee288	-0.029160753
112	0x42b9e8d1	92.95472
113	0xc2b9fdbc	-92.995575
114	0x42ba1353	93.03774
115	0xc2b9ec77	-92.961845
116	0xc2b9f499	-92.97773
117	0x42ba1143	93.033714
118	0xc2b9fda6	-92.99541
119	0xc2ba1f59	-93.061226
120	0x42b9f29c	92.97385
121	0x42ba19a1	93.05006
122	0x42b9f999	92.987495
123	0x42ba1584	93.04202
124	0xc2ba0b95	-93.02262
125	0x42b9f88d	92.98545
126	0x42b9d3d3	92.91372
127	0xc2ba03a0	-93.00708
128	0x42ba1470	93.03992
129	0x42b9d4c2	92.91554
130	0xc2b9e989	-92.95612
131	0x42b9cf35	92.9047
132	0x42ba1298	93.036316
133	0xc2ba0748	-93.01422
134	0xc2b9ea80	-92.95801
135	0x42ba01c5	93.003456
136	0x42b9e7c5	92.952675
137	0x42b9eb8a	92.96004
138	0x42ba0408	93.00787
139	0x42b9fc80	92.993164
140	0x42b9d1cd	92.90977
141	0x42ba00cf	93.00158
142	0xc2ba2252	-93.06703
143	0xc2ba334e	-93.100204
144	0xc2ba18af	-93.04821
145	0xc2ba1ef3	-93.06045
146	0xc2ba1a09	-93.05085
147	0x42b9fc41	92.99268
148	0xc2ba011a	-93.00215
149	0xc2ba1397	-93.03826
150	0xc2ba7297	-93.22381
151	0xc2ba5257	-93.16082
152	0xc2ba3429	-93.101875
153	0xc2ba2981	-93.08106
154	0xc2ba3866	-93.11015
155	0xc2ba18f8	-93.04877
156	0xc2ba26b9	-93.07563
157	0xc2b9e2be	-92.942856
158	0xc2ba0b77	-93.02239
159	0xc2ba1bd8	-93.05438
160	0xc2ba22b5	-93.06779
161	0x42b9f45d	92.97727
162	0xc2ba4392	-93.13197
163	0x42b9fce4	92.99393
164	0xc2b9e93b	-92.95553
165	0x42b9fd34	92.99454
166	0xc2ba1305	-93.03715
167	0xc2b9ee92	-92.96596
168	0xbcd57008	-0.026054397
169	0x3d7eff86	0.062255405
170	0x3d7431ba	0.059617735
171	0x3b6e0520	0.0036318973
172	0x3bbba630	0.005726598
173	0xbcbd286c	-0.023090564
174	0x3aa7fe00	0.0012816787
175	0x3d9aaf73	0.075529955
176	0xbb7b5dc0	-0.003835544
177	0x3d81007f	0.06298923
178	0xbd386e25	-0.045026917
179	0xbd0c47f0	-0.034248292
180	0x3d0d7bb4	0.0345418
181	0x3d412096	0.047150217
182	0x3d309444	0.043110147
183	0x3d53498a	0.051583804
184	0xbb99be30	-0.0046918616
185	0xbd36b25f	-0.0446037
186	0xbc130a58	-0.008974634
187	0xbce590e2	-0.028023187
188	0x3d57dbfe	0.052700035
189	0x3c89d05c	0.016822986
190	0xbcce7708	-0.025203243
191	0x3d3ed24a	0.046587266
192	0xbba3a510	-0.004994042
193	0x3d3dadde	0.04630839
194	0x3d814acd	0.06313095
195	0x3d719982	0.058984287
196	0xbc774590	-0.015092269
197	0xbd0f4b5e	-0.034983985
198	0x3d0f7d8e	0.035031848
199	0x3d84fd33	0.064936064
200	0x3cd768f8	0.02629517
201	0xbd8e929f	-0.069615595
202	0xbb29ff60	-0.002593957
203	0x3d1ef2d6	0.038805805
204	0x3bd8be30	0.006614469
205	0x3d24ebaa	0.04026381
206	0xbcd950dc	-0.026527815
207	0x3d94a4bb	0.07257982
208	0xbd8b5c72	-0.06804742
209	0x3cd42a4c	0.025899075
210	0xbd938c98	-0.072045505
211	0xbd8082b4	-0.0627493
212	0x3c187d90	0.00930728
213	0xba999840	-0.0011718348
214	0xbcf3fdd4	-0.02978412
215	0xbcd2ea6e	-0.02574655
216	0x3d4523fa	0.048130013
217	0x3a8aca80	0.0010588914
218	0x3d47e632	0.048803516
219	0xbd81866b	-0.06324466
220	0xbd957582	-0.072978035
221	0xbd7c20da	-0.061554767
222	0xbcca6406	-0.024705898
223	0xbd897ffc	-0.06713864
224	0x3d3e469e	0.046454065
225	0x3cfda688	0.030963197
226	0xbd8eb6ac	-0.06968436
227	0x3d56a6ea	0.052405275
228	0xbd202604	-0.039098755
229	0x3d327580	0.043569088
230	0x3d1f4e0a	0.038892783
231	0xbce0274c	-0.027362488
232	0x3d41f9a0	0.0473572
233	0xbca7ddd6	-0.020491522
234	0xbd6a4458	-0.057194084
235	0x3d84ae5b	0.06478568
236	0x3bc076a0	0.005873516
237	0x3ce3811c	0.027771525
238	0x3d7632ba	0.06010697
239	0x3c0e2898	0.0086766705
240	0x3cbfb418	0.023401305
241	0xbd473384	-0.048633114
242	0xbd6b7815	-0.057487566
243	0x3c4721a0	0.012154013
244	0xbcfbf3ce	-0.030755904
245	0x3d6a14ba	0.057148673
246	0xbd376470	-0.04477352
247	0x3d8d0729	0.06886131
248	0xbd9c5c23	-0.07634761
249	0x3d9b623f	0.07587098
250	0x3d5daa7e	0.054117672
251	0x3d27914c	0.04091005
252	0x3d975eb1	0.07391108
253	0x3cbd1f44	0.023086198
254	0x3c548640	0.012971461
255	0x3d4c88aa	0.04993502

atten_layer.0.bias f4 [56]
0	0xc2b9f3f6	-92.97649
1	0x42ba2af7	93.083916
2	0xc2ba45e8	-93.136536
3	0xc2ba6b47	-93.209526
4	0x42ba8d2d	93.275734
5	0x42ba4d62	93.15114
6	0xc2ba5eb3	-93.18496
7	0x42b9e8b4	92.9545
8	0xc2ba0087	-93.00103
9	0xc2b9f678	-92.981384
10	0x42ba5383	93.16311
11	0x42ba7149	93.22126
12	0xc2b9cd1d	-92.90061
13	0x42ba276b	93.07699
14	0x42ba5bc7	93.17925
15	0xc2ba18c6	-93.048386
16	0xc2ba2474	-93.0712
17	0x42ba46b2	93.13808
18	0x42ba1d33	93.05703
19	0x42ba3d57	93.119804
20	0x42ba0d50	93.026
21	0xc2ba4df4	-93.15225
22	0x42b9f65c	92.98117
23	0x42ba29dc	93.08176
24	0xc2ba51ac	-93.159515
25	0xc2ba199e	-93.05003
26	0x42ba5bf8	93.17963
27	0x42ba2868	93.07892
28	0xc2ba8f69	-93.2801
29	0xc2ba10bd	-93.03269
30	0xc2ba1825	-93.04716
31	0xc2b9ed53	-92.963524
32	0x42ba3cd8	93.118835
33	0xc2b9f07b	-92.96969
34	0x42ba130d	93.03721
35	0x42ba3daf	93.120476
36	0x42ba751e	93.228745
37	0xc2ba2f24	-93.09207
38	0x42ba48e8	93.142395
39	0x42b9eacb	92.95858
40	0x42b9dc6e	92.93053
41	0xc2ba16bf	-93.044426
42	0x42ba5cfb	93.1816
43	0xc2ba1e3f	-93.059074
44	0xc2ba6d11	-93.21302
45	0x42ba066e	93.01256
46	0xc2ba12dd	-93.03684
47	0xc2ba4bf1	-93.14832
48	0x42b9f78b	92.98348
49	0xc2ba4cc5	-93.14994
50	0x42ba54b8	93.16547
51	0x42ba2917	93.08025
52	0x42ba112d	93.03355
53	0x42ba270a	93.07625
54	0x42b9db09	92.9278
55	0x42ba768e	93.23155

atten_layer.2.weight f4 [1, 56]
0	0xc2ba5296	-93.1613
1	0xc2ba41b1	-93.1283
2	0x42ba9d80	93.30762
3	0x42bb1cc7	93.556206
4	0xc2bb528a	-93.66121
5	0xc2bb191f	-93.549065
6	0x42bae645	93.449745
7	0x42b98824	92.7659
8	0xc2b9738f	-92.7257
9	0x42bb653c	93.69772
10	0xc2bb10c6	-93.53276
11	0xc2bb4397	-93.63201
12	0xc2b9aedb	-92.841515
13	0xc2bb5e22	-93.68385
14	0xc2bb3ff6	-93.62492
15	0xc2b9ebf9	-92.960884
16	0x42bb484d	93.64121
17	0xc2bb2c22	-93.5862
18	0x42b9829c	92.7551
19	0xc2ba9489	-93.29011
20	0x42b999c4	92.80032
21	0x42bb6514	93.69742
22	0xc2bad773	-93.4208
23	0xc2baf6c9	-93.482
24	0x42bb5683	93.66897
25	0x42badb1d	93.427956
26	0xc2bb3aa4	-93.61453
27	0xc2badb54	-93.428375
28	0x42bbd3cf	93.91369
29	0xc2ba2c5c	-93.08664
30	0x42bb4ba9	93.64777
31	0x42b88df2	92.27724
32	0xc2bae744	-93.45169
33	0x42bb0e07	93.5274
34	0x42ba3dbb	93.12057
35	0x42b93fa4	92.6243
36	0xc2bb76d4	-93.732086
37	0x42baddd9	93.4333
38	0xc2bb314e	-93.5963
39	0xc2baf0e9	-93.47053
40	0xc2bb2a14	-93.582184
41	0xc2b8fa1c	-92.488495
42	0xc2bb0b71	-93.52235
43	0x42bab2b1	93.34901
44	0x42bb6888	93.70416
45	0xc2baeca1	-93.462166
46	0x42bad0cf	93.40783
47	0xc2b90971	-92.51844
48	0xc2bb14bf	-93.54052
49	0x42bb308b	93.59481
50	0xc2bb1a1b	-93.55099
51	0x42b9630f	92.693474
52	0xc2ba80bb	-93.25143
53	0x42b99f89	92.81159
54	0xc2bb4bce	-93.648056
55	0xc2bb1320	-93.53735
