Final project/competition/savemodel/best_998.pth (torch_old, 668674 bytes, 63 tensors)

price_encoder.attention.weight f4 [1, 90]
000000 c5 d8 ba 42 92 fb ba c2 86 ec ba 42 df 3b ba 42
       93.42338 -93.49135 93.46196 93.116936
000010 bb f1 ba 42 45 b3 ba 42 35 c2 ba c2 ba b6 ba c2
       93.47213 93.350136 -93.37931 -93.35689
000020 f0 bf ba 42 41 08 bb 42 c3 41 bb c2 71 b3 ba 42
       93.37488 93.51612 -93.62844 93.35047
000030 c1 e4 ba c2 5f f6 ba 42 00 c4 ba 42 51 f0 ba c2
       -93.446785 93.48119 93.38281 -93.46937
000040 7f b1 ba 42 64 0e bb 42 71 f8 ba 42 86 1d bb c2
       93.34667 93.52811 93.48524 -93.55766
000050 36 14 bb 42 13 0e bb c2 c0 f7 ba c2 b2 d4 ba 42
       93.539474 -93.52749 -93.48389 93.41542
000060 af 10 bb 42 73 a9 ba 42 20 b4 ba 42 a3 cb ba 42
       93.532585 93.330956 93.35181 93.39773
000070 3f b5 ba 42 ef ee ba c2 4d ac ba 42 71 bb ba c2
       93.354 -93.46667 93.336525 -93.3661
000080 89 b4 ba 42 da 37 ba c2 5d 1b bb 42 5a cc ba 42
       93.35261 -93.109085 93.553444 93.399124
000090 5a ad ba c2 62 be ba c2 45 c9 ba 42 93 ee ba 42
       -93.33858 -93.37184 93.393105 93.465965
0000a0 de 06 bb c2 93 c3 ba 42 92 a7 ba c2 f2 b9 ba 42
       -93.51341 93.38198 -93.327286 93.363174
0000b0 c7 c4 ba 42 0e 8d ba c2 4b dd ba 42 63 b3 ba 42
       93.38433 -93.2755 93.43221 93.350365
0000c0 e8 2e bb 42 f9 1b bb c2 7e 9c ba 42 72 9a ba c2
       93.59161 -93.554634 93.30565 -93.30165
0000d0 51 d0 ba c2 fc e8 ba 42 11 a9 ba 42 f7 e2 ba 42
       -93.40687 93.45505 93.33021 93.44329
0000e0 d9 dd ba 42 d5 c6 ba 42 6a ec ba 42 98 e4 ba c2
       93.4333 93.38834 93.46175 -93.44647
0000f0 3f d3 ba c2 bd 1b bb c2 45 0e bb c2 3c e4 ba c2
       -93.41259 -93.55418 -93.52787 -93.44577
000100 a3 e8 ba c2 0d bb ba c2 a5 ca ba c2 ca 95 ba c2
       -93.45437 -93.36533 -93.39579 -93.29256
000110 04 ac ba c2 4d d0 ba c2 d7 f1 ba c2 9d cf ba c2
       -93.33597 -93.40684 -93.47234 -93.405495
000120 64 f7 ba c2 d1 ac ba c2 1c cc ba c2 a7 f0 ba c2
       -93.483185 -93.33753 -93.39865 -93.470024
000130 ec 09 bb c2 6e d8 ba c2 1b 92 ba c2 36 30 bb c2
       -93.51938 -93.422714 -93.28536 -93.59416
000140 c7 59 bb c2 10 17 bb c2 49 c8 ba c2 e4 ef ba c2
       -93.67535 -93.545044 -93.39118 -93.46854
000150 a9 c6 ba c2 fe d6 ba c2 aa 14 bb c2 1f 19 bb c2
       -93.38801 -93.41991 -93.54036 -93.549065
000160 ee c2 ba c2 0c c4 ba c2
       -93.38072 -93.382904

price_encoder.encoder.weight_ih_l0 f4 [120, 45]
000000 30 d1 e4 bc 14 e3 29 3e 48 80 b6 3d 68 ba d7 bd
       -0.02793178 0.1659053 0.089111865 -0.10533601
000010 08 94 23 3d 24 e4 f6 3d 24 0e 2b bd 3e 61 82 3d
       0.039936095 0.12055233 -0.041761532 0.06366204
000020 a0 74 35 bc 4c 40 8e 3d 66 d8 07 be a0 f4 0c bd
       -0.011075169 0.069458574 -0.13266143 -0.03441298
000030 00 13 fc 3a 8b 6a f0 bd 32 94 df bd 0e 2a a7 bd
       0.0019231737 -0.117390715 -0.10916938 -0.08162318
000040 a6 44 35 3e 3b 2b c7 bd e0 b5 ef bd e0 b3 2f 3e
       0.17701969 -0.097250424 -0.11704612 0.1715846
000050 95 81 f0 bd cd c2 b9 bd 78 7c bf bc a0 cd 5c 3d
       -0.11743466 -0.090703584 -0.023374781 0.053907037
000060 2a ec 00 be d4 53 ef 3d c0 73 19 bb 99 3b 14 be
       -0.1259009 0.11685911 -0.002341494 -0.1447586
000070 e1 12 08 be 58 8a a2 bd 5b 28 d5 bd 50 b3 c9 3c
       -0.13288452 -0.07936543 -0.10408088 0.024621636
000080 4b 3b 1c be d6 13 d2 40 53 fd ba 42 ab c8 ba 42
       -0.15256993 6.5649214 93.494774 93.39193
000090 dd 08 bb 42 a3 6f bb 42 7f a2 2c be 32 82 ba 42
       93.51731 93.71804 -0.16858862 93.25429
0000a0 16 71 ba 42 b1 d0 ba 42 27 a8 ba 42 a9 c1 9d bd
       93.22087 93.4076 93.32842 -0.07702953
0000b0 d4 d9 15 3e 37 7c b3 bd 9c ab 16 3e e4 eb c8 3d
       0.14633876 -0.087639265 0.14713901 0.098106176
0000c0 88 b3 83 3c 3c 89 a7 3d ca f5 31 3e 10 2d 0b bc
       0.016076818 0.08180472 0.17378917 -0.00849463
0000d0 5c 01 03 3e b6 d1 24 be 9c 38 95 3d 3d 36 0c be
       0.12793487 -0.16095623 0.07286188 -0.13692565
0000e0 4e 28 33 3e 00 ac bc bb be 6a 03 3e 60 9c de bb
       0.17495844 -0.0057578087 0.12833688 -0.0067935437
0000f0 24 4a 36 3e e8 df b6 bc 68 4e 38 be c0 83 f6 3d
       0.1780172 -0.022323564 -0.1799866 0.12036848
000100 ed 97 8a bd 99 fd 31 be a0 2d b1 3d 62 87 19 be
       -0.06767259 -0.17381896 0.086512804 -0.1499305
000110 00 55 47 bb 8b 4a a4 bd 80 5f f4 3a c8 c3 39 3d
       -0.0030415654 -0.080220304 0.0018644184 0.045352727
000120 40 53 a1 3d e0 21 6a 3d c8 0a e5 bc 74 69 30 bd
       0.07877207 0.057161212 -0.027959242 -0.043069318
000130 cc 25 57 bd 48 18 44 3d 3d 97 36 41 3c 64 bb 42
       -0.05252628 0.04787472 11.411923 93.69577
000140 fc 4d bb 42 02 35 bb 42 2c 57 bb 42 f0 07 49 3d
       93.65231 93.60353 93.67026 0.049079835
000150 64 a5 ba 42 3a b7 ba 42 c9 98 ba 42 7e 89 ba 42
       93.32303 93.357864 93.29841 93.26854
000160 4a 53 f7 bd 40 45 56 bd f4 2a 49 bd 0b 78 98 bd
       -0.12076433 -0.052312136 -0.04911323 -0.074447714
000170 06 7a c8 bd e4 03 fa bd 39 fc 28 be ff 40 9b bd
       -0.09788899 -0.12207773 -0.16502465 -0.075807564
000180 1c 02 12 3e 9b 09 ba bd 63 4d d7 bd 50 eb 25 bd
       0.14258617 -0.09083863 -0.10512807 -0.040507615
000190 40 3b f5 bb fc 6b 19 be 6c 71 c3 3d e4 e5 0b 3e
       -0.00748387 -0.14982599 0.09543118 0.13661915
0001a0 f4 d8 67 3d fa 3c 0a be 80 ab 10 3e a0 46 d1 3d
       0.056603387 -0.13499823 0.14127922 0.10218549
0001b0 b0 03 11 3e 08 53 59 bd c0 a6 8a 3d 80 83 a6 3a
       0.14161563 -0.0530577 0.06770086 0.0012703985
0001c0 35 41 24 be a8 c5 9a 3d b4 f3 83 bd 90 e8 49 bc
       -0.160405 0.07557231 -0.06442967 -0.012323514
0001d0 08 ae dc 3c 68 99 26 3e e8 98 0c 3e 8c 7d 2d 3e
       0.026938453 0.16269457 0.13730204 0.16942424
0001e0 18 2a ca 3d ee 24 2d 3e 38 1e af bc c0 a5 cc 3f
       0.0987131 0.16908619 -0.021376714 1.5988083
0001f0 73 30 bb 42 5c f6 ba 42 4c d9 ba 42 57 e4 ba 42
       93.59463 93.48117 93.42441 93.44598
000200 d0 96 50 3d 57 bd ba c2 0f 99 ba c2 c4 74 ba c2
       0.050925076 -93.369804 -93.29894 -93.22806
000210 f7 31 ba c2 dd e9 20 be 3c e0 35 3e 3c 4a 33 3e
       -93.09759 -0.15714212 0.1776132 0.17508787
000220 67 60 b8 bd e7 b7 2b be e0 16 06 3e e8 e6 12 3d
       -0.09002762 -0.16769372 0.13094664 0.03586474
000230 e4 28 a9 3d 08 58 53 3d ae 1b 1f be ce c7 14 be
       0.082597524 0.051597625 -0.15537903 -0.14529344
000240 c0 4b 87 bc dc 47 fb 3d f3 94 ff bd bc e4 e2 3d
       -0.016515613 0.122695655 -0.12479582 0.11078784
000250 e6 ea 31 3e 00 7d 0b bb 54 db 3d 3d 7c e8 b2 3d
       0.17374763 -0.0021284223 0.046351746 0.08735749
000260 95 53 00 be fe c5 35 3e 24 e3 f6 bd 3c 1c 84 bd
       -0.12531884 0.1775131 -0.120550424 -0.06450698
000270 2c 87 11 3d f4 bf 59 3d 90 b5 ae bc e4 5d 10 3e
       0.0355293 0.053161576 -0.02132681 0.14098316
000280 18 83 e5 3d 75 8c 1f be 6e d9 f5 bd 5c 82 98 3d
       0.11206645 -0.15580924 -0.12004362 0.07446739
000290 59 ff 28 be ec 80 2b be 4b b5 c1 bd 12 f9 7c bd
       -0.16503657 -0.16748399 -0.09458407 -0.06176097
0002a0 eb 51 5c c2 89 65 bb c2 30 9a bb c2 89 a5 bb c2
       -55.079998 -93.69831 -93.80115 -93.82331
0002b0 b4 a7 bb c2 20 2f 15 3e f0 51 ba c2 71 41 ba c2
       -93.827545 0.14568758 -93.160034 -93.127815
0002c0 fa 6c ba c2 d4 9e ba c2 78 85 96 bd a8 73 fa 3c
       -93.212845 -93.31021 -0.07349676 0.030572727
0002d0 56 24 1c 3e 70 b6 e0 3d 64 6b 69 3d 1c b1 47 3d
       0.15248236 0.10972297 0.05698718 0.04875289
0002e0 98 d9 db 3d 64 dd 27 be cc bc 1c be 2c 28 f7 3d
       0.10734862 -0.16393048 -0.15306395 0.12068209
0002f0 f4 44 69 bd 2a cb 32 be 2e a2 16 be fe b9 3a 3e
       -0.056950524 -0.17460313 -0.14710304 0.18235013
000300 6e f7 f6 bd 20 45 01 3c dc 79 01 bd c8 31 87 3c
       -0.12058912 0.007890016 -0.031610355 0.01650323
000310 79 b9 2f be ec 02 12 bd c9 5a b4 bd 1c 39 06 be
       -0.17160596 -0.035647318 -0.088063784 -0.13107723
000320 4a 30 3a be 40 5b 08 3d d8 62 46 bd 66 4d fd bd
       -0.18182483 0.033290148 -0.04843411 -0.12368278
000330 20 4b 7b 3d d4 d4 df 3d d8 1b 5f bd e9 7b 9b bd
       0.06135094 0.109292656 -0.054469913 -0.07591993
000340 48 c1 2f 3e 33 57 1e be bc bf 07 be f0 6b d8 bd
       0.17163575 -0.15462951 -0.13256735 -0.105674624
000350 66 d9 6e bd a5 7e 64 c1 7b dc ba 42 b3 35 ba 42
       -0.058312796 -14.280919 93.430626 93.10488
000360 1d c6 ba 42 e7 39 ba 42 d4 a7 06 bd 0a 5c ba c2
       93.38694 93.11309 -0.032874897 -93.17976
000370 98 8f ba c2 23 81 ba c2 37 5f ba c2 36 3a 08 3e
       -93.28046 -93.25222 -93.18597 0.13303456
000380 c0 a7 e5 3b 3c 9e 06 3e 22 9c 0b 3e 0f ba 07 be
       0.0070085227 0.13146299 0.13633779 -0.1325457
000390 f3 59 9e bd e4 b1 d6 bd b2 37 d0 bd 78 63 82 3d
       -0.07732 -0.10483149 -0.10166873 0.063666284
0003a0 aa 89 ea bd 38 31 0f 3d 94 8b 2f 3d 8f dd c3 bd
       -0.114520386 0.034959048 0.04285772 -0.09563743
0003b0 66 1c 23 3e 33 06 aa bd 78 61 b2 bc bc 8d 48 3d
       0.15928802 -0.08301964 -0.021774992 0.048963293
0003c0 50 a8 cd 3c 00 1c 58 bd 60 b7 ca 3b c3 9b c6 bd
       0.025104672 -0.052761078 0.006186411 -0.09697678
0003d0 7a 54 06 3e 4c 37 b5 3d 04 d1 8b 3d f8 04 36 3e
       0.13118163 0.08848438 0.06826976 0.17775333
0003e0 a6 91 d3 bd b8 9d 02 be fc 0b cc 3d 28 b8 31 be
       -0.103305146 -0.12755477 0.09963223 -0.17355406
0003f0 50 57 b1 3d 68 39 0e 3e 8e 52 a1 bd 18 a6 6d 3d
       0.08659232 0.13889086 -0.07877074 0.058019727

price_encoder.encoder.weight_hh_l0 f4 [120, 30]
000000 5b bb ba c2 0e 94 ba 42 fe 8e ba c2 2a b1 ba c2
       -93.36593 93.28917 -93.27928 -93.34602
000010 ba c9 ba c2 27 bc ba c2 25 84 ba 42 4d e6 ba 42
       -93.394 -93.367485 93.258095 93.44981
000020 31 d8 ba c2 d1 09 bb c2 bd 87 ba 42 96 fd ba c2
       -93.42225 -93.51917 93.265114 -93.495285
000030 5d bb ba 42 d6 06 bb c2 2a 09 bb c2 8d c5 ba 42
       93.365944 -93.51335 -93.5179 93.38584
000040 04 a3 ba c2 be d4 ba c2 25 b7 ba c2 21 02 bb 42
       -93.31839 -93.41551 -93.357704 93.50416
000050 b5 6d ba c2 ad cc ba 42 00 ce ba 42 f7 c0 ba c2
       -93.21427 93.39976 93.40234 -93.376884
000060 ba ce ba c2 8f cb ba c2 13 0f bb c2 d6 ac ba c2
       -93.40376 -93.397575 -93.52944 -93.33757
000070 9a 80 ba c2 04 e2 ba 42 68 f2 ba c2 95 bf ba 42
       -93.251175 93.44144 -93.47345 93.37418
000080 3d 6b ba c2 25 62 ba c2 59 78 ba c2 42 c6 ba c2
       -93.20945 -93.19169 -93.235054 -93.38722
000090 30 dc ba 42 29 42 bb 42 5d a4 ba c2 38 fc ba c2
       93.43005 93.62922 -93.32102 -93.492615
0000a0 aa 4b ba 42 5f ad ba c2 9b 9a ba 42 34 21 bb c2
       93.14778 -93.338615 93.30196 -93.56485
0000b0 a2 e6 ba c2 24 df ba 42 cf 03 bb c2 56 f0 ba c2
       -93.450455 93.43582 -93.50744 -93.469406
0000c0 06 00 bb c2 0c e6 ba 42 bd 74 ba c2 81 73 ba 42
       -93.500046 93.44931 -93.228004 93.22559
0000d0 e9 94 ba 42 d7 fe ba c2 bc bf ba c2 e2 30 bb c2
       93.29084 -93.497734 -93.37448 -93.595474
0000e0 a4 73 ba c2 98 91 ba c2 de a6 ba c2 9b b7 ba c2
       -93.22586 -93.28436 -93.32591 -93.358604
0000f0 52 23 bb c2 cf 7f ba 42 33 87 ba c2 c6 47 ba 42
       -93.568985 93.249626 -93.26406 93.14018
000100 71 f6 ba c2 91 a2 ba c2 18 29 bb 42 b9 c6 ba 42
       -93.48133 -93.31751 93.58026 93.38813
000110 c4 93 ba c2 0a e0 ba c2 a6 cb ba 42 93 c0 ba c2
       -93.288605 -93.43758 93.39775 -93.37612
000120 5c 8b ba 42 5c 07 bb c2 f6 e8 ba c2 52 c8 ba 42
       93.27219 -93.51437 -93.455 93.39125
000130 64 37 bb c2 71 78 ba c2 2b 09 bb c2 5a 7b ba 42
       -93.608185 -93.23524 -93.51791 93.24092
000140 ce 70 ba c2 92 98 ba 42 88 e8 ba 42 d5 e9 ba c2
       -93.22032 93.29799 93.45416 -93.4567
000150 89 1b bb c2 a0 bf ba c2 bd 20 bb c2 8b 2c bb c2
       -93.55378 -93.37427 -93.56394 -93.587
000160 54 57 ba c2 09 ca ba 42 a9 91 ba 42 1b fe ba c2
       -93.17056 93.3946 93.28449 -93.4963
000170 0f e7 ba c2 d8 e9 ba 42 45 d4 ba 42 dd 3b bb 42
       -93.45129 93.456726 93.41459 93.61692
000180 cb 05 bb c2 d9 da ba c2 be fe ba 42 86 a1 b8 c2
       -93.511314 -93.42744 93.49754 -92.315475
000190 8f 93 ba c2 48 8f ba 42 ff bc ba c2 8d cd ba 42
       -93.2882 93.27985 -93.36913 93.40147
0001a0 e5 bc ba c2 a0 d3 ba c2 d0 c4 ba 42 c8 ff ba 42
       -93.368935 -93.41333 93.3844 93.49957
0001b0 13 8b ba c2 38 d3 ba c2 fc 46 ba 42 4b 05 bb c2
       -93.27163 -93.41254 93.13864 -93.51034
0001c0 20 b6 ba c2 c2 5b ba 42 f0 e5 ba 42 4c 78 ba 42
       -93.35571 93.179214 93.4491 93.234955
0001d0 d4 cd ba 42 51 db ba 42 6d 36 ba c2 7e 75 ba 42
       93.40201 93.42835 -93.1063 93.22948
0001e0 51 fb ba c2 90 bf ba 42 0f 84 ba c2 a9 7b ba 42
       -93.49085 93.374146 -93.25793 93.24152
0001f0 74 42 ba c2 cc a9 ba c2 85 f4 ba 42 26 ee ba 42
       -93.12979 -93.331635 93.47758 93.46513
000200 72 04 bb c2 46 5e ba c2 c0 ac ba 42 bf fe ba c2
       -93.50868 -93.18413 93.3374 -93.49755
000210 b5 eb ba 42 c8 76 ba c2 dd 5f ba c2 69 a9 ba 42
       93.460365 -93.231995 -93.18723 93.33088
000220 ed ed ba c2 73 84 ba c2 55 f6 ba c2 6b 9c ba 42
       -93.4647 -93.25869 -93.48112 93.305504
000230 e2 77 ba c2 63 92 ba 42 c4 ad ba 42 65 55 ba c2
       -93.234146 93.28591 93.339386 -93.16679
000240 b2 91 ba c2 1b dd ba c2 e8 f5 ba c2 62 7d ba c2
       -93.28456 -93.43185 -93.480286 -93.24489
000250 f3 57 ba c2 cf a7 ba 42 85 dc ba c2 91 19 bb 42
       -93.171776 93.32775 -93.4307 93.549934
000260 2f ae ba c2 31 71 ba c2 ed a9 ba c2 ff fb ba c2
       -93.3402 -93.22108 -93.33189 -93.49218
000270 a3 f7 ba 42 fc 65 bb 42 e3 1f bb c2 4c 9f ba c2
       93.483665 93.69919 -93.56228 -93.31113
000280 c6 81 ba 42 f7 52 bb c2 0b b1 ba 42 4e e5 ba c2
       93.25346 -93.66204 93.34579 -93.44786
000290 ca 6b ba c2 14 b9 ba 42 ba b4 ba c2 39 0c bb c2
       -93.210526 93.36148 -93.35298 -93.52387
0002a0 37 5c ba c2 df ff ba 42 b3 64 ba c2 bc 84 ba 42
       -93.18011 93.49975 -93.19668 93.25925
0002b0 fd ee ba 42 3a b0 ba c2 8c 27 bb c2 f2 a3 ba c2
       93.466774 -93.34419 -93.57724 -93.320206
0002c0 02 9a ba c2 8b 17 bb c2 e9 9c ba c2 7b 5b ba c2
       -93.3008 -93.54598 -93.306465 -93.17867
0002d0 97 f0 ba c2 3f 95 ba 42 34 09 bb c2 df 8d ba c2
       -93.4699 93.2915 -93.517975 -93.27709
0002e0 ae ba ba c2 49 d9 ba c2 4e cd ba 42 c6 c1 ba 42
       -93.36461 -93.424385 93.400986 93.37846
0002f0 c0 81 ba c2 af ce ba c2 a0 e1 ba 42 8a aa ba c2
       -93.25342 -93.40368 93.440674 -93.333084
000300 fc 79 ba 42 1b bc ba c2 72 5e ba c2 ef b1 ba 42
       93.23825 -93.36739 -93.18446 93.34753
000310 8a 1b bb c2 a0 d0 ba c2 dd 50 ba 42 0d cb ba 42
       -93.55379 -93.40747 93.157936 93.39658
000320 d7 11 bb c2 ef bc ba 42 d3 1a bb 42 f3 03 bb c2
       -93.53484 93.36901 93.55239 -93.50771
000330 4f dd ba c2 01 fb ba c2 b2 ee ba c2 34 b3 ba c2
       -93.43224 -93.49024 -93.4662 -93.350006
000340 1e 40 ba c2 3b 60 ba c2 a5 95 ba c2 35 b8 ba 42
       -93.12523 -93.18795 -93.292274 93.35978
000350 84 98 ba c2 eb b0 ba c2 42 c5 ba c2 c5 1d bb c2
       -93.29788 -93.34554 -93.38527 -93.55814
000360 89 0a bb 42 93 b5 ba 42 33 95 ba c2 9d c4 ba c2
       93.52058 93.35464 -93.291405 -93.38401
000370 e1 b8 ba 42 2e db ba c2 ef 60 ba 42 e5 fa ba c2
       93.36109 -93.428085 93.18932 -93.49003
000380 1b fe ba c2 a9 08 bb 42 5a e0 ba c2 07 f4 ba c2
       -93.4963 93.516914 -93.43819 -93.476616
000390 38 68 ba 42 32 85 ba 42 c9 61 ba c2 ed 12 bb 42
       93.20355 93.26015 -93.19099 93.536964
0003a0 68 ed ba 42 5b d4 ba c2 b8 cc ba c2 62 0c bb c2
       93.463684 -93.41476 -93.39984 -93.524185
0003b0 4f 10 bb c2 12 b0 ba c2 e2 ab b9 c2 1f 75 ba c2
       -93.53185 -93.34389 -92.83571 -93.22875
0003c0 69 93 ba c2 dc 94 ba 42 81 7d ba c2 4c b5 ba c2
       -93.28791 93.29074 -93.245125 -93.354095
0003d0 2b 9c ba c2 97 04 bb c2 33 f0 ba 42 b0 1a bb 42
       -93.305016 -93.508965 93.46914 93.552124
0003e0 fe 9e ba c2 f2 bb ba c2 d1 ac ba 42 02 4f bb c2
       -93.31053 -93.36708 93.33753 -93.65431
0003f0 3e df ba 42 f1 f8 ba c2 ea db ba c2 f6 22 bb 42
       93.43602 -93.48621 -93.42952 93.56828

price_encoder.encoder.bias_ih_l0 f4 [120]
000000 f9 59 bb 42 76 b9 bb 42 fa 1a bb 42 4e 08 bc c2
       93.67573 93.86223 93.55269 -94.01622
000010 3f 8a ba 42 cc 7b bb 42 de e9 bb 42 32 e7 bb 42
       93.27001 93.74179 93.95677 93.95155
000020 79 3a bb 42 ed c5 bb 42 45 d2 b9 42 ab dc bb 42
       93.614204 93.88657 92.91068 93.93099
000030 67 f9 ba 42 bd a9 bb 42 a7 08 bb 42 d9 4a bb 42
       93.487114 93.83152 93.5169 93.64619
000040 a8 00 bc 42 79 0e bb 42 4c 37 ba 42 c1 05 ba 42
       94.00128 93.52827 93.108 93.01124
000050 d3 a5 ba 42 a1 94 bb 42 de 95 bb 42 b3 5f bb 42
       93.323875 93.79029 93.79271 93.68691
000060 6d 99 bb 42 68 0a bc 42 ca 1c bb 42 15 b7 bb 42
       93.79966 94.020325 93.55623 93.85758
000070 48 7d ba 42 dd ce b9 42 a8 39 bb 42 ab 64 bb 42
       93.24469 92.90403 93.61261 93.69662
000080 24 d6 ba 42 f3 78 bb c2 9a 49 ba 42 3d 8c bb 42
       93.41824 -93.73623 93.14375 93.7739
000090 49 2f bb 42 b1 7e bb 42 ad 53 bb 42 19 f3 ba 42
       93.592354 93.747444 93.66343 93.4748
0000a0 43 f4 b9 42 b3 7d bb 42 21 97 ba 42 95 b4 bb 42
       92.97707 93.74551 93.29517 93.8527
0000b0 89 c0 ba 42 66 65 bb 42 e9 9b bb 42 d2 1d bb 42
       93.376045 93.698044 93.80451 93.55824
0000c0 bf 80 ba 42 0a 38 ba 42 13 95 ba 42 e3 f6 ba 42
       93.25146 93.10945 93.29116 93.4822
0000d0 76 ee ba 42 33 f5 ba 42 0a b2 bb 42 1d 1f bb 42
       93.465744 93.478905 93.84773 93.56077
0000e0 a1 2f bb 42 8c 7c bb 42 e9 3b ba 42 ad f7 b9 42
       93.593025 93.743256 93.11701 92.98374
0000f0 b0 f8 bb c2 a0 1e bc 42 ee a5 bb c2 1c cd ba 42
       -93.98572 94.059814 -93.82408 93.400604
000100 e5 f9 ba c2 52 29 bc c2 65 4d bc 42 ae d3 bc 42
       -93.488075 -94.0807 94.15116 94.41344
000110 26 16 bc c2 a1 a0 be c2 56 9e bb 42 7f 79 bd c2
       -94.04326 -95.31373 93.80925 -94.7373
000120 73 cc bb 42 4d a8 bb c2 a8 86 bd c2 14 0e be 42
       93.899315 -93.82871 -94.763 95.0275
000130 49 42 bf c2 20 03 be c2 87 ed bc c2 94 63 bb 42
       -95.62946 -95.0061 -94.46392 93.69449
000140 df 32 bb c2 1c cb bb 42 03 cb bc 42 01 b4 be c2
       -93.59936 93.8967 94.39651 -95.35157
000150 7b 4e bc c2 9b f0 bd c2 e9 03 bd c2 41 dc bc c2
       -94.15328 -94.96993 -94.50764 -94.43018
000160 aa 28 c4 c2 dc b7 bb 42 cd 71 bc 42 7e e8 bc 42
       -98.07942 93.8591 94.22227 94.45409
000170 48 6b bb 42 1f 27 bc c2 8c 6d ba 42 2c 1c bd 42
       93.70953 -94.07641 93.21396 94.55502
000180 25 ed bc 42 ea bc bc 42 85 39 bc 42 50 f7 bb 42
       94.46317 94.36897 94.11234 93.98303
000190 2e 6b b9 42 67 79 bd 42 e1 57 bb 42 3a 43 bc 42
       92.709335 94.737114 93.67164 94.1313
0001a0 86 01 bc 42 fd e8 bc 42 a5 e7 bc 42 f6 c6 bb 42
       94.002975 94.455055 94.45243 93.888596
0001b0 86 0c ba 42 b2 48 ba 42 02 a3 ba 42 79 ac bc 42
       93.02446 93.14198 93.318375 94.33686
0001c0 b1 d1 bb 42 bb 5d bb 42 7a 9f bc 42 75 80 bc 42
       93.90955 93.68307 94.31148 94.25089
0001d0 4d 7c bb 42 dc 3a bc 42 ec b2 ba 42 17 12 ba 42
       93.742775 94.11496 93.34946 93.03533

price_encoder.encoder.bias_hh_l0 f4 [120]
000000 70 78 bb 42 47 59 bb 42 dd 1b bb 42 f1 a2 bb c2
       93.73523 93.67437 93.55442 -93.818245
000010 54 d0 ba 42 e7 bd bb 42 f8 6f bb 42 8c 70 bb 42
       93.40689 93.8709 93.71869 93.71982
000020 7e a6 bb 42 e7 b1 bb 42 4e f3 b9 42 cf f3 bb 42
       93.82518 93.847466 92.975204 93.97619
000030 e2 31 bb 42 d0 b9 bb 42 1d 4c bb 42 ed c0 bb 42
       93.59743 93.862915 93.64866 93.87681
000040 4e 90 bb 42 bc 10 bb 42 49 b3 ba 42 e7 f0 b9 42
       93.781845 93.532684 93.35017 92.97051
000050 a0 29 bb 42 3b 2d bb 42 d6 6f bb 42 3f 3a bb 42
       93.5813 93.58834 93.71843 93.61376
000060 13 b3 bb 42 17 ef bb 42 93 fd ba 42 33 a2 bb 42
       93.849754 93.96697 93.49526 93.816795
000070 fe 08 ba 42 50 16 ba 42 a0 62 bb 42 7c 76 bb 42
       93.01756 93.04358 93.69263 93.731415
000080 82 cd ba 42 cb ce bb c2 87 b1 ba 42 66 76 bb 42
       93.40138 -93.90389 93.34673 93.73125
000090 ac 25 bb 42 92 70 bb 42 12 29 bb 42 bb 58 bb 42
       93.57358 93.719864 93.580215 93.6733
0000a0 8e cf b9 42 a1 95 bb 42 f7 3a bb 42 b0 90 bb 42
       92.90538 93.792244 93.615166 93.78259
0000b0 9c cf ba 42 4b 85 bb 42 9e 87 bb 42 7f 4b bb 42
       93.40549 93.76034 93.76488 93.64745
0000c0 f5 2b ba 42 7b 3c ba 42 54 8a ba 42 be 7c bb 42
       93.08585 93.118126 93.27017 93.74364
0000d0 2b 01 bb 42 fa 0b bb 42 1c 80 bb 42 bd 8f bb 42
       93.50228 93.52339 93.75021 93.78074
0000e0 ff fd ba 42 6d 17 bb 42 81 32 ba 42 3e e8 b9 42
       93.496086 93.54575 93.09864 92.9536
0000f0 6d 04 bc c2 55 56 bc 42 e3 39 bb c2 bd 80 ba 42
       -94.008644 94.16862 -93.61306 93.25144
000100 5d f1 ba c2 9b 28 bc c2 b5 00 bc 42 e9 df bc 42
       -93.47141 -94.07931 94.00138 94.437325
000110 5a f6 bb c2 cf 48 be c2 82 96 bb 42 42 b6 bd c2
       -93.981155 -95.142204 93.79396 -94.85597
000120 02 a4 bb 42 8e eb bb c2 98 7e bd c2 22 07 be 42
       93.82033 -93.96007 -94.74725 95.01393
000130 ae 0f bf c2 bf d3 bd c2 cd 1b bd c2 0b 42 bb 42
       -95.530624 -94.91357 -94.5543 93.62899
000140 0f 2b bb c2 da 9d bb 42 a3 46 bc 42 17 10 bf c2
       -93.5841 93.808304 94.13796 -95.531425
000150 b6 54 bc c2 20 b0 bd c2 c0 75 bd c2 10 bf bc c2
       -94.16545 -94.843994 -94.72998 -94.37317
000160 8a 2f c4 c2 13 22 bc 42 6f 81 bc 42 0b ef bc 42
       -98.09285 94.06655 94.2528 94.46688
000170 ad 31 bb 42 ad 2c bc c2 fd 79 ba 42 22 5c bd 42
       93.59702 -94.08726 93.23826 94.67995
000180 bb 5d bc 42 c0 fe bc 42 8d 3e bc 42 bc df bb 42
       94.18307 94.49756 94.12217 93.93698
000190 c9 90 b9 42 d3 e8 bc 42 74 ec ba 42 30 37 bc 42
       92.78278 94.454735 93.46182 94.10779
0001a0 25 e2 bb 42 23 8a bc 42 83 62 bc 42 05 f1 bb 42
       93.94169 94.2698 94.192406 93.97074
0001b0 56 03 ba 42 71 5e ba 42 03 a6 ba 42 f5 4d bc 42
       93.006516 93.184456 93.32424 94.15226
0001c0 99 8f bb 42 85 e5 bb 42 c6 04 bd 42 10 ba bc 42
       93.780464 93.94828 94.50932 94.3634
0001d0 c8 91 bb 42 89 1d bc 42 34 9f ba 42 03 d0 b9 42
       93.78473 94.057686 93.31094 92.90627

key_encoder.attention.weight f4 [1, 83]
000000 c4 fc b9 42 51 48 ba 42 68 48 ba 42 bb 5a ba 42
       92.99368 93.14124 93.14142 93.17721
000010 8e 14 ba 42 f7 31 ba c2 11 61 ba 42 2b 2b ba 42
       93.040146 -93.09759 93.18958 93.08431
000020 c9 3f ba 42 33 fe b9 42 32 2a ba 42 f2 1b ba 42
       93.12458 92.99648 93.08241 93.05458
000030 d8 0e ba 42 b8 39 ba 42 5c 0c ba 42 34 ba ba 42
       93.02899 93.11273 93.02414 93.36368
000040 31 04 ba 42 c6 07 ba 42 28 5f ba 42 31 3a ba c2
       93.00819 93.01518 93.18585 -93.113655
000050 f3 55 ba 42 62 51 ba c2 24 bf ba 42 c5 26 ba c2
       93.16787 -93.15895 93.37332 -93.07572
000060 e7 0f ba 42 bd 3f ba 42 93 24 ba 42 34 77 ba 42
       93.03106 93.12449 93.071434 93.23282
000070 f7 2b ba 42 e9 8a ba 42 01 2b ba 42 b9 48 ba c2
       93.08587 93.27131 93.08399 -93.14204
000080 a0 88 ba 42 46 05 ba 42 11 39 ba 42 5f 54 ba 42
       93.266846 93.0103 93.11146 93.16479
000090 e3 36 ba 42 f6 33 ba 42 07 60 ba 42 3e 77 ba 42
       93.1072 93.10149 93.18755 93.232895
0000a0 8e 7d ba 42 f5 4d ba 42 2b 25 ba 42 1c 71 ba 42
       93.245224 93.15226 93.07259 93.22092
0000b0 dd 27 ba 42 4a 31 ba c2 c8 59 ba 42 4b 36 ba c2
       93.07786 -93.09627 93.175354 -93.10604
0000c0 d9 93 ba 42 9c 34 ba c2 b7 3c ba 42 63 58 ba 42
       93.288765 -93.10275 93.11858 93.17263
0000d0 fa 58 d2 41 9f f6 8f c2 27 30 aa c2 dc cd 5b c2
       26.293446 -71.98168 -85.09405 -54.951035
0000e0 f0 53 5e c2 c3 08 aa c2 16 ae ba c2 3c 4e 56 42
       -55.58197 -85.01711 -93.34001 53.5764
0000f0 29 c5 b4 c2 9b c7 b6 c2 12 ce b2 42 6f c1 52 42
       -90.38508 -91.389854 89.40248 52.6889
000100 80 7c ba c2 3f 43 ad c2 7f 0f b9 c2 6b 6e 29 c1
       -93.243164 -86.63134 -92.530266 -10.5894575
000110 ad 38 13 42 48 44 b4 c2 e6 69 73 c2 28 39 b8 c2
       36.805347 -90.13336 -60.853416 -92.11163
000120 cd 3b ac c2 45 09 ba c2 be 8b ba c2 9c 43 ba c2
       -86.1168 -93.018105 -93.272934 -93.13205
000130 80 34 a2 c2 6d 95 a0 c2 fc 4d b9 c2 f7 d5 b3 c2
       -81.10254 -80.29185 -92.65231 -89.9179
000140 95 f4 bc 42 3e 9a 12 c2 8e 38 12 42
       94.4777 -36.650627 36.55523

key_encoder.encoder.weight_ih_l0 f4 [104, 38]
000000 a8 1e bb 42 68 84 ba 42 9f 61 ba 42 a6 af ba 42
       93.559875 93.258606 93.19067 93.34306
000010 c3 69 ba 42 52 8c ba 42 43 ae ba 42 94 51 ba 42
       93.206566 93.27406 93.340355 93.15933
000020 25 c1 ba 42 6f 6d ba 42 26 7b ba 42 c4 0c bb 42
       93.377235 93.21374 93.240524 93.52493
000030 a1 ac ba 42 66 4b ba 42 b5 6d ba 42 71 c2 ba 42
       93.337166 93.14726 93.21427 93.37977
000040 a5 e3 ba 42 7e b1 ba 42 fd 4b ba 42 fe 7e bb 42
       93.44462 93.346664 93.148415 93.74803
000050 14 90 ba 42 1f ff ba 42 80 cf ba 42 8d 73 ba 42
       93.2814 93.49828 93.40527 93.225685
000060 63 4d ba 42 ca ef ba 42 fe ac ba 42 4f f6 ba 42
       93.151146 93.46834 93.337875 93.48107
000070 8b 95 bb 42 da bb ba 42 b7 5e ba 42 62 77 ba 42
       93.792076 93.3669 93.18499 93.23317
000080 55 b2 ba 42 1b 77 ba 42 ce ec ba 42 0d 3e ba 42
       93.348305 93.23263 93.46251 93.12119
000090 63 db ba 42 dd a5 ba 42 90 b2 bb 42 01 ec ba 42
       93.42849 93.32395 93.848755 93.460945
0000a0 6b cd ba 42 bf 0c bb 42 b3 bb ba 42 9f 6b ba 42
       93.40121 93.524895 93.3666 93.2102
0000b0 e4 77 ba 42 53 d0 ba 42 33 1a bb 42 66 85 ba 42
       93.23416 93.40688 93.55117 93.260544
0000c0 7d a1 ba 42 eb 0a bb 42 6b 20 bb 42 4e 67 ba 42
       93.31541 93.521324 93.56332 93.20177
0000d0 6b e1 ba 42 b6 e3 ba 42 c6 6c ba 42 c9 ae ba 42
       93.44027 93.44475 93.21245 93.34138
0000e0 14 68 ba 42 1b 95 bb 42 69 aa ba 42 22 d8 ba 42
       93.20328 93.79122 93.33283 93.422134
0000f0 d2 d4 ba 42 d8 a3 ba 42 15 78 ba 42 1f f2 ba 42
       93.415665 93.32001 93.234535 93.47289
000100 09 fb ba 42 b1 ed ba 42 7e 6a bb 42 58 b9 ba 42
       93.4903 93.46424 93.70799 93.362
000110 87 a1 ba 42 3b ca ba 42 a3 fb ba 42 ea 94 ba 42
       93.31548 93.39498 93.49148 93.29085
000120 96 a3 ba 42 54 c3 ba 42 0d 52 ba 42 68 0b bb 42
       93.3195 93.3815 93.160255 93.52228
000130 bd f2 ba 42 ba 7e ba 42 16 87 ba 42 06 75 ba 42
       93.4741 93.24751 93.26384 93.22856
000140 b8 d9 ba 42 5b ec ba 42 6f c2 ba 42 b3 fe ba 42
       93.42523 93.46163 93.37975 93.49746
000150 cb 3f ba 42 4f da ba 42 d6 86 ba 42 d0 9b ba 42
       93.124596 93.426384 93.26335 93.30432
000160 1b ac ba 42 20 e8 ba 42 f5 44 ba 42 57 a4 ba 42
       93.33614 93.45337 93.13468 93.32098
000170 24 80 ba 42 a3 ca ba 42 2e 49 ba 42 e0 8d bb 42
       93.250275 93.395775 93.14293 93.7771
000180 4d 3e ba 42 b4 89 ba 42 8a 5d ba 42 e7 5a ba 42
       93.12168 93.26895 93.18269 93.17754
000190 9f 58 ba 42 c5 8f ba 42 f8 6b ba 42 2c ca ba 42
       93.17309 93.2808 93.21088 93.39487
0001a0 e6 31 bb 42 e4 5e ba 42 44 46 ba 42 e7 fc ba 42
       93.59746 93.18533 93.13724 93.49395
0001b0 96 e9 ba 42 61 b8 ba 42 be b2 ba 42 98 b0 ba 42
       93.45622 93.360115 93.349106 93.34491
0001c0 2f bb ba 42 fd c4 ba 42 9e 27 bb 42 5c 07 bb 42
       93.36559 93.38474 93.57738 93.51437
0001d0 9b ab ba 42 d5 c8 ba 42 3e 5c ba 42 52 be ba 42
       93.33517 93.39225 93.18016 93.37172
0001e0 88 d7 ba 42 17 87 ba 42 7b cc ba 42 ae e6 ba 42
       93.42096 93.26385 93.399376 93.45055
0001f0 8b 9f ba 42 53 65 ba 42 11 d6 ba 42 59 7d ba 42
       93.31161 93.1979 93.4181 93.24482
000200 32 bb ba 42 ef bf ba 42 2f 58 ba 42 bc b9 ba 42
       93.365616 93.37487 93.17223 93.36276
000210 cc 84 ba 42 f7 a7 bb 42 c0 ae ba 42 f7 55 ba 42
       93.25937 93.82806 93.34131 93.1679
000220 ba 9a ba 42 88 9d ba 42 c3 5b ba 42 ad a5 ba 42
       93.3022 93.30768 93.17922 93.323586
000230 d7 00 bb 42 95 bb ba 42 c7 41 bb 42 ec e5 ba 42
       93.50164 93.36637 93.62847 93.449066
000240 06 ff ba 42 47 9e ba 42 cc b3 ba 42 c2 07 bb 42
       93.49809 93.309135 93.351166 93.51515
000250 3b 53 ba 42 c2 75 ba 42 02 52 ba 42 00 5b ba 42
       93.16256 93.229996 93.16017 93.177734
000260 51 66 bb 42 eb db ba 42 30 8e ba 42 e6 f2 ba 42
       93.69984 93.42953 93.27771 93.47441
000270 62 6d ba 42 14 79 ba 42 8a 0b bb 42 97 d4 ba 42
       93.21364 93.23648 93.52254 93.415215
000280 8c 73 ba 42 ca 8b ba 42 21 00 bb 42 e0 75 ba 42
       93.22568 93.273026 93.50025 93.230225
000290 20 8b ba 42 e8 50 ba 42 34 de ba 42 ee 74 ba 42
       93.27173 93.15802 93.43399 93.22838
0002a0 84 c8 ba 42 ee f2 ba 42 11 ca ba 42 98 72 bb 42
       93.39163 93.47447 93.39466 93.723816
0002b0 1e 97 ba 42 ff 03 bb 42 9e a9 ba 42 a5 e1 ba 42
       93.29515 93.507805 93.33128 93.44071
0002c0 bb d4 ba 42 da 03 bb 42 90 01 bb 42 f9 6c ba 42
       93.41549 93.50752 93.50305 93.21284
0002d0 7d 89 bb 42 84 54 ba 42 67 d3 ba 42 6a 6a ba 42
       93.76853 93.16507 93.412895 93.20784
0002e0 db 69 ba 42 b4 9c ba 42 4a ab ba 42 54 a1 ba 42
       93.20675 93.30606 93.33455 93.315094
0002f0 32 06 bb 42 90 80 ba 42 c4 56 bb 42 f8 f3 ba 42
       93.5121 93.2511 93.669464 93.4765
000300 bb f4 ba 42 53 de ba 42 ea b6 ba 42 53 5e ba 42
       93.47799 93.43423 93.357254 93.18423
000310 3b e1 ba 42 ad a4 ba 42 d6 ab ba 42 06 eb ba 42
       93.4399 93.32163 93.33562 93.45903
000320 36 d8 ba 42 be 7a ba 42 31 f3 ba 42 38 3c ba 42
       93.42229 93.23973 93.47498 93.117615
000330 b2 b9 ba 42 aa 3c ba 42 b2 1e ba 42 86 c5 ba 42
       93.362686 93.118484 93.05995 93.38579
000340 03 93 ba 42 33 ac bb 42 29 00 bb c2 a6 42 ba 42
       93.28713 93.83633 -93.50031 93.13017
000350 28 9e ba 42 07 28 b9 42 54 cc ba 42 f1 19 bc c2
       93.3089 92.57818 93.39908 -94.05067
000360 b8 9b ba 42 58 2f ba 42 20 e2 bb 42 47 b0 ba c2
       93.30414 93.09247 93.94165 -93.34429
000370 3e 47 ba 42 0e ab ba 42 f0 f6 ba 42 49 ea ba 42
       93.139145 93.33409 93.4823 93.45759
000380 b6 e4 ba 42 66 c4 ba 42 56 bf 5a 42 9a fa ba 42
       93.4467 93.38359 54.68685 93.489456
000390 47 2a bb 42 48 af ba 42 2d 7d ba 42 2c d3 ba 42
       93.58257 93.34235 93.244484 93.412445
0003a0 39 a1 ba 42 61 aa ba 42 1c 50 ba 42 e0 90 ba 42
       93.31489 93.33277 93.15646 93.28296
0003b0 6b a4 ba 42 f1 fa ba 42 cb 88 ba 42 72 cc ba 42
       93.32113 93.49012 93.26717 93.39931
0003c0 ab 05 bb 42 dc d8 ba 42 59 70 ba 42 60 d1 ba 42
       93.51107 93.42355 93.21943 93.408936
0003d0 3d 69 ba 42 3b df ba 42 c0 14 bb 42 40 db bb 42
       93.20554 93.436 93.54053 93.92822
0003e0 de e1 ba 42 e9 c8 ba 42 27 cd ba 42 a7 89 ba 42
       93.44115 93.3924 93.40069 93.26885
0003f0 60 b9 ba 42 97 d5 ba 42 e1 4a ba 42 16 53 ba 42
       93.36206 93.41717 93.14625 93.16228

key_encoder.encoder.weight_hh_l0 f4 [104, 26]
000000 39 70 ba c2 8b b1 ba c2 ed 6e ba c2 e1 9d ba c2
       -93.219185 -93.34676 -93.21665 -93.30836
000010 6a b0 ba c2 7e 6a ba 42 30 7b ba c2 4d 54 ba c2
       -93.34456 93.20799 -93.2406 -93.16465
000020 7c 4e ba c2 d3 91 ba c2 76 ef ba c2 5b 01 bb c2
       -93.15329 -93.28481 -93.4677 -93.50265
000030 b5 ec ba c2 1d b1 ba c2 58 ae ba c2 33 af ba 42
       -93.46232 -93.345924 -93.340515 93.342186
000040 b7 b7 ba c2 eb 73 ba c2 55 e9 ba c2 e7 6e ba 42
       -93.35882 -93.2264 -93.45573 93.216606
000050 ca 57 ba c2 8d ec ba 42 33 d9 ba c2 57 b3 ba 42
       -93.17146 93.46201 -93.42422 93.35027
000060 3c f1 ba c2 ea 9b ba c2 70 fb ba c2 8f 0f bb c2
       -93.47116 -93.30452 -93.49109 -93.53039
000070 a1 6d ba c2 fd 6d ba c2 75 f6 ba c2 3c f7 ba 42
       -93.21412 -93.21482 -93.48136 93.48288
000080 fd 97 ba c2 98 ef ba c2 41 58 bb c2 e4 0a bb c2
       -93.29685 -93.46796 -93.67237 -93.52127
000090 2c 89 ba c2 59 26 bb c2 65 a2 ba c2 21 19 bb c2
       -93.267914 -93.5749 -93.31718 -93.54908
0000a0 12 00 bb c2 51 06 bb 42 62 14 bb c2 23 d6 ba c2
       -93.50014 93.51234 -93.53981 -93.418236
0000b0 bb 78 ba c2 f3 bc ba 42 22 dd ba c2 33 0f bb 42
       -93.2358 93.36904 -93.4319 93.529686
0000c0 0d 9a ba 42 6f 90 ba 42 aa bd ba c2 a0 ac ba c2
       93.30088 93.2821 -93.37044 -93.33716
0000d0 60 5b ba c2 50 81 ba c2 c3 b6 ba c2 06 6a ba c2
       -93.17847 -93.25256 -93.35696 -93.20708
0000e0 20 64 ba c2 f8 5e ba 42 63 7b ba c2 ae fe ba c2
       -93.19556 93.185486 -93.24099 -93.49742
0000f0 08 bc ba c2 b8 b0 ba c2 71 a2 ba c2 80 5c ba c2
       -93.36725 -93.34515 -93.31727 -93.180664
000100 2d c2 ba c2 bd c0 ba c2 79 79 ba c2 40 85 ba 42
       -93.37925 -93.37644 -93.23725 93.260254
000110 62 6b ba c2 fc 68 ba c2 3b 52 ba c2 92 d9 ba 42
       -93.20973 -93.20505 -93.16061 93.42494
000120 5e 75 ba c2 dd 63 ba 42 16 6c ba c2 ba a4 ba 42
       -93.22923 93.195045 -93.211105 93.32173
000130 35 f0 ba c2 6f 6a ba c2 57 ff ba c2 c6 b0 ba c2
       -93.469154 -93.20788 -93.49871 -93.34526
000140 d3 8d ba c2 44 66 ba c2 18 07 bb c2 b6 0b bb 42
       -93.277 -93.19974 -93.513855 93.52287
000150 c9 6d ba c2 dc b5 ba c2 b6 6c ba c2 29 89 ba c2
       -93.214424 -93.355194 -93.212326 -93.26789
000160 a4 9c ba c2 ed a1 ba c2 05 eb ba c2 73 6f ba c2
       -93.30594 -93.31626 -93.45902 -93.217674
000170 c9 c6 ba c2 20 53 ba 42 ee 4b ba c2 50 a2 ba c2
       -93.38825 93.16235 -93.1483 -93.31702
000180 3e d9 ba c2 38 6f ba 42 6c 00 bb c2 f5 c9 ba 42
       -93.4243 93.217224 -93.500824 93.39445
000190 ae dc ba c2 14 b2 ba 42 6d 83 ba c2 39 58 ba c2
       -93.431015 93.34781 -93.25669 -93.17231
0001a0 3a ae ba c2 d0 7d ba c2 8c 52 ba c2 92 ef ba c2
       -93.34029 -93.24573 -93.161224 -93.46791
0001b0 ed cb ba c2 45 a7 ba 42 74 ff ba c2 c3 71 ba c2
       -93.39829 93.3267 -93.49893 -93.22219
0001c0 a2 87 ba c2 56 66 ba c2 1a a1 ba c2 a3 ba ba c2
       -93.26491 -93.199875 -93.31465 -93.364525
0001d0 ee aa ba c2 ca 87 ba c2 15 a8 ba c2 ed a0 ba 42
       -93.33385 -93.26521 -93.328285 93.31431
0001e0 38 76 ba c2 e8 63 ba c2 f5 f3 ba c2 d4 7d ba 42
       -93.230896 -93.19513 -93.47648 93.24576
0001f0 45 44 ba c2 c3 f6 ba 42 51 37 ba c2 d9 9c ba 42
       -93.13334 93.48196 -93.10804 93.30634
000200 e0 59 ba c2 d1 73 ba c2 aa 10 bb c2 9c 6e ba c2
       -93.17554 -93.226204 -93.53255 -93.216034
000210 11 a6 ba c2 ec 5f ba c2 2f aa ba c2 10 73 ba 42
       -93.32435 -93.18735 -93.33239 93.22473
000220 5e ab ba c2 c3 96 ba c2 67 08 bb c2 d6 c1 ba c2
       -93.3347 -93.29446 -93.51641 -93.378586
000230 1a 82 ba c2 c1 af ba c2 dc e7 ba c2 69 50 ba c2
       -93.254105 -93.34327 -93.45285 -93.15705
000240 d9 67 ba c2 e5 78 ba 42 3f cb ba c2 71 80 ba c2
       -93.20283 93.23612 -93.396965 -93.25086
000250 af f7 ba c2 a2 9d ba 42 da 80 ba c2 b4 0a bb 42
       -93.48376 93.30788 -93.25166 93.520905
000260 2a 9e ba c2 0d 0e bb 42 b4 8e ba c2 19 95 ba c2
       -93.308914 93.52744 -93.27872 -93.29121
000270 c9 0b bb c2 36 55 ba c2 b2 58 ba c2 a8 79 ba c2
       -93.52302 -93.16643 -93.17323 -93.23761
000280 20 7e ba c2 ea de ba 42 ab 13 bb c2 c9 0a bb c2
       -93.24634 93.43538 -93.538414 -93.521065
000290 30 cc ba c2 ac 76 ba c2 2b cb ba c2 63 6d ba c2
       -93.3988 -93.23178 -93.39681 -93.213646
0002a0 3e 79 ba c2 b7 78 ba c2 fe ce ba c2 60 d7 ba 42
       -93.2368 -93.23577 -93.40428 93.420654
0002b0 53 0a bb c2 27 ac ba c2 df f2 ba c2 d7 b2 ba 42
       -93.520164 -93.336235 -93.47436 93.3493
0002c0 55 a9 ba c2 dc 01 bb 42 11 d3 ba c2 01 be ba 42
       -93.33073 93.50363 -93.41224 93.3711
0002d0 cf 4b ba c2 8b 67 ba c2 83 60 ba c2 a0 e1 ba c2
       -93.14806 -93.20223 -93.1885 -93.440674
0002e0 a1 da ba c2 90 22 bb c2 8e 21 bb c2 e4 de ba 42
       -93.42701 -93.567505 -93.56554 93.43533
0002f0 d7 8b ba c2 dc ac ba c2 54 8f bb c2 87 31 bb c2
       -93.273125 -93.337616 -93.77994 -93.59673
000300 08 7f ba c2 7e c2 ba c2 57 49 bb c2 eb 0d bb c2
       -93.24811 -93.37987 -93.64324 -93.52718
000310 ba 2a bb c2 a7 b7 ba 42 0a 9c ba c2 f4 2e bb c2
       -93.58345 93.358696 -93.30476 -93.591705
000320 3d 7c ba c2 4e 48 bb 42 09 29 bb c2 f3 b8 ba 42
       -93.24265 93.64122 -93.58015 93.36123
000330 be 6e ba 42 ce 1f bb 42 52 d2 ba c2 e7 ae ba c2
       93.21629 93.56212 -93.41078 -93.341606
000340 f3 6e ba c2 e6 d1 ba c2 64 04 bb c2 75 b7 ba c2
       -93.2167 -93.40996 -93.508575 -93.358315
000350 72 03 bb c2 9f c7 ba 42 bf 88 ba c2 8a 0e bb c2
       -93.50673 93.389885 -93.26708 -93.5284
000360 4f 81 bb c2 67 a5 ba c2 d1 89 ba c2 59 c6 ba c2
       -93.752556 -93.32305 -93.26917 -93.3874
000370 9f 4d bb c2 ae 79 ba c2 76 7f ba c2 50 f0 ba 42
       -93.6516 -93.237656 -93.24895 93.46936
000380 80 b7 ba c2 e2 e1 ba c2 c4 08 bb c2 39 49 bb 42
       -93.3584 -93.44118 -93.51712 93.64301
000390 2f 00 bb c2 89 20 bb 42 0e 4e ba 42 04 9d ba 42
       -93.50036 93.563545 93.15245 93.30667
0003a0 3a 4d bb c2 6f e8 ba c2 63 d9 ba c2 2f 23 bb c2
       -93.65083 -93.45397 -93.42458 -93.56872
0003b0 42 eb ba c2 7d be ba c2 a0 f7 ba c2 9e 41 bb 42
       -93.45949 -93.37205 -93.48364 93.62816
0003c0 8e ee ba c2 6e 3b bb c2 e4 15 bb c2 78 d8 ba c2
       -93.46593 -93.61607 -93.542755 -93.42279
0003d0 78 71 ba c2 66 e4 ba c2 71 e2 ba c2 38 db ba c2
       -93.22162 -93.44609 -93.44227 -93.42816
0003e0 a9 f6 ba c2 a9 cb ba 42 5c 39 bb c2 01 f5 ba c2
       -93.48176 93.39777 -93.61203 -93.47852
0003f0 32 f3 ba c2 37 c3 ba 42 ac f9 ba c2 a8 02 bb 42
       -93.47499 93.38128 -93.48764 93.50519

key_encoder.encoder.bias_ih_l0 f4 [104]
000000 5c 02 bb 42 e2 e5 bb 42 46 2b bb 42 44 df ba 42
       93.50461 93.94899 93.58452 93.436066
000010 a3 d9 ba 42 28 9f bb 42 8e 16 bb 42 7e 91 bc 42
       93.42507 93.81085 93.54405 94.284164
000020 d4 c6 bc 42 84 9c bc 42 39 05 bc 42 5e a5 bc 42
       94.388336 94.305695 94.0102 94.32298
000030 ab 71 bc 42 cd a2 bb 42 21 28 bb 42 f3 23 ba 42
       94.22201 93.81797 93.57838 93.07021
000040 3a f4 bb 42 b6 40 bc 42 cb e6 bb 42 f9 38 bc 42
       93.977005 94.12639 93.95077 94.111275
000050 76 c8 bc 42 cd 86 bb 42 ac fa ba 42 e5 13 bb 42
       94.391525 93.76328 93.48959 93.53886
000060 7c 9a bc 42 75 24 bb 42 28 69 ba 42 35 11 bb 42
       94.30173 93.571205 93.20538 93.53361
000070 75 a3 ba 42 e0 66 ba 42 69 f2 ba 42 74 af ba 42
       93.31925 93.20093 93.47346 93.34268
000080 3b 9b ba 42 ef cb bb 42 39 2c bc 42 af 8f bb 42
       93.303185 93.89831 94.08637 93.78063
000090 f1 d0 ba 42 08 c2 bb 42 f9 a2 bb 42 81 79 ba 42
       93.40809 93.87897 93.818306 93.23731
0000a0 76 67 ba 42 17 7e ba c2 e4 1d bb 42 51 01 bc 42
       93.20207 -93.24627 93.55838 94.00257
0000b0 00 ff ba 42 ae b4 ba 42 29 2a bc 42 26 98 ba 42
       93.49805 93.35289 94.082344 93.297165
0000c0 54 89 ba 42 53 bb ba 42 cb 83 bb 42 3d ac ba 42
       93.26822 93.36587 93.75741 93.3364
0000d0 49 88 bc c2 35 72 bc c2 d7 b2 bb c2 61 45 bc c2
       -94.26618 -94.22306 -93.8493 -94.135506
0000e0 5a 51 bc c2 6f 0d bc 42 4e 74 bb c2 f8 cd bc c2
       -94.15889 94.02624 -93.72716 -94.40228
0000f0 ba 01 bd c2 3b 97 bc c2 b0 06 be c2 41 eb bc c2
       -94.50337 -94.29537 -95.01306 -94.45948
000100 36 86 bc c2 95 f2 bb c2 a0 68 bd c2 44 b0 ba c2
       -94.26213 -93.97379 -94.704346 -93.34427
000110 d3 ce bc c2 09 b9 bc c2 6a 63 bc c2 c6 49 bc 42
       -94.40395 -94.3614 -94.19417 94.14409
000120 50 d1 bc c2 01 11 bb 42 1e 0f b7 c2 e1 8c bb 42
       -94.40881 93.53321 -91.529526 93.775154
000130 68 87 bc c2 b9 a7 bc c2 36 3b bb 42 78 ff bb 42
       -94.264465 -94.32758 93.61565 93.99896
000140 6e 6d bb 42 5d 38 bb 42 53 e9 ba 42 52 bd bb 42
       93.71373 93.610085 93.45571 93.86977
000150 9e 98 bb 42 06 b8 bc 42 1f 87 be 42 35 39 bd 42
       93.79808 94.35942 95.26391 94.61173
000160 f2 1d bb 42 90 56 bd 42 7a de bc 42 a3 68 bb 42
       93.55849 94.66907 94.434525 93.70437
000170 e9 d0 ba 42 55 86 ba 42 5a e5 bb 42 ad 83 bd 42
       93.40803 93.26237 93.94795 94.75718
000180 dd 94 bb 42 84 09 bc 42 e4 bb bd 42 f9 25 bb 42
       93.79075 94.018585 94.866974 93.574165
000190 aa 36 bb 42 f1 9e bb 42 18 02 bd 42 01 d4 ba 42
       93.606766 93.81043 94.50409 93.41407

key_encoder.encoder.bias_hh_l0 f4 [104]
000000 82 34 bb 42 18 f4 bb 42 56 1b bb 42 02 0e bb 42
       93.602554 93.976746 93.55339 93.52736
000010 5f de ba 42 bf b6 bb 42 01 14 bb 42 c4 36 bc 42
       93.43432 93.856926 93.53907 94.106964
000020 2c d8 bc 42 f3 b9 bc 42 74 e9 bb 42 cc 37 bd 42
       94.42221 94.36318 93.95596 94.60898
000030 6e 64 bc 42 28 45 bb 42 0d d8 bb 42 f7 06 ba 42
       94.19615 93.63507 93.921974 93.0136
000040 65 58 bc 42 9b 16 bc 42 88 0d bc 42 99 fc bb 42
       94.172646 94.04415 94.02643 93.993355
000050 2f 4c bc 42 7b a1 bb 42 7e fd ba 42 cb 82 bb 42
       94.148796 93.81539 93.4951 93.755455
000060 20 40 bc 42 cd 63 bb 42 9a c0 ba 42 96 d7 ba 42
       94.125244 93.69492 93.376175 93.42107
000070 d8 b2 ba 42 11 51 ba 42 bf 6d ba 42 19 ce ba 42
       93.349304 93.15833 93.21435 93.402534
000080 76 7b ba 42 e6 94 bb 42 5d 31 bc 42 a8 de bb 42
       93.241135 93.79082 94.09641 93.934875
000090 13 db ba 42 6f 2f bc 42 dd 7c bb 42 ab 73 ba 42
       93.42788 94.09264 93.74387 93.225914
0000a0 c0 ea ba 42 17 b3 ba c2 ed 86 bb 42 22 f4 bb 42
       93.458496 -93.349785 93.76353 93.97682
0000b0 b5 7c ba 42 dd 34 bb 42 2f b4 bb 42 fb b1 ba 42
       93.24357 93.60325 93.85192 93.34762
0000c0 60 97 ba 42 58 d8 ba 42 05 0d bc 42 ec 5b ba 42
       93.295654 93.42255 94.02543 93.179535
0000d0 a9 78 bc c2 c3 d9 bc c2 bf 11 bc c2 cc fb bc c2
       -94.235664 -94.425316 -94.03466 -94.49179
0000e0 20 d0 bb c2 7c e4 bb 42 51 fd ba c2 68 9f bc c2
       -93.906494 93.94626 -93.49476 -94.31134
0000f0 e4 d2 bc c2 20 34 bc c2 ba 72 bd c2 b5 ec bc c2
       -94.411896 -94.10181 -94.724075 -94.46232
000100 18 b3 bc c2 de 4c bb c2 68 be bc c2 0f 90 ba c2
       -94.34979 -93.65013 -94.37189 -93.281364
000110 da c1 bc c2 08 5d bc c2 0c c6 bc c2 ff 59 bc 42
       -94.37862 -94.1817 -94.38681 94.17577
000120 56 bd bc c2 e1 61 bb 42 7a 6a b6 c2 c8 87 bb 42
       -94.3698 93.69117 -91.20796 93.7652
000130 55 b8 bc c2 e8 95 bc c2 2a e0 ba 42 e1 53 bb 42
       -94.36002 -94.292786 93.43782 93.663826
000140 0d 17 bb 42 ab 47 bb 42 ab fb ba 42 89 98 bb 42
       93.54502 93.63998 93.49154 93.79792
000150 60 21 bb 42 4f 65 bc 42 e4 38 be 42 f7 17 bd 42
       93.565186 94.19787 95.111115 94.54681
000160 8e c5 ba 42 6d 75 bd 42 a2 9b bc 42 5d 54 bb 42
       93.38585 94.72935 94.30397 93.66477
000170 cb 7d bb 42 71 4f ba 42 49 e9 bb 42 66 bd bd 42
       93.74569 93.15516 93.955635 94.86992
000180 05 03 bb 42 07 02 bc 42 05 e1 bd 42 67 56 bb 42
       93.5059 94.00396 94.93949 93.668755
000190 30 29 bb 42 22 32 bb 42 62 4d bd 42 c5 c8 ba 42
       93.580444 93.597916 94.65114 93.39213

atten_layer.0.weight f4 [56, 168]
000000 1c af fa 3c c3 4e 97 3d 81 3a 9b 3d 1a 16 3a 3d
       0.030601077 0.073880695 0.07579518 0.045431234
000010 a0 2d be 3b 00 99 ca 3c b6 81 16 bd 04 37 91 3c
       0.005803779 0.02473116 -0.036744796 0.017726429
000020 58 5c fa 3c ec d4 1c bd 88 94 61 3c a0 6f 6c 3b
       0.030561611 -0.038288996 0.013768323 0.0036077276
000030 75 5f 8d bd c2 3f 68 3d fa e5 67 3d 60 72 08 3c
       -0.069029726 0.05670143 0.056615807 0.00832805
000040 20 1d 14 bb 54 bf 8d bc 0b 72 92 3d 6a 80 49 bd
       -0.0022600368 -0.017303146 0.07150658 -0.04919473
000050 a8 03 1b 3c eb cd 17 bd d0 56 79 3c 20 85 01 3b
       0.009461321 -0.037061613 0.015218452 0.0019763187
000060 a4 3b 90 bd 62 14 01 3d e4 0b 71 bd c0 8a e9 3a
       -0.070426255 0.03151358 -0.05884923 0.001781784
000070 08 f5 bd 3c a4 b1 b7 3c 90 45 cc 3c 40 fc ba bb
       0.023188129 0.022423573 0.024935514 -0.00570634
000080 e9 fd 83 3d b6 5c 1c bd ca 0e 08 bd 1a fc 48 3d
       0.06444914 -0.038174354 -0.03321723 0.049068548
000090 fb 83 8e 3d 84 fc b4 3c 6c 9d 3f bd 72 3a 7a 3d
       0.06958767 0.022093065 -0.04678099 0.061090894
0000a0 b9 cd 85 3d 34 a3 56 bd 59 6d 91 3d d4 97 bd 3c
       0.06533379 -0.052401736 0.071009345 0.023143686
0000b0 00 80 5b b9 58 d2 cc 3c 58 9b 2f 3d 83 9d 81 3d
       -0.00020933151 0.025002643 0.042872757 0.06328871
0000c0 18 6f 74 3c a0 00 42 3c 2c 1a 6a bd f6 9c 13 3d
       0.014919065 0.011840969 -0.057153866 0.03603836
0000d0 66 94 07 bd a0 7c 8b 3b 24 e7 3d bd d0 92 db 3b
       -0.03310051 0.0042568 -0.04636301 0.006700851
0000e0 f2 7b 7d 3d e0 0c f0 bc c0 60 95 3a 90 e8 09 3d
       0.06188578 -0.029303014 0.0011396632 0.033669055
0000f0 eb 62 79 bd 87 3f 80 3d 27 50 8e 3d 36 ec ad bc
       -0.06088535 0.06262117 0.069488816 -0.021230798
000100 35 1d 9c 3d 87 eb 1c bd 80 69 11 3c f7 17 85 3d
       0.07622758 -0.038310554 0.008875251 0.064987116
000110 db 77 39 bd 22 c0 83 bc c5 bf 9a 3d fc a1 db bc
       -0.04528032 -0.016082827 0.075561084 -0.026810639
000120 24 b9 51 bd d0 4e aa 3b 2c 8a 75 bd ea c1 cf bc
       -0.051201954 0.0051973835 -0.059946224 -0.02536102
000130 40 d0 c3 3a 08 47 73 bd e0 2a a7 bc 52 ea 3b 3d
       0.0014939383 -0.059393913 -0.020406187 0.045877762
000140 d6 01 7f 3d 0b a0 6f bd 20 ac 3b 3d e6 03 28 3d
       0.06225761 -0.05850224 0.045818448 0.041019343
000150 60 55 5e bc e8 95 75 bc cb e8 98 3d e4 e7 33 3d
       -0.01357016 -0.014989354 0.07466277 0.04392232
000160 9e d4 4d 3d 00 14 bb 3a 26 16 62 bd 00 b4 02 3d
       0.050251596 0.0014272928 -0.055196904 0.031909943
000170 60 0b f5 3c e0 f3 d3 bb d0 c1 4f bc d0 50 45 3c
       0.02991265 -0.006468281 -0.012680486 0.012043193
000180 1c 92 37 bd c6 a4 23 bd fe 80 33 3d 66 49 2b bd
       -0.044817075 -0.039952062 0.04382419 -0.041818045
000190 64 d8 30 3d 4e 3b 6a 3d 06 51 14 3d 00 07 a6 3b
       0.043175116 0.057185464 0.036210082 0.0050667524
0001a0 c8 76 b7 bc 36 6f 7e 3d 65 a1 8d 3d 2e 5a 4a 3d
       -0.022395507 0.062117778 0.06915549 0.04940241
0001b0 00 d5 3a 3c b6 c9 da bc 84 16 f6 3c 88 e2 ee bc
       0.011403322 -0.026707511 0.030040033 -0.029160753
0001c0 1f 79 ba 42 0a 8e ba c2 a1 a3 ba 42 c5 7c ba c2
       93.236565 -93.27742 93.31959 -93.24369
0001d0 e7 84 ba c2 91 a1 ba 42 f4 8d ba c2 a7 af ba c2
       -93.259575 93.31556 -93.27725 -93.34307
0001e0 ea 82 ba 42 ef a9 ba 42 e7 89 ba 42 d2 a5 ba 42
       93.25569 93.3319 93.26934 93.32387
0001f0 e3 9b ba c2 db 88 ba 42 21 64 ba 42 ee 93 ba c2
       -93.30447 93.267296 93.195564 -93.288925
000200 be a4 ba 42 10 65 ba 42 d7 79 ba c2 83 5f ba 42
       93.32176 93.19739 -93.23797 93.18655
000210 e6 a2 ba 42 96 97 ba c2 ce 7a ba c2 13 92 ba 42
       93.31816 -93.29607 -93.23985 93.2853
000220 13 78 ba 42 d8 7b ba 42 56 94 ba 42 ce 8c ba 42
       93.23452 93.24188 93.28972 93.27501
000230 1b 62 ba 42 1d 91 ba 42 a0 b2 ba c2 9c c3 ba c2
       93.19161 93.283424 -93.34888 -93.38205
000240 fd a8 ba c2 41 af ba c2 57 aa ba c2 8f 8c ba 42
       -93.330055 -93.34229 -93.332695 93.27453
000250 68 91 ba c2 e5 a3 ba c2 e5 02 bb c2 a5 e2 ba c2
       -93.284 -93.32011 -93.50565 -93.442665
000260 77 c4 ba c2 cf b9 ba c2 b4 c8 ba c2 46 a9 ba c2
       -93.38372 -93.36291 -93.392 -93.33061
000270 07 b7 ba c2 0c 73 ba c2 c5 9b ba c2 26 ac ba c2
       -93.357475 -93.2247 -93.30424 -93.33623
000280 03 b3 ba c2 ab 84 ba 42 e0 d3 ba c2 32 8d ba 42
       -93.34963 93.25912 -93.41382 93.27577
000290 89 79 ba c2 82 8d ba 42 53 a3 ba c2 e0 7e ba c2
       -93.23737 93.27638 -93.31899 -93.2478
0002a0 08 70 d5 bc 86 ff 7e 3d ba 31 74 3d 20 05 6e 3b
       -0.026054397 0.062255405 0.059617735 0.0036318973
0002b0 30 a6 bb 3b 6c 28 bd bc 00 fe a7 3a 73 af 9a 3d
       0.005726598 -0.023090564 0.0012816787 0.075529955
0002c0 c0 5d 7b bb 7f 00 81 3d 25 6e 38 bd f0 47 0c bd
       -0.003835544 0.06298923 -0.045026917 -0.034248292
0002d0 b4 7b 0d 3d 96 20 41 3d 44 94 30 3d 8a 49 53 3d
       0.0345418 0.047150217 0.043110147 0.051583804
0002e0 30 be 99 bb 5f b2 36 bd 58 0a 13 bc e2 90 e5 bc
       -0.0046918616 -0.0446037 -0.008974634 -0.028023187
0002f0 fe db 57 3d 5c d0 89 3c 08 77 ce bc 4a d2 3e 3d
       0.052700035 0.016822986 -0.025203243 0.046587266
000300 10 a5 a3 bb de ad 3d 3d cd 4a 81 3d 82 99 71 3d
       -0.004994042 0.04630839 0.06313095 0.058984287
000310 90 45 77 bc 5e 4b 0f bd 8e 7d 0f 3d 33 fd 84 3d
       -0.015092269 -0.034983985 0.035031848 0.064936064
000320 f8 68 d7 3c 9f 92 8e bd 60 ff 29 bb d6 f2 1e 3d
       0.02629517 -0.069615595 -0.002593957 0.038805805
000330 30 be d8 3b aa eb 24 3d dc 50 d9 bc bb a4 94 3d
       0.006614469 0.04026381 -0.026527815 0.07257982
000340 72 5c 8b bd 4c 2a d4 3c 98 8c 93 bd b4 82 80 bd
       -0.06804742 0.025899075 -0.072045505 -0.0627493
000350 90 7d 18 3c 40 98 99 ba d4 fd f3 bc 6e ea d2 bc
       0.00930728 -0.0011718348 -0.02978412 -0.02574655
000360 fa 23 45 3d 80 ca 8a 3a 32 e6 47 3d 6b 86 81 bd
       0.048130013 0.0010588914 0.048803516 -0.06324466
000370 82 75 95 bd da 20 7c bd 06 64 ca bc fc 7f 89 bd
       -0.072978035 -0.061554767 -0.024705898 -0.06713864
000380 9e 46 3e 3d 88 a6 fd 3c ac b6 8e bd ea a6 56 3d
       0.046454065 0.030963197 -0.06968436 0.052405275
000390 04 26 20 bd 80 75 32 3d 0a 4e 1f 3d 4c 27 e0 bc
       -0.039098755 0.043569088 0.038892783 -0.027362488
0003a0 a0 f9 41 3d d6 dd a7 bc 58 44 6a bd 5b ae 84 3d
       0.0473572 -0.020491522 -0.057194084 0.06478568
0003b0 a0 76 c0 3b 1c 81 e3 3c ba 32 76 3d 98 28 0e 3c
       0.005873516 0.027771525 0.06010697 0.0086766705
0003c0 18 b4 bf 3c 84 33 47 bd 15 78 6b bd a0 21 47 3c
       0.023401305 -0.048633114 -0.057487566 0.012154013
0003d0 ce f3 fb bc ba 14 6a 3d 70 64 37 bd 29 07 8d 3d
       -0.030755904 0.057148673 -0.04477352 0.06886131
0003e0 23 5c 9c bd 3f 62 9b 3d 7e aa 5d 3d 4c 91 27 3d
       -0.07634761 0.07587098 0.054117672 0.04091005
0003f0 b1 5e 97 3d 44 1f bd 3c 40 86 54 3c aa 88 4c 3d
       0.07391108 0.023086198 0.012971461 0.04993502
