Final project/competition/savemodel/best_991.pth (torch_old, 668674 bytes, 63 tensors)

price_encoder.attention.weight f4 [1, 90]
000000 8c 87 b9 42 59 aa b9 c2 4d 9b b9 42 a6 ea b8 42
       92.76474 -92.83271 92.80332 92.4583
000010 82 a0 b9 42 0c 62 b9 42 fc 70 b9 c2 81 65 b9 c2
       92.81349 92.6915 -92.72067 -92.69825
000020 b7 6e b9 42 08 b7 b9 42 8a f0 b9 c2 38 62 b9 42
       92.71624 92.85748 -92.9698 92.69183
000030 88 93 b9 c2 26 a5 b9 42 c7 72 b9 42 18 9f b9 c2
       -92.78815 92.822556 92.724174 -92.81073
000040 46 60 b9 42 2b bd b9 42 38 a7 b9 42 4d cc b9 c2
       92.688034 92.86947 92.8266 -92.899025
000050 fd c2 b9 42 da bc b9 c2 87 a6 b9 c2 79 83 b9 42
       92.88084 -92.86885 -92.82525 92.75678
000060 76 bf b9 42 3a 58 b9 42 e7 62 b9 42 6a 7a b9 42
       92.87395 92.67232 92.69317 92.73909
000070 06 64 b9 42 b6 9d b9 c2 14 5b b9 42 38 6a b9 c2
       92.69536 -92.80803 92.67789 -92.70746
000080 50 63 b9 42 a1 e6 b8 c2 24 ca b9 42 21 7b b9 42
       92.69397 -92.45045 92.894806 92.740486
000090 21 5c b9 c2 29 6d b9 c2 0c 78 b9 42 5a 9d b9 42
       -92.67994 -92.7132 92.73447 92.80733
0000a0 a5 b5 b9 c2 5a 72 b9 42 59 56 b9 c2 b9 68 b9 42
       -92.854774 92.72334 -92.66865 92.70454
0000b0 8e 73 b9 42 d5 3b b9 c2 12 8c b9 42 2a 62 b9 42
       92.72569 -92.61686 92.773575 92.69173
0000c0 af dd b9 42 c0 ca b9 c2 45 4b b9 42 39 49 b9 c2
       92.932976 -92.895996 92.64701 -92.64301
0000d0 18 7f b9 c2 c3 97 b9 42 d8 57 b9 42 be 91 b9 42
       -92.74823 92.79641 92.67157 92.78465
0000e0 a0 8c b9 42 9c 75 b9 42 31 9b b9 42 5f 93 b9 c2
       92.77466 92.729706 92.80311 -92.787834
0000f0 06 82 b9 c2 84 ca b9 c2 0c bd b9 c2 03 93 b9 c2
       -92.75395 -92.89554 -92.86923 -92.78713
000100 6a 97 b9 c2 d4 69 b9 c2 6c 79 b9 c2 91 44 b9 c2
       -92.79573 -92.706696 -92.73715 -92.63392
000110 cb 5a b9 c2 14 7f b9 c2 9e a0 b9 c2 64 7e b9 c2
       -92.67733 -92.7482 -92.813705 -92.74686
000120 2b a6 b9 c2 98 5b b9 c2 e3 7a b9 c2 6e 9f b9 c2
       -92.82455 -92.678894 -92.74001 -92.811386
000130 b3 b8 b9 c2 35 87 b9 c2 e2 40 b9 c2 fd de b9 c2
       -92.86074 -92.76408 -92.626724 -92.935524
000140 8e 08 ba c2 d7 c5 b9 c2 10 77 b9 c2 ab 9e b9 c2
       -93.01671 -92.886406 -92.732544 -92.8099
000150 70 75 b9 c2 c5 85 b9 c2 71 c3 b9 c2 e6 c7 b9 c2
       -92.72937 -92.76127 -92.88172 -92.89043
000160 b5 71 b9 c2 d3 72 b9 c2
       -92.722084 -92.724266

price_encoder.encoder.weight_ih_l0 f4 [120, 45]
000000 30 d1 e4 bc 14 e3 29 3e 48 80 b6 3d 68 ba d7 bd
       -0.02793178 0.1659053 0.089111865 -0.10533601
000010 08 94 23 3d 24 e4 f6 3d 24 0e 2b bd 3e 61 82 3d
       0.039936095 0.12055233 -0.041761532 0.06366204
000020 a0 74 35 bc 4c 40 8e 3d 66 d8 07 be a0 f4 0c bd
       -0.011075169 0.069458574 -0.13266143 -0.03441298
000030 00 13 fc 3a 8b 6a f0 bd 32 94 df bd 0e 2a a7 bd
       0.0019231737 -0.117390715 -0.10916938 -0.08162318
000040 a6 44 35 3e 3b 2b c7 bd e0 b5 ef bd e0 b3 2f 3e
       0.17701969 -0.097250424 -0.11704612 0.1715846
000050 95 81 f0 bd cd c2 b9 bd 78 7c bf bc a0 cd 5c 3d
       -0.11743466 -0.090703584 -0.023374781 0.053907037
000060 2a ec 00 be d4 53 ef 3d c0 73 19 bb 99 3b 14 be
       -0.1259009 0.11685911 -0.002341494 -0.1447586
000070 e1 12 08 be 58 8a a2 bd 5b 28 d5 bd 50 b3 c9 3c
       -0.13288452 -0.07936543 -0.10408088 0.024621636
000080 4b 3b 1c be 6d 99 d0 40 1a ac b9 42 72 77 b9 42
       -0.15256993 6.5187287 92.836136 92.73329
000090 a4 b7 b9 42 6a 1e ba 42 7f a2 2c be f9 30 b9 42
       92.85867 93.0594 -0.16858862 92.59565
0000a0 dd 1f b9 42 78 7f b9 42 ee 56 b9 42 a9 c1 9d bd
       92.56223 92.74896 92.669785 -0.07702953
0000b0 d4 d9 15 3e 37 7c b3 bd 9c ab 16 3e e4 eb c8 3d
       0.14633876 -0.087639265 0.14713901 0.098106176
0000c0 88 b3 83 3c 3c 89 a7 3d ca f5 31 3e 10 2d 0b bc
       0.016076818 0.08180472 0.17378917 -0.00849463
0000d0 5c 01 03 3e b6 d1 24 be 9c 38 95 3d 3d 36 0c be
       0.12793487 -0.16095623 0.07286188 -0.13692565
0000e0 4e 28 33 3e 00 ac bc bb be 6a 03 3e 60 9c de bb
       0.17495844 -0.0057578087 0.12833688 -0.0067935437
0000f0 24 4a 36 3e e8 df b6 bc 68 4e 38 be c0 83 f6 3d
       0.1780172 -0.022323564 -0.1799866 0.12036848
000100 ed 97 8a bd 99 fd 31 be a0 2d b1 3d 62 87 19 be
       -0.06767259 -0.17381896 0.086512804 -0.1499305
000110 00 55 47 bb 8b 4a a4 bd 80 5f f4 3a c8 c3 39 3d
       -0.0030415654 -0.080220304 0.0018644184 0.045352727
000120 40 53 a1 3d e0 21 6a 3d c8 0a e5 bc 74 69 30 bd
       0.07877207 0.057161212 -0.027959242 -0.043069318
000130 cc 25 57 bd 48 18 44 3d 97 48 35 41 03 13 ba 42
       -0.05252628 0.04787472 11.330222 93.03713
000140 c3 fc b9 42 c9 e3 b9 42 f3 05 ba 42 f0 07 49 3d
       92.993675 92.94489 93.01162 0.049079835
000150 2b 54 b9 42 01 66 b9 42 90 47 b9 42 45 38 b9 42
       92.66439 92.69923 92.63977 92.6099
000160 4a 53 f7 bd 40 45 56 bd f4 2a 49 bd 0b 78 98 bd
       -0.12076433 -0.052312136 -0.04911323 -0.074447714
000170 06 7a c8 bd e4 03 fa bd 39 fc 28 be ff 40 9b bd
       -0.09788899 -0.12207773 -0.16502465 -0.075807564
000180 1c 02 12 3e 9b 09 ba bd 63 4d d7 bd 50 eb 25 bd
       0.14258617 -0.09083863 -0.10512807 -0.040507615
000190 40 3b f5 bb fc 6b 19 be 6c 71 c3 3d e4 e5 0b 3e
       -0.00748387 -0.14982599 0.09543118 0.13661915
0001a0 f4 d8 67 3d fa 3c 0a be 80 ab 10 3e a0 46 d1 3d
       0.056603387 -0.13499823 0.14127922 0.10218549
0001b0 b0 03 11 3e 08 53 59 bd c0 a6 8a 3d 80 83 a6 3a
       0.14161563 -0.0530577 0.06770086 0.0012703985
0001c0 35 41 24 be a8 c5 9a 3d b4 f3 83 bd 90 e8 49 bc
       -0.160405 0.07557231 -0.06442967 -0.012323514
0001d0 08 ae dc 3c 68 99 26 3e e8 98 0c 3e 8c 7d 2d 3e
       0.026938453 0.16269457 0.13730204 0.16942424
0001e0 18 2a ca 3d ee 24 2d 3e 38 1e af bc f4 51 cb 3f
       0.0987131 0.16908619 -0.021376714 1.5884385
0001f0 3a df b9 42 23 a5 b9 42 13 88 b9 42 1e 93 b9 42
       92.93599 92.82253 92.76577 92.78734
000200 d0 96 50 3d 1e 6c b9 c2 d6 47 b9 c2 8b 23 b9 c2
       0.050925076 -92.71117 -92.640305 -92.56942
000210 be e0 b8 c2 dd e9 20 be 3c e0 35 3e 3c 4a 33 3e
       -92.43895 -0.15714212 0.1776132 0.17508787
000220 67 60 b8 bd e7 b7 2b be e0 16 06 3e e8 e6 12 3d
       -0.09002762 -0.16769372 0.13094664 0.03586474
000230 e4 28 a9 3d 08 58 53 3d ae 1b 1f be ce c7 14 be
       0.082597524 0.051597625 -0.15537903 -0.14529344
000240 c0 4b 87 bc dc 47 fb 3d f3 94 ff bd bc e4 e2 3d
       -0.016515613 0.122695655 -0.12479582 0.11078784
000250 e6 ea 31 3e 00 7d 0b bb 54 db 3d 3d 7c e8 b2 3d
       0.17374763 -0.0021284223 0.046351746 0.08735749
000260 95 53 00 be fe c5 35 3e 24 e3 f6 bd 3c 1c 84 bd
       -0.12531884 0.1775131 -0.120550424 -0.06450698
000270 2c 87 11 3d f4 bf 59 3d 90 b5 ae bc e4 5d 10 3e
       0.0355293 0.053161576 -0.02132681 0.14098316
000280 18 83 e5 3d 75 8c 1f be 6e d9 f5 bd 5c 82 98 3d
       0.11206645 -0.15580924 -0.12004362 0.07446739
000290 59 ff 28 be ec 80 2b be 4b b5 c1 bd 12 f9 7c bd
       -0.16503657 -0.16748399 -0.09458407 -0.06176097
0002a0 ea c2 5a c2 50 14 ba c2 f7 48 ba c2 50 54 ba c2
       -54.690346 -93.03967 -93.14251 -93.16467
0002b0 7b 56 ba c2 20 2f 15 3e b7 00 b9 c2 38 f0 b8 c2
       -93.16891 0.14568758 -92.501396 -92.46918
0002c0 c1 1b b9 c2 9b 4d b9 c2 78 85 96 bd a8 73 fa 3c
       -92.55421 -92.65157 -0.07349676 0.030572727
0002d0 56 24 1c 3e 70 b6 e0 3d 64 6b 69 3d 1c b1 47 3d
       0.15248236 0.10972297 0.05698718 0.04875289
0002e0 98 d9 db 3d 64 dd 27 be cc bc 1c be 2c 28 f7 3d
       0.10734862 -0.16393048 -0.15306395 0.12068209
0002f0 f4 44 69 bd 2a cb 32 be 2e a2 16 be fe b9 3a 3e
       -0.056950524 -0.17460313 -0.14710304 0.18235013
000300 6e f7 f6 bd 20 45 01 3c dc 79 01 bd c8 31 87 3c
       -0.12058912 0.007890016 -0.031610355 0.01650323
000310 79 b9 2f be ec 02 12 bd c9 5a b4 bd 1c 39 06 be
       -0.17160596 -0.035647318 -0.088063784 -0.13107723
000320 4a 30 3a be 40 5b 08 3d d8 62 46 bd 66 4d fd bd
       -0.18182483 0.033290148 -0.04843411 -0.12368278
000330 20 4b 7b 3d d4 d4 df 3d d8 1b 5f bd e9 7b 9b bd
       0.06135094 0.109292656 -0.054469913 -0.07591993
000340 48 c1 2f 3e 33 57 1e be bc bf 07 be f0 6b d8 bd
       0.17163575 -0.15462951 -0.13256735 -0.105674624
000350 66 d9 6e bd 58 e5 62 c1 42 8b b9 42 7a e4 b8 42
       -0.058312796 -14.180992 92.77199 92.44624
000360 e4 74 b9 42 ae e8 b8 42 d4 a7 06 bd d1 0a b9 c2
       92.7283 92.45445 -0.032874897 -92.521126
000370 5f 3e b9 c2 ea 2f b9 c2 fe 0d b9 c2 36 3a 08 3e
       -92.62182 -92.59358 -92.52733 0.13303456
000380 c0 a7 e5 3b 3c 9e 06 3e 22 9c 0b 3e 0f ba 07 be
       0.0070085227 0.13146299 0.13633779 -0.1325457
000390 f3 59 9e bd e4 b1 d6 bd b2 37 d0 bd 78 63 82 3d
       -0.07732 -0.10483149 -0.10166873 0.063666284
0003a0 aa 89 ea bd 38 31 0f 3d 94 8b 2f 3d 8f dd c3 bd
       -0.114520386 0.034959048 0.04285772 -0.09563743
0003b0 66 1c 23 3e 33 06 aa bd 78 61 b2 bc bc 8d 48 3d
       0.15928802 -0.08301964 -0.021774992 0.048963293
0003c0 50 a8 cd 3c 00 1c 58 bd 60 b7 ca 3b c3 9b c6 bd
       0.025104672 -0.052761078 0.006186411 -0.09697678
0003d0 7a 54 06 3e 4c 37 b5 3d 04 d1 8b 3d f8 04 36 3e
       0.13118163 0.08848438 0.06826976 0.17775333
0003e0 a6 91 d3 bd b8 9d 02 be fc 0b cc 3d 28 b8 31 be
       -0.103305146 -0.12755477 0.09963223 -0.17355406
0003f0 50 57 b1 3d 68 39 0e 3e 8e 52 a1 bd 18 a6 6d 3d
       0.08659232 0.13889086 -0.07877074 0.058019727

price_encoder.encoder.weight_hh_l0 f4 [120, 30]
000000 22 6a b9 c2 d5 42 b9 42 c5 3d b9 c2 f1 5f b9 c2
       -92.70729 92.63053 -92.62064 -92.687386
000010 81 78 b9 c2 ee 6a b9 c2 ec 32 b9 42 14 95 b9 42
       -92.73536 -92.70885 92.59946 92.79117
000020 f8 86 b9 c2 98 b8 b9 c2 84 36 b9 42 5d ac b9 c2
       -92.76361 -92.860535 92.606476 -92.83665
000030 24 6a b9 42 9d b5 b9 c2 f1 b7 b9 c2 54 74 b9 42
       92.707306 -92.85471 -92.85926 92.7272
000040 cb 51 b9 c2 85 83 b9 c2 ec 65 b9 c2 e8 b0 b9 42
       -92.65975 -92.756874 -92.699066 92.84552
000050 7c 1c b9 c2 74 7b b9 42 c7 7c b9 42 be 6f b9 c2
       -92.55563 92.74112 92.743706 -92.71825
000060 81 7d b9 c2 56 7a b9 c2 da bd b9 c2 9d 5b b9 c2
       -92.745125 -92.73894 -92.870804 -92.67893
000070 61 2f b9 c2 cb 90 b9 42 2f a1 b9 c2 5c 6e b9 42
       -92.59254 92.7828 -92.81481 92.715546
000080 04 1a b9 c2 ec 10 b9 c2 20 27 b9 c2 09 75 b9 c2
       -92.55081 -92.53305 -92.576416 -92.728584
000090 f7 8a b9 42 f0 f0 b9 42 24 53 b9 c2 ff aa b9 c2
       92.771416 92.97058 -92.662384 -92.83398
0000a0 71 fa b8 42 26 5c b9 c2 62 49 b9 42 fb cf b9 c2
       92.48914 -92.67998 92.643326 -92.90621
0000b0 69 95 b9 c2 eb 8d b9 42 96 b2 b9 c2 1d 9f b9 c2
       -92.79182 92.77718 -92.8488 -92.81077
0000c0 cd ae b9 c2 d3 94 b9 42 84 23 b9 c2 48 22 b9 42
       -92.84141 92.79067 -92.56937 92.566956
0000d0 b0 43 b9 42 9e ad b9 c2 83 6e b9 c2 a9 df b9 c2
       92.6322 -92.839096 -92.71584 -92.93684
0000e0 6b 22 b9 c2 5f 40 b9 c2 a5 55 b9 c2 62 66 b9 c2
       -92.56722 -92.625725 -92.667274 -92.69997
0000f0 19 d2 b9 c2 96 2e b9 42 fa 35 b9 c2 8d f6 b8 42
       -92.91035 92.59099 -92.60542 92.481544
000100 38 a5 b9 c2 58 51 b9 c2 df d7 b9 42 80 75 b9 42
       -92.82269 -92.658875 92.92162 92.72949
000110 8b 42 b9 c2 d1 8e b9 c2 6d 7a b9 42 5a 6f b9 c2
       -92.62997 -92.77894 92.73911 -92.71748
000120 23 3a b9 42 23 b6 b9 c2 bd 97 b9 c2 19 77 b9 42
       92.61355 -92.855736 -92.796364 92.73261
000130 2b e6 b9 c2 38 27 b9 c2 f2 b7 b9 c2 21 2a b9 42
       -92.94955 -92.5766 -92.85927 92.58228
000140 95 1f b9 c2 59 47 b9 42 4f 97 b9 42 9c 98 b9 c2
       -92.56168 92.63935 92.795525 -92.798065
000150 50 ca b9 c2 67 6e b9 c2 84 cf b9 c2 52 db b9 c2
       -92.89514 -92.71563 -92.905304 -92.92836
000160 1b 06 b9 c2 d0 78 b9 42 70 40 b9 42 e2 ac b9 c2
       -92.511925 92.73596 92.625854 -92.83766
000170 d6 95 b9 c2 9f 98 b9 42 0c 83 b9 42 a4 ea b9 42
       -92.79265 92.79809 92.75595 92.95828
000180 92 b4 b9 c2 a0 89 b9 c2 85 ad b9 42 4d 50 b7 c2
       -92.85268 -92.7688 92.838905 -91.65684
000190 56 42 b9 c2 0f 3e b9 42 c6 6b b9 c2 54 7c b9 42
       -92.62956 92.62121 -92.710495 92.74283
0001a0 ac 6b b9 c2 67 82 b9 c2 97 73 b9 42 8f ae b9 42
       -92.7103 -92.75469 92.72576 92.840935
0001b0 da 39 b9 c2 ff 81 b9 c2 c3 f5 b8 42 12 b4 b9 c2
       -92.61299 -92.7539 92.48 -92.8517
0001c0 e7 64 b9 c2 89 0a b9 42 b7 94 b9 42 13 27 b9 42
       -92.697075 92.52058 92.79046 92.57632
0001d0 9b 7c b9 42 18 8a b9 42 34 e5 b8 c2 45 24 b9 42
       92.74337 92.769714 -92.44766 92.57084
0001e0 18 aa b9 c2 57 6e b9 42 d6 32 b9 c2 70 2a b9 42
       -92.832214 92.71551 -92.59929 92.582886
0001f0 3b f1 b8 c2 93 58 b9 c2 4c a3 b9 42 ed 9c b9 42
       -92.47115 -92.673 92.81894 92.806496
000200 39 b3 b9 c2 0d 0d b9 c2 87 5b b9 42 86 ad b9 c2
       -92.850044 -92.52549 92.678764 -92.83891
000210 7c 9a b9 42 8f 25 b9 c2 a4 0e b9 c2 30 58 b9 42
       92.80173 -92.57336 -92.528595 92.67224
000220 b4 9c b9 c2 3a 33 b9 c2 1c a5 b9 c2 32 4b b9 42
       -92.80606 -92.60005 -92.82248 92.646866
000230 a9 26 b9 c2 2a 41 b9 42 8b 5c b9 42 2c 04 b9 c2
       -92.57551 92.62727 92.68075 -92.50815
000240 79 40 b9 c2 e2 8b b9 c2 af a4 b9 c2 29 2c b9 c2
       -92.62592 -92.77321 -92.82165 -92.58625
000250 ba 06 b9 c2 96 56 b9 42 4c 8b b9 c2 58 c8 b9 42
       -92.51314 92.66911 -92.772064 92.8913
000260 f6 5c b9 c2 f8 1f b9 c2 b4 58 b9 c2 c6 aa b9 c2
       -92.681564 -92.56244 -92.67325 -92.83354
000270 6a a6 b9 42 c3 14 ba 42 aa ce b9 c2 13 4e b9 c2
       92.82503 93.04055 -92.90364 -92.65249
000280 8d 30 b9 42 be 01 ba c2 d2 5f b9 42 15 94 b9 c2
       92.594826 -93.0034 92.68715 -92.78922
000290 91 1a b9 c2 db 67 b9 42 81 63 b9 c2 00 bb b9 c2
       -92.55189 92.70284 -92.69434 -92.865234
0002a0 fe 0a b9 c2 a6 ae b9 42 7a 13 b9 c2 83 33 b9 42
       -92.52147 92.84111 -92.53804 92.60061
0002b0 c4 9d b9 42 01 5f b9 c2 53 d6 b9 c2 b9 52 b9 c2
       92.808136 -92.685555 -92.9186 -92.66157
0002c0 c9 48 b9 c2 52 c6 b9 c2 b0 4b b9 c2 42 0a b9 c2
       -92.64216 -92.887344 -92.64783 -92.520035
0002d0 5e 9f b9 c2 06 44 b9 42 fb b7 b9 c2 a6 3c b9 c2
       -92.811264 92.63286 -92.85934 -92.618454
0002e0 75 69 b9 c2 10 88 b9 c2 15 7c b9 42 8d 70 b9 42
       -92.70597 -92.76575 92.74235 92.719826
0002f0 87 30 b9 c2 76 7d b9 c2 67 90 b9 42 51 59 b9 c2
       -92.59478 -92.74504 92.782036 -92.674446
000300 c3 28 b9 42 e2 6a b9 c2 39 0d b9 c2 b6 60 b9 42
       92.57961 -92.708755 -92.525826 92.68889
000310 51 ca b9 c2 67 7f b9 c2 a4 ff b8 42 d4 79 b9 42
       -92.89515 -92.74883 92.4993 92.737946
000320 9e c0 b9 c2 b6 6b b9 42 9a c9 b9 42 ba b2 b9 c2
       -92.876205 92.71037 92.89375 -92.849075
000330 16 8c b9 c2 c8 a9 b9 c2 79 9d b9 c2 fb 61 b9 c2
       -92.773605 -92.831604 -92.80756 -92.69137
000340 e5 ee b8 c2 02 0f b9 c2 6c 44 b9 c2 fc 66 b9 42
       -92.46659 -92.52931 -92.63364 92.70114
000350 4b 47 b9 c2 b2 5f b9 c2 09 74 b9 c2 8c cc b9 c2
       -92.639244 -92.686905 -92.72663 -92.899506
000360 50 b9 b9 42 5a 64 b9 42 fa 43 b9 c2 64 73 b9 c2
       92.86194 92.696 -92.63277 -92.72537
000370 a8 67 b9 42 f5 89 b9 c2 b6 0f b9 42 ac a9 b9 c2
       92.70245 -92.76945 92.530685 -92.83139
000380 e2 ac b9 c2 70 b7 b9 42 21 8f b9 c2 ce a2 b9 c2
       -92.83766 92.85828 -92.77955 -92.81798
000390 ff 16 b9 42 f9 33 b9 42 90 10 b9 c2 b4 c1 b9 42
       92.544914 92.60151 -92.53235 92.87833
0003a0 2f 9c b9 42 22 83 b9 c2 7f 7b b9 c2 29 bb b9 c2
       92.805046 -92.75612 -92.7412 -92.86555
0003b0 16 bf b9 c2 d9 5e b9 c2 a9 5a b8 c2 e6 23 b9 c2
       -92.873215 -92.68525 -92.17707 -92.570114
0003c0 30 42 b9 c2 a3 43 b9 42 48 2c b9 c2 13 64 b9 c2
       -92.62927 92.6321 -92.58649 -92.69546
0003d0 f2 4a b9 c2 5e b3 b9 c2 fa 9e b9 42 77 c9 b9 42
       -92.64638 -92.85033 92.8105 92.893486
0003e0 c5 4d b9 c2 b9 6a b9 c2 98 5b b9 42 c9 fd b9 c2
       -92.65189 -92.70844 92.678894 -92.995674
0003f0 05 8e b9 42 b8 a7 b9 c2 b1 8a b9 c2 bd d1 b9 42
       92.77738 -92.827576 -92.77088 92.909645

price_encoder.encoder.bias_ih_l0 f4 [120]
000000 c0 08 ba 42 3d 68 ba 42 c1 c9 b9 42 15 b7 ba c2
       93.01709 93.20359 92.89405 -93.35758
000010 06 39 b9 42 93 2a ba 42 a5 98 ba 42 f9 95 ba 42
       92.611374 93.08315 93.298134 93.292915
000020 40 e9 b9 42 b4 74 ba 42 0c 81 b8 42 72 8b ba 42
       92.95557 93.227936 92.252045 93.272354
000030 2e a8 b9 42 84 58 ba 42 6e b7 b9 42 a0 f9 b9 42
       92.828476 93.17288 92.85826 92.98755
000040 6f af ba 42 40 bd b9 42 13 e6 b8 42 88 b4 b8 42
       93.34264 92.86963 92.44936 92.3526
000050 9a 54 b9 42 68 43 ba 42 a5 44 ba 42 7a 0e ba 42
       92.66524 93.13165 93.13407 93.028275
000060 34 48 ba 42 2f b9 ba 42 91 cb b9 42 dc 65 ba 42
       93.14102 93.36169 92.89759 93.198944
000070 0f 2c b9 42 a4 7d b8 42 6f e8 b9 42 72 13 ba 42
       92.58605 92.24539 92.95397 93.03798
000080 eb 84 b9 42 ba 27 ba c2 61 f8 b8 42 04 3b ba 42
       92.759605 -93.07759 92.485115 93.115265
000090 10 de b9 42 78 2d ba 42 74 02 ba 42 e0 a1 b9 42
       92.933716 93.088806 93.00479 92.81616
0000a0 0a a3 b8 42 7a 2c ba 42 e8 45 b9 42 5c 63 ba 42
       92.318436 93.08687 92.636536 93.19406
0000b0 50 6f b9 42 2d 14 ba 42 b0 4a ba 42 99 cc b9 42
       92.71741 93.039406 93.145874 92.899605
0000c0 86 2f b9 42 d1 e6 b8 42 da 43 b9 42 aa a5 b9 42
       92.59282 92.45081 92.63252 92.82356
0000d0 3d 9d b9 42 fa a3 b9 42 d1 60 ba 42 e4 cd b9 42
       92.807106 92.82027 93.189095 92.90213
0000e0 68 de b9 42 53 2b ba 42 b0 ea b8 42 74 a6 b8 42
       92.93439 93.08462 92.458374 92.3251
0000f0 77 a7 ba c2 67 cd ba 42 b5 54 ba c2 e3 7b b9 42
       -93.32708 93.40118 -93.16544 92.74197
000100 ac a8 b9 c2 19 d8 ba c2 2c fc ba 42 75 82 bb 42
       -92.82944 -93.422066 93.49252 93.7548
000110 ed c4 ba c2 68 4f bd c2 1d 4d ba 42 46 28 bc c2
       -93.38462 -94.65509 93.15061 -94.07866
000120 3a 7b ba 42 14 57 ba c2 6f 35 bc c2 db bc bc 42
       93.24068 -93.170074 -94.10436 94.36886
000130 10 f1 bd c2 e7 b1 bc c2 4e 9c bb c2 5b 12 ba 42
       -94.970825 -94.347466 -93.80528 93.03585
000140 a6 e1 b9 c2 e3 79 ba 42 ca 79 bb 42 c8 62 bd c2
       -92.94072 93.23806 93.73787 -94.69293
000150 42 fd ba c2 62 9f bc c2 b0 b2 bb c2 08 8b bb c2
       -93.494644 -94.311295 -93.849 -93.771545
000160 71 d7 c2 c2 a3 66 ba 42 94 20 bb 42 45 97 bb 42
       -97.420784 93.20046 93.56363 93.79545
000170 0f 1a ba 42 e6 d5 ba c2 53 1c b9 42 f3 ca bb 42
       93.050896 -93.41777 92.55532 93.896385
000180 ec 9b bb 42 b1 6b bb 42 4c e8 ba 42 17 a6 ba 42
       93.804535 93.710335 93.453705 93.324394
000190 f5 19 b8 42 2e 28 bc 42 a8 06 ba 42 01 f2 ba 42
       92.0507 94.078476 93.013 93.472664
0001a0 4d b0 ba 42 c4 97 bb 42 6c 96 bb 42 bd 75 ba 42
       93.34434 93.79642 93.79379 93.22996
0001b0 4d bb b8 42 79 f7 b8 42 c9 51 b9 42 40 5b bb 42
       92.36582 92.483345 92.65974 93.67822
0001c0 78 80 ba 42 82 0c ba 42 41 4e bb 42 3c 2f bb 42
       93.250916 93.02443 93.65284 93.592255
0001d0 14 2b ba 42 a3 e9 ba 42 b3 61 b9 42 de c0 b8 42
       93.08414 93.45632 92.69082 92.37669

price_encoder.encoder.bias_hh_l0 f4 [120]
000000 37 27 ba 42 0e 08 ba 42 a4 ca b9 42 b8 51 ba c2
       93.07659 93.01573 92.89578 -93.15961
000010 1b 7f b9 42 ae 6c ba 42 bf 1e ba 42 53 1f ba 42
       92.74825 93.212265 93.06005 93.06118
000020 45 55 ba 42 ae 60 ba 42 15 a2 b8 42 96 a2 ba 42
       93.16654 93.18883 92.31657 93.31755
000030 a9 e0 b9 42 97 68 ba 42 e4 fa b9 42 b4 6f ba 42
       92.93879 93.20428 92.99002 93.21817
000040 15 3f ba 42 83 bf b9 42 10 62 b9 42 ae 9f b8 42
       93.12321 92.87405 92.69153 92.311874
000050 67 d8 b9 42 02 dc b9 42 9d 1e ba 42 06 e9 b9 42
       92.92266 92.9297 93.05979 92.955124
000060 da 61 ba 42 de 9d ba 42 5a ac b9 42 fa 50 ba 42
       93.19112 93.308334 92.836624 93.15816
000070 c5 b7 b8 42 17 c5 b8 42 67 11 ba 42 43 25 ba 42
       92.358925 92.38494 93.03399 93.07278
000080 49 7c b9 42 92 7d ba c2 4e 60 b9 42 2d 25 ba 42
       92.742744 -93.245255 92.688095 93.07261
000090 73 d4 b9 42 59 1f ba 42 d9 d7 b9 42 82 07 ba 42
       92.91494 93.061226 92.92158 93.01466
0000a0 55 7e b8 42 68 44 ba 42 be e9 b9 42 77 3f ba 42
       92.24674 93.133606 92.95653 93.123955
0000b0 63 7e b9 42 12 34 ba 42 65 36 ba 42 46 fa b9 42
       92.74685 93.1017 93.10624 92.988815
0000c0 bc da b8 42 42 eb b8 42 1b 39 b9 42 85 2b ba 42
       92.427216 92.45949 92.611534 93.085
0000d0 f2 af b9 42 c1 ba b9 42 e3 2e ba 42 84 3e ba 42
       92.84364 92.86475 93.091576 93.1221
0000e0 c6 ac b9 42 34 c6 b9 42 48 e1 b8 42 05 97 b8 42
       92.83745 92.887115 92.44 92.29496
0000f0 34 b3 ba c2 1c 05 bb 42 aa e8 b9 c2 84 2f b9 42
       -93.350006 93.50998 -92.95442 92.592804
000100 24 a0 b9 c2 62 d7 ba c2 7c af ba 42 b0 8e bb 42
       -92.812775 -93.42067 93.34274 93.77869
000110 21 a5 ba c2 96 f7 bc c2 49 45 ba 42 09 65 bc c2
       -93.32252 -94.48357 93.13532 -94.197334
000120 c9 52 ba 42 55 9a ba c2 5f 2d bc c2 e9 b5 bc 42
       93.16169 -93.30143 -94.088615 94.35529
000130 75 be bd c2 86 82 bc c2 94 ca bb c2 d2 f0 b9 42
       -94.87199 -94.25493 -93.89566 92.97035
000140 d6 d9 b9 c2 a1 4c ba 42 6a f5 ba 42 de be bd c2
       -92.92546 93.149666 93.479324 -94.87279
000150 7d 03 bb c2 e7 5e bc c2 87 24 bc c2 d7 6d bb c2
       -93.50681 -94.185356 -94.07134 -93.71453
000160 51 de c2 c2 da d0 ba 42 36 30 bb 42 d2 9d bb 42
       -97.43421 93.40791 93.59416 93.80824
000170 74 e0 b9 42 74 db ba c2 c4 28 b9 42 e9 0a bc 42
       92.938385 -93.42862 92.57962 94.02131
000180 82 0c bb 42 87 ad bb 42 54 ed ba 42 83 8e ba 42
       93.52443 93.83892 93.46353 93.27834
000190 90 3f b8 42 9a 97 bb 42 3b 9b b9 42 f7 e5 ba 42
       92.124146 93.7961 92.803185 93.44915
0001a0 ec 90 ba 42 ea 38 bb 42 4a 11 bb 42 cc 9f ba 42
       93.28305 93.61116 93.53377 93.3121
0001b0 1d b2 b8 42 38 0d b9 42 ca 54 b9 42 bc fc ba 42
       92.34788 92.52582 92.6656 93.49362
0001c0 60 3e ba 42 4c 94 ba 42 8d b3 bb 42 d7 68 bb 42
       93.121826 93.28964 93.850685 93.704765
0001d0 8f 40 ba 42 50 cc ba 42 fb 4d b9 42 ca 7e b8 42
       93.12609 93.39905 92.652306 92.247635

key_encoder.attention.weight f4 [1, 83]
000000 8b ab b8 42 18 f7 b8 42 2f f7 b8 42 82 09 b9 42
       92.335045 92.482605 92.48278 92.51857
000010 55 c3 b8 42 be e0 b8 c2 d8 0f b9 42 f2 d9 b8 42
       92.38151 -92.43895 92.530945 92.425674
000020 90 ee b8 42 fa ac b8 42 f9 d8 b8 42 b9 ca b8 42
       92.46594 92.337845 92.423775 92.39594
000030 9f bd b8 42 7f e8 b8 42 23 bb b8 42 fb 68 b9 42
       92.37035 92.454094 92.3655 92.70504
000040 f8 b2 b8 42 8d b6 b8 42 ef 0d b9 42 f8 e8 b8 c2
       92.34955 92.356544 92.527214 -92.45502
000050 ba 04 b9 42 29 00 b9 c2 eb 6d b9 42 8c d5 b8 c2
       92.50923 -92.50031 92.71468 -92.41708
000060 ae be b8 42 84 ee b8 42 5a d3 b8 42 fb 25 b9 42
       92.37242 92.46585 92.412796 92.57418
000070 be da b8 42 b0 39 b9 42 c8 d9 b8 42 80 f7 b8 c2
       92.42723 92.61267 92.425354 -92.4834
000080 67 37 b9 42 0d b4 b8 42 d8 e7 b8 42 26 03 b9 42
       92.60821 92.35166 92.45282 92.50615
000090 aa e5 b8 42 bd e2 b8 42 ce 0e b9 42 05 26 b9 42
       92.44856 92.44285 92.528915 92.57426
0000a0 55 2c b9 42 bc fc b8 42 f2 d3 b8 42 e3 1f b9 42
       92.586586 92.49362 92.413956 92.56228
0000b0 a4 d6 b8 42 11 e0 b8 c2 8f 08 b9 42 12 e5 b8 c2
       92.41922 -92.43763 92.516716 -92.4474
0000c0 a0 42 b9 42 63 e3 b8 c2 7e eb b8 42 2a 07 b9 42
       92.63013 -92.444115 92.459946 92.51399
0000d0 de 9d d7 41 66 a5 8e c2 ee de a8 c2 6a 2b 59 c2
       26.952084 -71.323044 -84.43541 -54.292397
0000e0 7e b1 5b c2 8a b7 a8 c2 dd 5c b9 c2 2b ad 53 42
       -54.923332 -84.358475 -92.68137 52.91911
0000f0 f0 73 b3 c2 62 76 b5 c2 6c cc b1 42 fd 1e 50 42
       -89.72644 -90.73122 88.89926 52.030262
000100 47 2b b9 c2 06 f2 ab c2 46 be b7 c2 10 e2 1e c1
       -92.584526 -85.9727 -91.87163 -9.930191
000110 1f db 15 42 0f f3 b2 c2 74 c7 70 c2 ef e7 b6 c2
       37.463985 -89.474724 -60.19478 -91.452995
000120 94 ea aa c2 0c b8 b8 c2 85 3a b9 c2 63 f2 b8 c2
       -85.45816 -92.35947 -92.614296 -92.47341
000130 47 e3 a0 c2 34 44 9f c2 c3 fc b7 c2 be 84 b2 c2
       -80.4439 -79.63321 -91.993675 -89.25926
000140 5c a3 bb 42 cc f7 0f c2 1c 96 0f 42
       93.81906 -35.99199 35.89659

key_encoder.encoder.weight_ih_l0 f4 [104, 38]
000000 6f cd b9 42 2f 33 b9 42 66 10 b9 42 6d 5e b9 42
       92.90124 92.59997 92.53203 92.684425
000010 8a 18 b9 42 19 3b b9 42 0a 5d b9 42 5b 00 b9 42
       92.54793 92.615425 92.68172 92.500694
000020 ec 6f b9 42 36 1c b9 42 ed 29 b9 42 8b bb b9 42
       92.7186 92.5551 92.58189 92.866295
000030 68 5b b9 42 2d fa b8 42 7c 1c b9 42 38 71 b9 42
       92.67853 92.488625 92.55563 92.72113
000040 6c 92 b9 42 45 60 b9 42 c4 fa b8 42 c5 2d ba 42
       92.78598 92.68803 92.48978 93.08939
000050 db 3e b9 42 e6 ad b9 42 47 7e b9 42 54 22 b9 42
       92.622765 92.839645 92.746635 92.56705
000060 2a fc b8 42 91 9e b9 42 c5 5b b9 42 16 a5 b9 42
       92.49251 92.8097 92.67924 92.82243
000070 52 44 ba 42 a1 6a b9 42 7e 0d b9 42 29 26 b9 42
       93.13344 92.70826 92.52635 92.57453
000080 1c 61 b9 42 e2 25 b9 42 95 9b b9 42 d4 ec b8 42
       92.68967 92.57399 92.80387 92.462555
000090 2a 8a b9 42 a4 54 b9 42 57 61 ba 42 c8 9a b9 42
       92.76985 92.66531 93.19012 92.80231
0000a0 32 7c b9 42 86 bb b9 42 7a 6a b9 42 66 1a b9 42
       92.74257 92.86626 92.70796 92.55156
0000b0 ab 26 b9 42 1a 7f b9 42 fa c8 b9 42 2d 34 b9 42
       92.57552 92.748245 92.89253 92.601906
0000c0 44 50 b9 42 b2 b9 b9 42 32 cf b9 42 15 16 b9 42
       92.65677 92.862686 92.90468 92.54313
0000d0 32 90 b9 42 7d 92 b9 42 8d 1b b9 42 90 5d b9 42
       92.78163 92.78611 92.55381 92.68274
0000e0 db 16 b9 42 e2 43 ba 42 30 59 b9 42 e9 86 b9 42
       92.54464 93.13258 92.674194 92.7635
0000f0 99 83 b9 42 9f 52 b9 42 dc 26 b9 42 e6 a0 b9 42
       92.75703 92.66137 92.5759 92.814255
000100 d0 a9 b9 42 78 9c b9 42 45 19 ba 42 1f 68 b9 42
       92.831665 92.8056 93.049355 92.70336
000110 4e 50 b9 42 02 79 b9 42 6a aa b9 42 b1 43 b9 42
       92.656845 92.73634 92.83284 92.63221
000120 5d 52 b9 42 1b 72 b9 42 d4 00 b9 42 2f ba b9 42
       92.660866 92.72286 92.50162 92.86364
000130 84 a1 b9 42 81 2d b9 42 dd 35 b9 42 cd 23 b9 42
       92.81546 92.588875 92.6052 92.56992
000140 7f 88 b9 42 22 9b b9 42 36 71 b9 42 7a ad b9 42
       92.766594 92.80299 92.721115 92.83882
000150 92 ee b8 42 16 89 b9 42 9d 35 b9 42 97 4a b9 42
       92.46596 92.767746 92.60471 92.64568
000160 e2 5a b9 42 e7 96 b9 42 bc f3 b8 42 1e 53 b9 42
       92.677505 92.79473 92.47604 92.66234
000170 eb 2e b9 42 6a 79 b9 42 f5 f7 b8 42 a7 3c ba 42
       92.59164 92.73714 92.48429 93.11846
000180 14 ed b8 42 7b 38 b9 42 51 0c b9 42 ae 09 b9 42
       92.46304 92.61031 92.524055 92.518906
000190 66 07 b9 42 8c 3e b9 42 bf 1a b9 42 f3 78 b9 42
       92.51445 92.62216 92.55224 92.73623
0001a0 ad e0 b9 42 ab 0d b9 42 0b f5 b8 42 ae ab b9 42
       92.93882 92.526695 92.4786 92.83531
0001b0 5d 98 b9 42 28 67 b9 42 85 61 b9 42 5f 5f b9 42
       92.797585 92.70148 92.69047 92.68627
0001c0 f6 69 b9 42 c4 73 b9 42 65 d6 b9 42 23 b6 b9 42
       92.706955 92.726105 92.91874 92.855736
0001d0 62 5a b9 42 9c 77 b9 42 05 0b b9 42 19 6d b9 42
       92.67653 92.73361 92.52152 92.71308
0001e0 4f 86 b9 42 de 35 b9 42 42 7b b9 42 75 95 b9 42
       92.76232 92.60521 92.74074 92.79191
0001f0 52 4e b9 42 1a 14 b9 42 d8 84 b9 42 20 2c b9 42
       92.65297 92.53926 92.75946 92.58618
000200 f9 69 b9 42 b6 6e b9 42 f6 06 b9 42 83 68 b9 42
       92.70698 92.71623 92.513596 92.704124
000210 93 33 b9 42 be 56 ba 42 87 5d b9 42 be 04 b9 42
       92.60073 93.16942 92.68267 92.50926
000220 81 49 b9 42 4f 4c b9 42 8a 0a b9 42 74 54 b9 42
       92.64356 92.64904 92.520584 92.66495
000230 9e af b9 42 5c 6a b9 42 8e f0 b9 42 b3 94 b9 42
       92.843 92.70773 92.96983 92.79043
000240 cd ad b9 42 0e 4d b9 42 93 62 b9 42 89 b6 b9 42
       92.839455 92.6505 92.69253 92.856514
000250 02 02 b9 42 89 24 b9 42 c9 00 b9 42 c7 09 b9 42
       92.50392 92.57136 92.50153 92.5191
000260 18 15 ba 42 b2 8a b9 42 f7 3c b9 42 ad a1 b9 42
       93.0412 92.77089 92.61907 92.81577
000270 29 1c b9 42 db 27 b9 42 51 ba b9 42 5e 83 b9 42
       92.555 92.57784 92.8639 92.75658
000280 53 22 b9 42 91 3a b9 42 e8 ae b9 42 a7 24 b9 42
       92.56704 92.61439 92.84161 92.57159
000290 e7 39 b9 42 af ff b8 42 fb 8c b9 42 b5 23 b9 42
       92.61309 92.49938 92.77535 92.56974
0002a0 4b 77 b9 42 b5 a1 b9 42 d8 78 b9 42 5f 21 ba 42
       92.732994 92.815834 92.73602 93.06518
0002b0 e5 45 b9 42 c6 b2 b9 42 65 58 b9 42 6c 90 b9 42
       92.63651 92.84917 92.672646 92.782074
0002c0 82 83 b9 42 a1 b2 b9 42 57 b0 b9 42 c0 1b b9 42
       92.75685 92.848885 92.84441 92.5542
0002d0 44 38 ba 42 4b 03 b9 42 2e 82 b9 42 31 19 b9 42
       93.10989 92.50643 92.75426 92.5492
0002e0 a2 18 b9 42 7b 4b b9 42 11 5a b9 42 1b 50 b9 42
       92.54811 92.64742 92.67591 92.656456
0002f0 f9 b4 b9 42 57 2f b9 42 8b 05 ba 42 bf a2 b9 42
       92.85346 92.59246 93.010826 92.81786
000300 82 a3 b9 42 1a 8d b9 42 b1 65 b9 42 1a 0d b9 42
       92.81935 92.77559 92.698616 92.52559
000310 02 90 b9 42 74 53 b9 42 9d 5a b9 42 cd 99 b9 42
       92.781265 92.662994 92.67698 92.80039
000320 fd 86 b9 42 85 29 b9 42 f8 a1 b9 42 ff ea b8 42
       92.76365 92.58109 92.816345 92.45898
000330 79 68 b9 42 71 eb b8 42 79 cd b8 42 4d 74 b9 42
       92.70405 92.45985 92.40131 92.72715
000340 ca 41 b9 42 fa 5a ba 42 f0 ae b9 c2 6d f1 b8 42
       92.628494 93.17769 -92.841675 92.471535
000350 ef 4c b9 42 ce d6 b7 42 1b 7b b9 42 b8 c8 ba c2
       92.65026 91.91954 92.74044 -93.39203
000360 7f 4a b9 42 1f de b8 42 e7 90 ba 42 0e 5f b9 c2
       92.6455 92.43383 93.28301 -92.68565
000370 05 f6 b8 42 d5 59 b9 42 b7 a5 b9 42 10 99 b9 42
       92.48051 92.67545 92.82366 92.79895
000380 7d 93 b9 42 2d 73 b9 42 e4 1c 58 42 61 a9 b9 42
       92.78806 92.72495 54.028214 92.83082
000390 0e d9 b9 42 0f 5e b9 42 f4 2b b9 42 f3 81 b9 42
       92.923935 92.68371 92.585846 92.75381
0003a0 00 50 b9 42 28 59 b9 42 e3 fe b8 42 a7 3f b9 42
       92.65625 92.67413 92.497826 92.62432
0003b0 32 53 b9 42 b8 a9 b9 42 92 37 b9 42 39 7b b9 42
       92.66249 92.83148 92.608536 92.74067
0003c0 72 b4 b9 42 a3 87 b9 42 20 1f b9 42 27 80 b9 42
       92.85243 92.764915 92.56079 92.7503
0003d0 04 18 b9 42 02 8e b9 42 87 c3 b9 42 07 8a ba 42
       92.546906 92.77736 92.88189 93.269585
0003e0 a5 90 b9 42 b0 77 b9 42 ee 7b b9 42 6e 38 b9 42
       92.78251 92.733765 92.74205 92.610214
0003f0 27 68 b9 42 5e 84 b9 42 a8 f9 b8 42 dd 01 b9 42
       92.70342 92.75853 92.48761 92.50364

key_encoder.encoder.weight_hh_l0 f4 [104, 26]
000000 00 1f b9 c2 52 60 b9 c2 b4 1d b9 c2 a8 4c b9 c2
       -92.56055 -92.688126 -92.558014 -92.64972
000010 31 5f b9 c2 45 19 b9 42 f7 29 b9 c2 14 03 b9 c2
       -92.68592 92.549355 -92.58196 -92.50601
000020 43 fd b8 c2 9a 40 b9 c2 3d 9e b9 c2 22 b0 b9 c2
       -92.49465 -92.626175 -92.80906 -92.84401
000030 7c 9b b9 c2 e4 5f b9 c2 1f 5d b9 c2 fa 5d b9 42
       -92.80368 -92.68729 -92.68188 92.68355
000040 7e 66 b9 c2 b2 22 b9 c2 1c 98 b9 c2 ae 1d b9 42
       -92.70018 -92.567764 -92.79709 92.55797
000050 91 06 b9 c2 54 9b b9 42 fa 87 b9 c2 1e 62 b9 42
       -92.512825 92.803375 -92.76558 92.691635
000060 03 a0 b9 c2 b1 4a b9 c2 37 aa b9 c2 56 be b9 c2
       -92.81252 -92.64588 -92.83245 -92.87175
000070 68 1c b9 c2 c4 1c b9 c2 3c a5 b9 c2 03 a6 b9 42
       -92.55548 -92.55618 -92.82272 92.82424
000080 c4 46 b9 c2 5f 9e b9 c2 08 07 ba c2 ab b9 b9 c2
       -92.638214 -92.80932 -93.01373 -92.86263
000090 f3 37 b9 c2 20 d5 b9 c2 2c 51 b9 c2 e8 c7 b9 c2
       -92.609276 -92.91626 -92.65854 -92.89044
0000a0 d9 ae b9 c2 18 b5 b9 42 29 c3 b9 c2 ea 84 b9 c2
       -92.8415 92.8537 -92.88117 -92.7596
0000b0 82 27 b9 c2 ba 6b b9 42 e9 8b b9 c2 fa bd b9 42
       -92.57716 92.7104 -92.77326 92.87105
0000c0 d4 48 b9 42 36 3f b9 42 71 6c b9 c2 67 5b b9 c2
       92.64224 92.62346 -92.7118 -92.67852
0000d0 27 0a b9 c2 17 30 b9 c2 8a 65 b9 c2 cd 18 b9 c2
       -92.51983 -92.593925 -92.69832 -92.54844
0000e0 e7 12 b9 c2 bf 0d b9 42 2a 2a b9 c2 75 ad b9 c2
       -92.53692 92.52685 -92.58235 -92.83878
0000f0 cf 6a b9 c2 7f 5f b9 c2 38 51 b9 c2 47 0b b9 c2
       -92.70861 -92.686516 -92.65863 -92.522026
000100 f4 70 b9 c2 84 6f b9 c2 40 28 b9 c2 07 34 b9 42
       -92.72061 -92.717804 -92.57861 92.601616
000110 29 1a b9 c2 c3 17 b9 c2 02 01 b9 c2 59 88 b9 42
       -92.551094 -92.54641 -92.50197 92.766304
000120 25 24 b9 c2 a4 12 b9 42 dd 1a b9 c2 81 53 b9 42
       -92.570595 92.53641 -92.55247 92.66309
000130 fc 9e b9 c2 36 19 b9 c2 1e ae b9 c2 8d 5f b9 c2
       -92.81052 -92.54924 -92.84007 -92.68662
000140 9a 3c b9 c2 0b 15 b9 c2 df b5 b9 c2 7d ba b9 42
       -92.61836 -92.5411 -92.85522 92.864235
000150 90 1c b9 c2 a3 64 b9 c2 7d 1b b9 c2 f0 37 b9 c2
       -92.555786 -92.696556 -92.55369 -92.60925
000160 6b 4b b9 c2 b4 50 b9 c2 cc 99 b9 c2 3a 1e b9 c2
       -92.6473 -92.65762 -92.800385 -92.55904
000170 90 75 b9 c2 e7 01 b9 42 b5 fa b8 c2 17 51 b9 c2
       -92.729614 92.503716 -92.48966 -92.65838
000180 05 88 b9 c2 ff 1d b9 42 33 af b9 c2 bc 78 b9 42
       -92.76566 92.558586 -92.842186 92.73581
000190 75 8b b9 c2 db 60 b9 42 34 32 b9 c2 00 07 b9 c2
       -92.77238 92.68917 -92.59805 -92.51367
0001a0 01 5d b9 c2 97 2c b9 c2 53 01 b9 c2 59 9e b9 c2
       -92.68165 -92.58709 -92.50259 -92.80927
0001b0 b4 7a b9 c2 0c 56 b9 42 3b ae b9 c2 8a 20 b9 c2
       -92.739655 92.66806 -92.840294 -92.56355
0001c0 69 36 b9 c2 1d 15 b9 c2 e1 4f b9 c2 6a 69 b9 c2
       -92.60627 -92.54124 -92.65601 -92.70589
0001d0 b5 59 b9 c2 91 36 b9 c2 dc 56 b9 c2 b4 4f b9 42
       -92.67521 -92.606575 -92.66965 92.65567
0001e0 ff 24 b9 c2 af 12 b9 c2 bc a2 b9 c2 9b 2c b9 42
       -92.57226 -92.53649 -92.81784 92.58712
0001f0 0c f3 b8 c2 8a a5 b9 42 18 e6 b8 c2 a0 4b b9 42
       -92.4747 92.82332 -92.4494 92.647705
000200 a7 08 b9 c2 98 22 b9 c2 71 bf b9 c2 63 1d b9 c2
       -92.5169 -92.567566 -92.87391 -92.557396
000210 d8 54 b9 c2 b3 0e b9 c2 f6 58 b9 c2 d7 21 b9 42
       -92.66571 -92.52871 -92.67375 92.56609
000220 25 5a b9 c2 8a 45 b9 c2 2e b7 b9 c2 9d 70 b9 c2
       -92.67606 -92.63582 -92.85777 -92.71995
000230 e1 30 b9 c2 88 5e b9 c2 a3 96 b9 c2 30 ff b8 c2
       -92.59547 -92.68463 -92.79421 -92.49841
000240 a0 16 b9 c2 ac 27 b9 42 06 7a b9 c2 38 2f b9 c2
       -92.54419 92.577484 -92.73833 -92.592224
000250 76 a6 b9 c2 69 4c b9 42 a1 2f b9 c2 7b b9 b9 42
       -92.82512 92.64924 -92.593025 92.86227
000260 f1 4c b9 c2 d4 bc b9 42 7b 3d b9 c2 e0 43 b9 c2
       -92.650276 92.868805 -92.62008 -92.63257
000270 90 ba b9 c2 fd 03 b9 c2 79 07 b9 c2 6f 28 b9 c2
       -92.86438 -92.50779 -92.514595 -92.57897
000280 e7 2c b9 c2 b1 8d b9 42 72 c2 b9 c2 90 b9 b9 c2
       -92.5877 92.77674 -92.879776 -92.86243
000290 f7 7a b9 c2 73 25 b9 c2 f2 79 b9 c2 2a 1c b9 c2
       -92.740166 -92.57314 -92.738174 -92.55501
0002a0 05 28 b9 c2 7e 27 b9 c2 c5 7d b9 c2 27 86 b9 42
       -92.57816 -92.57713 -92.74564 92.76202
0002b0 1a b9 b9 c2 ee 5a b9 c2 a6 a1 b9 c2 9e 61 b9 42
       -92.86153 -92.6776 -92.81572 92.69066
0002c0 1c 58 b9 c2 a3 b0 b9 42 d8 81 b9 c2 c8 6c b9 42
       -92.67209 92.84499 -92.7536 92.71246
0002d0 96 fa b8 c2 52 16 b9 c2 4a 0f b9 c2 67 90 b9 c2
       -92.489426 -92.543594 -92.52986 -92.782036
0002e0 68 89 b9 c2 57 d1 b9 c2 55 d0 b9 c2 ab 8d b9 42
       -92.76837 -92.90887 -92.9069 92.776695
0002f0 9e 3a b9 c2 a3 5b b9 c2 1b 3e ba c2 4e e0 b9 c2
       -92.61449 -92.67898 -93.1213 -92.938095
000300 cf 2d b9 c2 45 71 b9 c2 1e f8 b9 c2 b2 bc b9 c2
       -92.58947 -92.72123 -92.984604 -92.868546
000310 81 d9 b9 c2 6e 66 b9 42 d1 4a b9 c2 bb dd b9 c2
       -92.92481 92.70006 -92.646126 -92.93307
000320 04 2b b9 c2 15 f7 b9 42 d0 d7 b9 c2 ba 67 b9 42
       -92.584015 92.98258 -92.92151 92.70259
000330 85 1d b9 42 95 ce b9 42 19 81 b9 c2 ae 5d b9 c2
       92.557655 92.90348 -92.752144 -92.68297
000340 ba 1d b9 c2 ad 80 b9 c2 2b b3 b9 c2 3c 66 b9 c2
       -92.55806 -92.75132 -92.84994 -92.69968
000350 39 b2 b9 c2 66 76 b9 42 86 37 b9 c2 51 bd b9 c2
       -92.84809 92.73125 -92.608444 -92.86976
000360 16 30 ba c2 2e 54 b9 c2 98 38 b9 c2 20 75 b9 c2
       -93.09392 -92.66441 -92.610535 -92.72876
000370 66 fc b9 c2 75 28 b9 c2 3d 2e b9 c2 17 9f b9 42
       -92.992966 -92.57902 -92.59031 92.81072
000380 47 66 b9 c2 a9 90 b9 c2 8b b7 b9 c2 00 f8 b9 42
       -92.69976 -92.78254 -92.85848 92.984375
000390 f6 ae b9 c2 50 cf b9 42 d5 fc b8 42 cb 4b b9 42
       -92.84172 92.90491 92.49381 92.64803
0003a0 01 fc b9 c2 36 97 b9 c2 2a 88 b9 c2 f6 d1 b9 c2
       -92.992195 -92.795334 -92.765945 -92.91008
0003b0 09 9a b9 c2 44 6d b9 c2 67 a6 b9 c2 65 f0 b9 42
       -92.80085 -92.71341 -92.825005 92.96952
0003c0 55 9d b9 c2 35 ea b9 c2 ab c4 b9 c2 3f 87 b9 c2
       -92.80729 -92.957436 -92.88412 -92.76415
0003d0 3f 20 b9 c2 2d 93 b9 c2 38 91 b9 c2 ff 89 b9 c2
       -92.56298 -92.78745 -92.78363 -92.76952
0003e0 70 a5 b9 c2 70 7a b9 42 23 e8 b9 c2 c8 a3 b9 c2
       -92.82312 92.739136 -92.95339 -92.819885
0003f0 f9 a1 b9 c2 fe 71 b9 42 73 a8 b9 c2 6f b1 b9 42
       -92.81635 92.72264 -92.829 92.84655

key_encoder.encoder.bias_ih_l0 f4 [104]
000000 23 b1 b9 42 a9 94 ba 42 0d da b9 42 0b 8e b9 42
       92.84597 93.29035 92.92588 92.77743
000010 6a 88 b9 42 ef 4d ba 42 55 c5 b9 42 45 40 bb 42
       92.76643 93.152214 92.885414 93.62553
000020 9b 75 bb 42 4b 4b bb 42 00 b4 ba 42 25 54 bb 42
       93.7297 93.64706 93.35156 93.664345
000030 72 20 bb 42 94 51 ba 42 e8 d6 b9 42 ba d2 b8 42
       93.56337 93.15933 92.91974 92.411575
000040 01 a3 ba 42 7d ef ba 42 92 95 ba 42 c0 e7 ba 42
       93.31837 93.46775 93.29213 93.45264
000050 3d 77 bb 42 94 35 ba 42 73 a9 b9 42 ac c2 b9 42
       93.73289 93.104645 92.830956 92.88022
000060 43 49 bb 42 3c d3 b9 42 ef 17 b9 42 fc bf b9 42
       93.64309 92.91257 92.546745 92.87497
000070 3c 52 b9 42 a7 15 b9 42 30 a1 b9 42 3b 5e b9 42
       92.660614 92.54229 92.81482 92.684044
000080 02 4a b9 42 b6 7a ba 42 00 db ba 42 76 3e ba 42
       92.64455 93.23967 93.427734 93.121994
000090 b8 7f b9 42 cf 70 ba 42 c0 51 ba 42 48 28 b9 42
       92.74945 93.22033 93.15967 92.578674
0000a0 3d 16 b9 42 de 2c b9 c2 ab cc b9 42 18 b0 ba 42
       92.543434 -92.58763 92.89974 93.34393
0000b0 c7 ad b9 42 75 63 b9 42 f0 d8 ba 42 ed 46 b9 42
       92.83941 92.69425 93.423706 92.63853
0000c0 1b 38 b9 42 1a 6a b9 42 92 32 ba 42 04 5b b9 42
       92.60958 92.70723 93.09877 92.677765
0000d0 10 37 bb c2 fc 20 bb c2 9e 61 ba c2 28 f4 ba c2
       -93.607544 -93.56442 -93.19066 -93.47687
0000e0 21 00 bb c2 36 bc ba 42 15 23 ba c2 bf 7c bb c2
       -93.50025 93.3676 -93.06852 -93.743645
0000f0 81 b0 bb c2 02 46 bb c2 77 b5 bc c2 08 9a bb c2
       -93.844734 -93.636734 -94.35442 -93.80084
000100 fd 34 bb c2 5c a1 ba c2 67 17 bc c2 0b 5f b9 c2
       -93.60349 -93.315155 -94.04571 -92.68563
000110 9a 7d bb c2 d0 67 bb c2 31 12 bb c2 8d f8 ba 42
       -93.745316 -93.70276 -93.53553 93.48545
000120 17 80 bb c2 c8 bf b9 42 e5 bd b5 c2 a8 3b ba 42
       -93.750175 92.87457 -90.87089 93.116516
000130 2f 36 bb c2 80 56 bb c2 fd e9 b9 42 3f ae ba 42
       -93.60583 -93.668945 92.95701 93.340324
000140 35 1c ba 42 24 e7 b9 42 1a 98 b9 42 19 6c ba 42
       93.05509 92.95145 92.79707 93.21113
000150 65 47 ba 42 cd 66 bb 42 e6 35 bd 42 fc e7 bb 42
       93.13944 93.70078 94.60527 93.953094
000160 b9 cc b9 42 57 05 bc 42 41 8d bb 42 6a 17 ba 42
       92.89985 94.01043 93.77589 93.04573
000170 b0 7f b9 42 1c 35 b9 42 21 94 ba 42 74 32 bc 42
       92.74939 92.60373 93.289314 94.09854
000180 a4 43 ba 42 4b b8 ba 42 ab 6a bc 42 c0 d4 b9 42
       93.13211 93.35995 94.208336 92.91553
000190 71 e5 b9 42 b8 4d ba 42 df b0 bb 42 c8 82 b9 42
       92.94813 93.151794 93.84545 92.75543

key_encoder.encoder.bias_hh_l0 f4 [104]
000000 49 e3 b9 42 df a2 ba 42 1d ca b9 42 c9 bc b9 42
       92.94392 93.31811 92.89475 92.86872
000010 26 8d b9 42 86 65 ba 42 c8 c2 b9 42 8b e5 ba 42
       92.77568 93.19829 92.88043 93.448326
000020 f3 86 bb 42 ba 68 bb 42 3b 98 ba 42 93 e6 bb 42
       93.76357 93.704544 93.297325 93.95034
000030 35 13 bb 42 ef f3 b9 42 d4 86 ba 42 be b5 b8 42
       93.53751 92.97643 93.263336 92.354965
000040 2c 07 bb 42 62 c5 ba 42 4f bc ba 42 60 ab ba 42
       93.51401 93.38551 93.36779 93.33472
000050 f6 fa ba 42 42 50 ba 42 45 ac b9 42 92 31 ba 42
       93.49016 93.15675 92.836464 93.09682
000060 e7 ee ba 42 94 12 ba 42 61 6f b9 42 5d 86 b9 42
       93.466606 93.036285 92.71754 92.76243
000070 9f 61 b9 42 d8 ff b8 42 86 1c b9 42 e0 7c b9 42
       92.69067 92.499695 92.55571 92.7439
000080 3d 2a b9 42 ad 43 ba 42 24 e0 ba 42 6f 8d ba 42
       92.5825 93.13218 93.437775 93.27624
000090 da 89 b9 42 36 de ba 42 a4 2b ba 42 72 22 b9 42
       92.76924 93.434006 93.085236 92.567276
0000a0 87 99 b9 42 de 61 b9 c2 b4 35 ba 42 e9 a2 ba 42
       92.79986 -92.69115 93.10489 93.318184
0000b0 7c 2b b9 42 a4 e3 b9 42 f6 62 ba 42 c2 60 b9 42
       92.58493 92.94461 93.19328 92.68898
0000c0 27 46 b9 42 1f 87 b9 42 cc bb ba 42 b3 0a b9 42
       92.63702 92.76391 93.36679 92.5209
0000d0 70 27 bb c2 8a 88 bb c2 86 c0 ba c2 93 aa bb c2
       -93.57703 -93.76668 -93.37602 -93.83315
0000e0 e7 7e ba c2 43 93 ba 42 18 ac b9 c2 2f 4e bb c2
       -93.247856 93.28762 -92.83612 -93.6527
0000f0 ab 81 bb c2 e7 e2 ba c2 81 21 bc c2 7c 9b bb c2
       -93.75326 -93.44317 -94.06544 -93.80368
000100 df 61 bb c2 a5 fb b9 c2 2f 6d bb c2 d6 3e b9 c2
       -93.691154 -92.99149 -93.71325 -92.62273
000110 a1 70 bb c2 cf 0b bb c2 d3 74 bb c2 c6 08 bb 42
       -93.71998 -93.52306 -93.72817 93.517136
000120 1d 6c bb c2 a8 10 ba 42 41 19 b5 c2 8f 36 ba 42
       -93.71116 93.03253 -90.549324 93.10656
000130 1c 67 bb c2 af 44 bb c2 f1 8e b9 42 a8 02 ba 42
       -93.701385 -93.63415 92.77918 93.00519
000140 d4 c5 b9 42 72 f6 b9 42 72 aa b9 42 50 47 ba 42
       92.88638 92.98134 92.8329 93.13928
000150 27 d0 b9 42 16 14 bb 42 ab e7 bc 42 be c6 bb 42
       92.90655 93.53923 94.45248 93.88817
000160 55 74 b9 42 34 24 bc 42 69 4a bb 42 24 03 ba 42
       92.72721 94.07071 93.64533 93.006134
000170 92 2c ba 42 38 fe b8 42 10 98 ba 42 2d 6c bc 42
       93.08705 92.49652 93.297 94.21128
000180 cc b1 b9 42 ce b0 ba 42 cc 8f bc 42 2e 05 ba 42
       92.84726 93.34532 94.28085 93.01012
000190 f7 d7 b9 42 e9 e0 b9 42 29 fc bb 42 8c 77 b9 42
       92.92181 92.93928 93.9925 92.73349

atten_layer.0.weight f4 [56, 168]
000000 1c af fa 3c c3 4e 97 3d 81 3a 9b 3d 1a 16 3a 3d
       0.030601077 0.073880695 0.07579518 0.045431234
000010 a0 2d be 3b 00 99 ca 3c b6 81 16 bd 04 37 91 3c
       0.005803779 0.02473116 -0.036744796 0.017726429
000020 58 5c fa 3c ec d4 1c bd 88 94 61 3c a0 6f 6c 3b
       0.030561611 -0.038288996 0.013768323 0.0036077276
000030 75 5f 8d bd c2 3f 68 3d fa e5 67 3d 60 72 08 3c
       -0.069029726 0.05670143 0.056615807 0.00832805
000040 20 1d 14 bb 54 bf 8d bc 0b 72 92 3d 6a 80 49 bd
       -0.0022600368 -0.017303146 0.07150658 -0.04919473
000050 a8 03 1b 3c eb cd 17 bd d0 56 79 3c 20 85 01 3b
       0.009461321 -0.037061613 0.015218452 0.0019763187
000060 a4 3b 90 bd 62 14 01 3d e4 0b 71 bd c0 8a e9 3a
       -0.070426255 0.03151358 -0.05884923 0.001781784
000070 08 f5 bd 3c a4 b1 b7 3c 90 45 cc 3c 40 fc ba bb
       0.023188129 0.022423573 0.024935514 -0.00570634
000080 e9 fd 83 3d b6 5c 1c bd ca 0e 08 bd 1a fc 48 3d
       0.06444914 -0.038174354 -0.03321723 0.049068548
000090 fb 83 8e 3d 84 fc b4 3c 6c 9d 3f bd 72 3a 7a 3d
       0.06958767 0.022093065 -0.04678099 0.061090894
0000a0 b9 cd 85 3d 34 a3 56 bd 59 6d 91 3d d4 97 bd 3c
       0.06533379 -0.052401736 0.071009345 0.023143686
0000b0 00 80 5b b9 58 d2 cc 3c 58 9b 2f 3d 83 9d 81 3d
       -0.00020933151 0.025002643 0.042872757 0.06328871
0000c0 18 6f 74 3c a0 00 42 3c 2c 1a 6a bd f6 9c 13 3d
       0.014919065 0.011840969 -0.057153866 0.03603836
0000d0 66 94 07 bd a0 7c 8b 3b 24 e7 3d bd d0 92 db 3b
       -0.03310051 0.0042568 -0.04636301 0.006700851
0000e0 f2 7b 7d 3d e0 0c f0 bc c0 60 95 3a 90 e8 09 3d
       0.06188578 -0.029303014 0.0011396632 0.033669055
0000f0 eb 62 79 bd 87 3f 80 3d 27 50 8e 3d 36 ec ad bc
       -0.06088535 0.06262117 0.069488816 -0.021230798
000100 35 1d 9c 3d 87 eb 1c bd 80 69 11 3c f7 17 85 3d
       0.07622758 -0.038310554 0.008875251 0.064987116
000110 db 77 39 bd 22 c0 83 bc c5 bf 9a 3d fc a1 db bc
       -0.04528032 -0.016082827 0.075561084 -0.026810639
000120 24 b9 51 bd d0 4e aa 3b 2c 8a 75 bd ea c1 cf bc
       -0.051201954 0.0051973835 -0.059946224 -0.02536102
000130 40 d0 c3 3a 08 47 73 bd e0 2a a7 bc 52 ea 3b 3d
       0.0014939383 -0.059393913 -0.020406187 0.045877762
000140 d6 01 7f 3d 0b a0 6f bd 20 ac 3b 3d e6 03 28 3d
       0.06225761 -0.05850224 0.045818448 0.041019343
000150 60 55 5e bc e8 95 75 bc cb e8 98 3d e4 e7 33 3d
       -0.01357016 -0.014989354 0.07466277 0.04392232
000160 9e d4 4d 3d 00 14 bb 3a 26 16 62 bd 00 b4 02 3d
       0.050251596 0.0014272928 -0.055196904 0.031909943
000170 60 0b f5 3c e0 f3 d3 bb d0 c1 4f bc d0 50 45 3c
       0.02991265 -0.006468281 -0.012680486 0.012043193
000180 1c 92 37 bd c6 a4 23 bd fe 80 33 3d 66 49 2b bd
       -0.044817075 -0.039952062 0.04382419 -0.041818045
000190 64 d8 30 3d 4e 3b 6a 3d 06 51 14 3d 00 07 a6 3b
       0.043175116 0.057185464 0.036210082 0.0050667524
0001a0 c8 76 b7 bc 36 6f 7e 3d 65 a1 8d 3d 2e 5a 4a 3d
       -0.022395507 0.062117778 0.06915549 0.04940241
0001b0 00 d5 3a 3c b6 c9 da bc 84 16 f6 3c 88 e2 ee bc
       0.011403322 -0.026707511 0.030040033 -0.029160753
0001c0 e6 27 b9 42 d1 3c b9 c2 68 52 b9 42 8c 2b b9 c2
       92.57793 -92.61878 92.66095 -92.58505
0001d0 ae 33 b9 c2 58 50 b9 42 bb 3c b9 c2 6e 5e b9 c2
       -92.60094 92.65692 -92.618614 -92.68443
0001e0 b1 31 b9 42 b6 58 b9 42 ae 38 b9 42 99 54 b9 42
       92.59705 92.67326 92.6107 92.66523
0001f0 aa 4a b9 c2 a2 37 b9 42 e8 12 b9 42 b5 42 b9 c2
       -92.64583 92.60866 92.53693 -92.63029
000200 85 53 b9 42 d7 13 b9 42 9e 28 b9 c2 4a 0e b9 42
       92.663124 92.53875 -92.57933 92.52791
000210 ad 51 b9 42 5d 46 b9 c2 95 29 b9 c2 da 40 b9 42
       92.65952 -92.63743 -92.581215 92.62666
000220 da 26 b9 42 9f 2a b9 42 1d 43 b9 42 95 3b b9 42
       92.57588 92.583244 92.63108 92.61637
000230 e2 10 b9 42 e4 3f b9 42 67 61 b9 c2 63 72 b9 c2
       92.532974 92.62479 -92.69024 -92.72341
000240 c4 57 b9 c2 08 5e b9 c2 1e 59 b9 c2 56 3b b9 42
       -92.67142 -92.683655 -92.67406 92.61589
000250 2f 40 b9 c2 ac 52 b9 c2 ac b1 b9 c2 6c 91 b9 c2
       -92.62536 -92.66147 -92.847015 -92.78403
000260 3e 73 b9 c2 96 68 b9 c2 7b 77 b9 c2 0d 58 b9 c2
       -92.72508 -92.70427 -92.73336 -92.671974
000270 ce 65 b9 c2 d3 21 b9 c2 8c 4a b9 c2 ed 5a b9 c2
       -92.69884 -92.56606 -92.6456 -92.67759
000280 ca 61 b9 c2 72 33 b9 42 a7 82 b9 c2 f9 3b b9 42
       -92.690994 92.60048 -92.75518 92.617134
000290 50 28 b9 c2 49 3c b9 42 1a 52 b9 c2 a7 2d b9 c2
       -92.578735 92.617744 -92.660355 -92.589165
0002a0 08 70 d5 bc 86 ff 7e 3d ba 31 74 3d 20 05 6e 3b
       -0.026054397 0.062255405 0.059617735 0.0036318973
0002b0 30 a6 bb 3b 6c 28 bd bc 00 fe a7 3a 73 af 9a 3d
       0.005726598 -0.023090564 0.0012816787 0.075529955
0002c0 c0 5d 7b bb 7f 00 81 3d 25 6e 38 bd f0 47 0c bd
       -0.003835544 0.06298923 -0.045026917 -0.034248292
0002d0 b4 7b 0d 3d 96 20 41 3d 44 94 30 3d 8a 49 53 3d
       0.0345418 0.047150217 0.043110147 0.051583804
0002e0 30 be 99 bb 5f b2 36 bd 58 0a 13 bc e2 90 e5 bc
       -0.0046918616 -0.0446037 -0.008974634 -0.028023187
0002f0 fe db 57 3d 5c d0 89 3c 08 77 ce bc 4a d2 3e 3d
       0.052700035 0.016822986 -0.025203243 0.046587266
000300 10 a5 a3 bb de ad 3d 3d cd 4a 81 3d 82 99 71 3d
       -0.004994042 0.04630839 0.06313095 0.058984287
000310 90 45 77 bc 5e 4b 0f bd 8e 7d 0f 3d 33 fd 84 3d
       -0.015092269 -0.034983985 0.035031848 0.064936064
000320 f8 68 d7 3c 9f 92 8e bd 60 ff 29 bb d6 f2 1e 3d
       0.02629517 -0.069615595 -0.002593957 0.038805805
000330 30 be d8 3b aa eb 24 3d dc 50 d9 bc bb a4 94 3d
       0.006614469 0.04026381 -0.026527815 0.07257982
000340 72 5c 8b bd 4c 2a d4 3c 98 8c 93 bd b4 82 80 bd
       -0.06804742 0.025899075 -0.072045505 -0.0627493
000350 90 7d 18 3c 40 98 99 ba d4 fd f3 bc 6e ea d2 bc
       0.00930728 -0.0011718348 -0.02978412 -0.02574655
000360 fa 23 45 3d 80 ca 8a 3a 32 e6 47 3d 6b 86 81 bd
       0.048130013 0.0010588914 0.048803516 -0.06324466
000370 82 75 95 bd da 20 7c bd 06 64 ca bc fc 7f 89 bd
       -0.072978035 -0.061554767 -0.024705898 -0.06713864
000380 9e 46 3e 3d 88 a6 fd 3c ac b6 8e bd ea a6 56 3d
       0.046454065 0.030963197 -0.06968436 0.052405275
000390 04 26 20 bd 80 75 32 3d 0a 4e 1f 3d 4c 27 e0 bc
       -0.039098755 0.043569088 0.038892783 -0.027362488
0003a0 a0 f9 41 3d d6 dd a7 bc 58 44 6a bd 5b ae 84 3d
       0.0473572 -0.020491522 -0.057194084 0.06478568
0003b0 a0 76 c0 3b 1c 81 e3 3c ba 32 76 3d 98 28 0e 3c
       0.005873516 0.027771525 0.06010697 0.0086766705
0003c0 18 b4 bf 3c 84 33 47 bd 15 78 6b bd a0 21 47 3c
       0.023401305 -0.048633114 -0.057487566 0.012154013
0003d0 ce f3 fb bc ba 14 6a 3d 70 64 37 bd 29 07 8d 3d
       -0.030755904 0.057148673 -0.04477352 0.06886131
0003e0 23 5c 9c bd 3f 62 9b 3d 7e aa 5d 3d 4c 91 27 3d
       -0.07634761 0.07587098 0.054117672 0.04091005
0003f0 b1 5e 97 3d 44 1f bd 3c 40 86 54 3c aa 88 4c 3d
       0.07391108 0.023086198 0.012971461 0.04993502
