Final project/competition/savemodel/best_996.pth (torch_old, 668674 bytes, 63 tensors)

price_encoder.attention.weight f4 [1, 90]
93.23348 -93.30145 93.272064 92.92704 93.282234 93.16024 -93.189415 -93.16699
93.18498 93.326225 -93.438545 93.160576 -93.25689 93.2913 93.19292 -93.27947
93.15678 93.33821 93.29534 -93.36777 93.34958 -93.33759 -93.29399 93.225525
93.34269 93.14106 93.16191 93.20783 93.1641 -93.27677 93.14663 -93.1762
93.16271 -92.91919 93.36355 93.20923 -93.14868 -93.181946 93.20321 93.27607
-93.32352 93.192085 -93.13739 93.17328 93.194435 -93.0856 93.24232 93.16047
93.40172 -93.36474 93.11575 -93.111755 -93.21697 93.26515 93.14031 93.253395
93.2434 93.19845 93.27185 -93.25658 -93.222694 -93.36428 -93.337975 -93.255875
-93.26447 -93.17544 -93.205894 -93.10266 -93.14607 -93.21694 -93.28245 -93.2156
-93.29329 -93.14764 -93.208755 -93.28013 -93.32948 -93.23282 -93.09547 -93.40427
-93.48545 -93.35515 -93.20129 -93.27864 -93.19811 -93.23001 -93.350464 -93.35917
-93.19083 -93.19301
00000000: 8b77 ba42 589a bac2 4c8b ba42 a5da b942
00000010: 8190 ba42 0b52 ba42 fb60 bac2 8055 bac2
00000020: b65e ba42 07a7 ba42 89e0 bac2 3752 ba42
00000030: 8783 bac2 2595 ba42 c662 ba42 178f bac2
00000040: 4550 ba42 2aad ba42 3797 ba42 4cbc bac2
00000050: fcb2 ba42 d9ac bac2 8696 bac2 7873 ba42
00000060: 75af ba42 3948 ba42 e652 ba42 696a ba42
00000070: 0554 ba42 b58d bac2 134b ba42 375a bac2
00000080: 4f53 ba42 a0d6 b9c2 23ba ba42 206b ba42
00000090: 204c bac2 285d bac2 0b68 ba42 598d ba42
000000a0: a4a5 bac2 5962 ba42 5846 bac2 b858 ba42
000000b0: 8d63 ba42 d42b bac2 117c ba42 2952 ba42
000000c0: aecd ba42 bfba bac2 443b ba42 3839 bac2
000000d0: 176f bac2 c287 ba42 d747 ba42 bd81 ba42
000000e0: 9f7c ba42 9b65 ba42 308b ba42 5e83 bac2
000000f0: 0572 bac2 83ba bac2 0bad bac2 0283 bac2
00000100: 6987 bac2 d359 bac2 6b69 bac2 9034 bac2
00000110: ca4a bac2 136f bac2 9d90 bac2 636e bac2
00000120: 2a96 bac2 974b bac2 e26a bac2 6d8f bac2
00000130: b2a8 bac2 3477 bac2 e130 bac2 fcce bac2
00000140: 8df8 bac2 d6b5 bac2 0f67 bac2 aa8e bac2
00000150: 6f65 bac2 c475 bac2 70b3 bac2 e5b7 bac2
00000160: b461 bac2 d262 bac2

price_encoder.encoder.weight_ih_l0 f4 [120, 45]
-0.02793178 0.1659053 0.089111865 -0.10533601 0.039936095 0.12055233 -0.041761532 0.06366204
-0.011075169 0.069458574 -0.13266143 -0.03441298 0.0019231737 -0.117390715 -0.10916938 -0.08162318
0.17701969 -0.097250424 -0.11704612 0.1715846 -0.11743466 -0.090703584 -0.023374781 0.053907037
-0.1259009 0.11685911 -0.002341494 -0.1447586 -0.13288452 -0.07936543 -0.10408088 0.024621636
-0.15256993 6.5516033 93.30488 93.202034 93.327415 93.528145 -0.16858862 93.06439
93.030975 93.217705 93.13853 -0.07702953 0.14633876 -0.087639265 0.14713901 0.098106176
0.016076818 0.08180472 0.17378917 -0.00849463 0.12793487 -0.16095623 0.07286188 -0.13692565
0.17495844 -0.0057578087 0.12833688 -0.0067935437 0.1780172 -0.022323564 -0.1799866 0.12036848
-0.06767259 -0.17381896 0.086512804 -0.1499305 -0.0030415654 -0.080220304 0.0018644184 0.045352727
0.07877207 0.057161212 -0.027959242 -0.043069318 -0.05252628 0.04787472 11.388368 93.505875
93.46242 93.413635 93.48036 0.049079835 93.13313 93.16797 93.10851 93.07864
-0.12076433 -0.052312136 -0.04911323 -0.074447714 -0.09788899 -0.12207773 -0.16502465 -0.075807564
0.14258617 -0.09083863 -0.10512807 -0.040507615 -0.00748387 -0.14982599 0.09543118 0.13661915
0.056603387 -0.13499823 0.14127922 0.10218549 0.14161563 -0.0530577 0.06770086 0.0012703985
-0.160405 0.07557231 -0.06442967 -0.012323514 0.026938453 0.16269457 0.13730204 0.16942424
0.0987131 0.16908619 -0.021376714 1.5958185 93.40473 93.291275 93.23451 93.25608
0.050925076 -93.17991 -93.10905 -93.03816 -92.90769 -0.15714212 0.1776132 0.17508787
-0.09002762 -0.16769372 0.13094664 0.03586474 0.082597524 0.051597625 -0.15537903 -0.14529344
-0.016515613 0.122695655 -0.12479582 0.11078784 0.17374763 -0.0021284223 0.046351746 0.08735749
-0.12531884 0.1775131 -0.120550424 -0.06450698 0.0355293 0.053161576 -0.02132681 0.14098316
0.11206645 -0.15580924 -0.12004362 0.07446739 -0.16503657 -0.16748399 -0.09458407 -0.06176097
-54.967655 -93.508415 -93.61125 -93.633415 -93.63765 0.14568758 -92.97014 -92.93792
-93.02295 -93.120316 -0.07349676 0.030572727 0.15248236 0.10972297 0.05698718 0.04875289
0.10734862 -0.16393048 -0.15306395 0.12068209 -0.056950524 -0.17460313 -0.14710304 0.18235013
-0.12058912 0.007890016 -0.031610355 0.01650323 -0.17160596 -0.035647318 -0.088063784 -0.13107723
-0.18182483 0.033290148 -0.04843411 -0.12368278 0.06135094 0.109292656 -0.054469913 -0.07591993
0.17163575 -0.15462951 -0.13256735 -0.105674624 -0.058312796 -14.252109 93.24073 92.914986
93.197044 92.923195 -0.032874897 -92.98987 -93.09056 -93.062325 -92.99607 0.13303456
0.0070085227 0.13146299 0.13633779 -0.1325457 -0.07732 -0.10483149 -0.10166873 0.063666284
-0.114520386 0.034959048 0.04285772 -0.09563743 0.15928802 -0.08301964 -0.021774992 0.048963293
0.025104672 -0.052761078 0.006186411 -0.09697678 0.13118163 0.08848438 0.06826976 0.17775333
-0.103305146 -0.12755477 0.09963223 -0.17355406 0.08659232 0.13889086 -0.07877074 0.058019727
00000000: 30d1 e4bc 14e3 293e 4880 b63d 68ba d7bd
00000010: 0894 233d 24e4 f63d 240e 2bbd 3e61 823d
00000020: a074 35bc 4c40 8e3d 66d8 07be a0f4 0cbd
00000030: 0013 fc3a 8b6a f0bd 3294 dfbd 0e2a a7bd
00000040: a644 353e 3b2b c7bd e0b5 efbd e0b3 2f3e
00000050: 9581 f0bd cdc2 b9bd 787c bfbc a0cd 5c3d
00000060: 2aec 00be d453 ef3d c073 19bb 993b 14be
00000070: e112 08be 588a a2bd 5b28 d5bd 50b3 c93c
00000080: 4b3b 1cbe bca6 d140 199c ba42 7167 ba42
00000090: a3a7 ba42 690e bb42 7fa2 2cbe f820 ba42
000000a0: dc0f ba42 776f ba42 ed46 ba42 a9c1 9dbd
000000b0: d4d9 153e 377c b3bd 9cab 163e e4eb c83d
000000c0: 88b3 833c 3c89 a73d caf5 313e 102d 0bbc
000000d0: 5c01 033e b6d1 24be 9c38 953d 3d36 0cbe
000000e0: 4e28 333e 00ac bcbb be6a 033e 609c debb
000000f0: 244a 363e e8df b6bc 684e 38be c083 f63d
00000100: ed97 8abd 99fd 31be a02d b13d 6287 19be
00000110: 0055 47bb 8b4a a4bd 805f f43a c8c3 393d
00000120: 4053 a13d e021 6a3d c80a e5bc 7469 30bd
00000130: cc25 57bd 4818 443d c136 3641 0203 bb42
00000140: c2ec ba42 c8d3 ba42 f2f5 ba42 f007 493d
00000150: 2a44 ba42 0056 ba42 8f37 ba42 4428 ba42
00000160: 4a53 f7bd 4045 56bd f42a 49bd 0b78 98bd
00000170: 067a c8bd e403 fabd 39fc 28be ff40 9bbd
00000180: 1c02 123e 9b09 babd 634d d7bd 50eb 25bd
00000190: 403b f5bb fc6b 19be 6c71 c33d e4e5 0b3e
000001a0: f4d8 673d fa3c 0abe 80ab 103e a046 d13d
000001b0: b003 113e 0853 59bd c0a6 8a3d 8083 a63a
000001c0: 3541 24be a8c5 9a3d b4f3 83bd 90e8 49bc
000001d0: 08ae dc3c 6899 263e e898 0c3e 8c7d 2d3e
000001e0: 182a ca3d ee24 2d3e 381e afbc c843 cc3f
000001f0: 39cf ba42 2295 ba42 1278 ba42 1d83 ba42
00000200: d096 503d 1d5c bac2 d537 bac2 8a13 bac2
00000210: bdd0 b9c2 dde9 20be 3ce0 353e 3c4a 333e
00000220: 6760 b8bd e7b7 2bbe e016 063e e8e6 123d
00000230: e428 a93d 0858 533d ae1b 1fbe cec7 14be
00000240: c04b 87bc dc47 fb3d f394 ffbd bce4 e23d
00000250: e6ea 313e 007d 0bbb 54db 3d3d 7ce8 b23d
00000260: 9553 00be fec5 353e 24e3 f6bd 3c1c 84bd
00000270: 2c87 113d f4bf 593d 90b5 aebc e45d 103e
00000280: 1883 e53d 758c 1fbe 6ed9 f5bd 5c82 983d
00000290: 59ff 28be ec80 2bbe 4bb5 c1bd 12f9 7cbd
000002a0: e1de 5bc2 4f04 bbc2 f638 bbc2 4f44 bbc2
000002b0: 7a46 bbc2 202f 153e b6f0 b9c2 37e0 b9c2
000002c0: c00b bac2 9a3d bac2 7885 96bd a873 fa3c
000002d0: 5624 1c3e 70b6 e03d 646b 693d 1cb1 473d
000002e0: 98d9 db3d 64dd 27be ccbc 1cbe 2c28 f73d
000002f0: f444 69bd 2acb 32be 2ea2 16be feb9 3a3e
00000300: 6ef7 f6bd 2045 013c dc79 01bd c831 873c
00000310: 79b9 2fbe ec02 12bd c95a b4bd 1c39 06be
00000320: 4a30 3abe 405b 083d d862 46bd 664d fdbd
00000330: 204b 7b3d d4d4 df3d d81b 5fbd e97b 9bbd
00000340: 48c1 2f3e 3357 1ebe bcbf 07be f06b d8bd
00000350: 66d9 6ebd a308 64c1 417b ba42 79d4 b942
00000360: e364 ba42 add8 b942 d4a7 06bd d0fa b9c2
00000370: 5e2e bac2 e91f bac2 fdfd b9c2 363a 083e
00000380: c0a7 e53b 3c9e 063e 229c 0b3e 0fba 07be
00000390: f359 9ebd e4b1 d6bd b237 d0bd 7863 823d
000003a0: aa89 eabd 3831 0f3d 948b 2f3d 8fdd c3bd
000003b0: 661c 233e 3306 aabd 7861 b2bc bc8d 483d
000003c0: 50a8 cd3c 001c 58bd 60b7 ca3b c39b c6bd
000003d0: 7a54 063e 4c37 b53d 04d1 8b3d f804 363e
000003e0: a691 d3bd b89d 02be fc0b cc3d 28b8 31be
000003f0: 5057 b13d 6839 0e3e 8e52 a1bd 18a6 6d3d

price_encoder.encoder.weight_hh_l0 f4 [120, 30]
-93.17603 93.09927 -93.089386 -93.15613 -93.2041 -93.17759 93.0682 93.25991
-93.23235 -93.32928 93.07522 -93.30539 93.17605 -93.323456 -93.328 93.195946
-93.128494 -93.22562 -93.16781 93.31426 -93.024376 93.20986 93.21245 -93.18699
-93.21387 -93.20768 -93.33955 -93.147675 -93.06128 93.25154 -93.283554 93.18429
-93.019554 -93.00179 -93.04516 -93.19733 93.24016 93.43932 -93.13113 -93.30272
92.957886 -93.14872 93.11207 -93.374954 -93.26056 93.245926 -93.31754 -93.27951
-93.31015 93.259415 -93.03811 93.0357 93.100945 -93.30784 -93.184586 -93.40558
-93.035965 -93.09447 -93.13602 -93.16871 -93.37909 93.05973 -93.074165 92.95029
-93.291435 -93.12762 93.390366 93.198235 -93.09871 -93.24768 93.207855 -93.186226
93.08229 -93.32448 -93.26511 93.201355 -93.41829 -93.04534 -93.32801 93.051025
-93.030426 93.10809 93.26427 -93.26681 -93.363884 -93.18437 -93.37405 -93.3971
-92.98067 93.204704 93.0946 -93.306404 -93.26139 93.26683 93.22469 93.427025
-93.32142 -93.23754 93.30765 -92.12558 -93.098305 93.08995 -93.17924 93.21157
-93.17904 -93.223434 93.1945 93.30968 -93.08173 -93.22264 92.948746 -93.32044
-93.16582 92.98932 93.2592 93.04506 93.21211 93.23846 -92.916405 93.03958
-93.30096 93.18425 -93.06803 93.05163 -92.939896 -93.14174 93.28768 93.27524
-93.31879 -92.99423 93.14751 -93.307655 93.27047 -93.0421 -92.99734 93.14098
-93.2748 -93.068794 -93.29122 93.11561 -93.04425 93.096016 93.14949 -92.97689
-93.094666 -93.24195 -93.29039 -93.05499 -92.98188 93.137856 -93.24081 93.36004
-93.15031 -93.03118 -93.14199 -93.302284 93.29377 93.50929 -93.37238 -93.12123
93.06357 -93.472145 93.15589 -93.257965 -93.02063 93.171585 -93.163086 -93.33398
-92.99021 93.30985 -93.00678 93.06935 93.27688 -93.1543 -93.387344 -93.13031
-93.1109 -93.35609 -93.11657 -92.98878 -93.28001 93.1016 -93.32808 -93.0872
-93.17471 -93.23449 93.21109 93.18857 -93.06352 -93.21378 93.25078 -93.14319
93.048355 -93.1775 -92.99457 93.15763 -93.36389 -93.217575 92.96804 93.20669
-93.34495 93.179115 93.362495 -93.31782 -93.24235 -93.30035 -93.276306 -93.16011
-92.93533 -92.998055 -93.10238 93.16988 -93.10799 -93.15565 -93.19537 -93.36825
93.33068 93.16474 -93.10151 -93.194115 93.171196 -93.23819 92.99943 -93.30013
-93.306404 93.32702 -93.24829 -93.28672 93.01366 93.07025 -93.00109 93.34707
93.27379 -93.22486 -93.209946 -93.33429 -93.34196 -93.15399 -92.64581 -93.03886
-93.098015 93.100845 -93.05523 -93.1642 -93.11512 -93.31907 93.27924 93.36223
-93.120636 -93.177185 93.14764 -93.46442 93.246124 -93.29632 -93.239624 93.37839
00000000: 215a bac2 d432 ba42 c42d bac2 f04f bac2
00000010: 8068 bac2 ed5a bac2 eb22 ba42 1385 ba42
00000020: f776 bac2 97a8 bac2 8326 ba42 5c9c bac2
00000030: 235a ba42 9ca5 bac2 f0a7 bac2 5364 ba42
00000040: ca41 bac2 8473 bac2 eb55 bac2 e7a0 ba42
00000050: 7b0c bac2 736b ba42 c66c ba42 bd5f bac2
00000060: 806d bac2 556a bac2 d9ad bac2 9c4b bac2
00000070: 601f bac2 ca80 ba42 2e91 bac2 5b5e ba42
00000080: 030a bac2 eb00 bac2 1f17 bac2 0865 bac2
00000090: f67a ba42 efe0 ba42 2343 bac2 fe9a bac2
000000a0: 70ea b942 254c bac2 6139 ba42 fabf bac2
000000b0: 6885 bac2 ea7d ba42 95a2 bac2 1c8f bac2
000000c0: cc9e bac2 d284 ba42 8313 bac2 4712 ba42
000000d0: af33 ba42 9d9d bac2 825e bac2 a8cf bac2
000000e0: 6a12 bac2 5e30 bac2 a445 bac2 6156 bac2
000000f0: 18c2 bac2 951e ba42 f925 bac2 8ce6 b942
00000100: 3795 bac2 5741 bac2 dec7 ba42 7f65 ba42
00000110: 8a32 bac2 d07e bac2 6c6a ba42 595f bac2
00000120: 222a ba42 22a6 bac2 bc87 bac2 1867 ba42
00000130: 2ad6 bac2 3717 bac2 f1a7 bac2 201a ba42
00000140: 940f bac2 5837 ba42 4e87 ba42 9b88 bac2
00000150: 4fba bac2 665e bac2 83bf bac2 51cb bac2
00000160: 1af6 b9c2 cf68 ba42 6f30 ba42 e19c bac2
00000170: d585 bac2 9e88 ba42 0b73 ba42 a3da ba42
00000180: 91a4 bac2 9f79 bac2 849d ba42 4c40 b8c2
00000190: 5532 bac2 0e2e ba42 c55b bac2 536c ba42
000001a0: ab5b bac2 6672 bac2 9663 ba42 8e9e ba42
000001b0: d929 bac2 fe71 bac2 c2e5 b942 11a4 bac2
000001c0: e654 bac2 88fa b942 b684 ba42 1217 ba42
000001d0: 9a6c ba42 177a ba42 33d5 b9c2 4414 ba42
000001e0: 179a bac2 565e ba42 d522 bac2 6f1a ba42
000001f0: 3ae1 b9c2 9248 bac2 4b93 ba42 ec8c ba42
00000200: 38a3 bac2 0cfd b9c2 864b ba42 859d bac2
00000210: 7b8a ba42 8e15 bac2 a3fe b9c2 2f48 ba42
00000220: b38c bac2 3923 bac2 1b95 bac2 313b ba42
00000230: a816 bac2 2931 ba42 8a4c ba42 2bf4 b9c2
00000240: 7830 bac2 e17b bac2 ae94 bac2 281c bac2
00000250: b9f6 b9c2 9546 ba42 4b7b bac2 57b8 ba42
00000260: f54c bac2 f70f bac2 b348 bac2 c59a bac2
00000270: 6996 ba42 c204 bb42 a9be bac2 123e bac2
00000280: 8c20 ba42 bdf1 bac2 d14f ba42 1484 bac2
00000290: 900a bac2 da57 ba42 8053 bac2 ffaa bac2
000002a0: fdfa b9c2 a59e ba42 7903 bac2 8223 ba42
000002b0: c38d ba42 004f bac2 52c6 bac2 b842 bac2
000002c0: c838 bac2 51b6 bac2 af3b bac2 41fa b9c2
000002d0: 5d8f bac2 0534 ba42 faa7 bac2 a52c bac2
000002e0: 7459 bac2 0f78 bac2 146c ba42 8c60 ba42
000002f0: 8620 bac2 756d bac2 6680 ba42 5049 bac2
00000300: c218 ba42 e15a bac2 38fd b9c2 b550 ba42
00000310: 50ba bac2 666f bac2 a3ef b942 d369 ba42
00000320: 9db0 bac2 b55b ba42 99b9 ba42 b9a2 bac2
00000330: 157c bac2 c799 bac2 788d bac2 fa51 bac2
00000340: e4de b9c2 01ff b9c2 6b34 bac2 fb56 ba42
00000350: 4a37 bac2 b14f bac2 0864 bac2 8bbc bac2
00000360: 4fa9 ba42 5954 ba42 f933 bac2 6363 bac2
00000370: a757 ba42 f479 bac2 b5ff b942 ab99 bac2
00000380: e19c bac2 6fa7 ba42 207f bac2 cd92 bac2
00000390: fe06 ba42 f823 ba42 8f00 bac2 b3b1 ba42
000003a0: 2e8c ba42 2173 bac2 7e6b bac2 28ab bac2
000003b0: 15af bac2 d84e bac2 a84a b9c2 e513 bac2
000003c0: 2f32 bac2 a233 ba42 471c bac2 1254 bac2
000003d0: f13a bac2 5da3 bac2 f98e ba42 76b9 ba42
000003e0: c43d bac2 b85a bac2 974b ba42 c8ed bac2
000003f0: 047e ba42 b797 bac2 b07a bac2 bcc1 ba42

price_encoder.encoder.bias_ih_l0 f4 [120]
93.48583 93.67233 93.36279 -93.826324 93.08012 93.551895 93.76688 93.76166
93.42431 93.69668 92.72079 93.7411 93.29722 93.641624 93.327 93.45629
93.811386 93.33837 92.918106 92.82134 93.13398 93.600395 93.60281 93.49702
93.609764 93.83043 93.36633 93.66769 93.054794 92.714134 93.422714 93.50672
93.22835 -93.54633 92.95386 93.58401 93.40246 93.55755 93.47353 93.284904
92.78718 93.55561 93.10528 93.6628 93.18615 93.50815 93.61462 93.36835
93.06156 92.919556 93.101265 93.292305 93.27585 93.28901 93.65784 93.37087
93.40313 93.55336 92.92712 92.793846 -93.79582 93.86992 -93.634186 93.21071
-93.29818 -93.89081 93.961266 94.22354 -93.85336 -95.12383 93.619354 -94.5474
93.70942 -93.63882 -94.573105 94.8376 -95.43957 -94.81621 -94.274025 93.50459
-93.40946 93.7068 94.20661 -95.161674 -93.96339 -94.78004 -94.31774 -94.24029
-97.88953 93.669205 94.03237 94.26419 93.51964 -93.88651 93.02406 94.36513
94.27328 94.17908 93.92245 93.79314 92.51944 94.54722 93.48174 93.94141
93.81308 94.26516 94.262535 93.6987 92.834564 92.95209 93.12848 94.146965
93.71966 93.49317 94.12158 94.061 93.55288 93.925064 93.15956 92.845436
00000000: bff8 ba42 3c58 bb42 c0b9 ba42 14a7 bbc2
00000010: 0529 ba42 921a bb42 a488 bb42 f885 bb42
00000020: 3fd9 ba42 b364 bb42 0b71 b942 717b bb42
00000030: 2d98 ba42 8348 bb42 6da7 ba42 9fe9 ba42
00000040: 6e9f bb42 3fad ba42 12d6 b942 87a4 b942
00000050: 9944 ba42 6733 bb42 a434 bb42 79fe ba42
00000060: 3338 bb42 2ea9 bb42 90bb ba42 db55 bb42
00000070: 0e1c ba42 a36d b942 6ed8 ba42 7103 bb42
00000080: ea74 ba42 b917 bbc2 60e8 b942 032b bb42
00000090: 0fce ba42 771d bb42 73f2 ba42 df91 ba42
000000a0: 0993 b942 791c bb42 e735 ba42 5b53 bb42
000000b0: 4f5f ba42 2c04 bb42 af3a bb42 98bc ba42
000000c0: 851f ba42 d0d6 b942 d933 ba42 a995 ba42
000000d0: 3c8d ba42 f993 ba42 d050 bb42 e3bd ba42
000000e0: 67ce ba42 521b bb42 afda b942 7396 b942
000000f0: 7697 bbc2 66bd bb42 b444 bbc2 e26b ba42
00000100: ab98 bac2 18c8 bbc2 2bec bb42 7472 bc42
00000110: ecb4 bbc2 673f bec2 1c3d bb42 4518 bdc2
00000120: 396b bb42 1347 bbc2 6e25 bdc2 daac bd42
00000130: 0fe1 bec2 e6a1 bdc2 4d8c bcc2 5a02 bb42
00000140: a5d1 bac2 e269 bb42 c969 bc42 c752 bec2
00000150: 41ed bbc2 618f bdc2 afa2 bcc2 077b bcc2
00000160: 70c7 c3c2 a256 bb42 9310 bc42 4487 bc42
00000170: 0e0a bb42 e5c5 bbc2 520c ba42 f2ba bc42
00000180: eb8b bc42 b05b bc42 4bd8 bb42 1696 bb42
00000190: f409 b942 2d18 bd42 a7f6 ba42 00e2 bb42
000001a0: 4ca0 bb42 c387 bc42 6b86 bc42 bc65 bb42
000001b0: 4cab b942 78e7 b942 c841 ba42 3f4b bc42
000001c0: 7770 bb42 81fc ba42 403e bc42 3b1f bc42
000001d0: 131b bb42 a2d9 bb42 b251 ba42 ddb0 b942

price_encoder.encoder.bias_hh_l0 f4 [120]
93.545334 93.484474 93.364525 -93.62835 93.216995 93.68101 93.52879 93.52992
93.635284 93.65757 92.78531 93.78629 93.40753 93.67302 93.45876 93.68691
93.59195 93.34279 93.16027 92.78062 93.3914 93.398445 93.528534 93.42387
93.65986 93.77708 93.30537 93.6269 92.82767 92.85368 93.50273 93.54152
93.21149 -93.714 93.15684 93.54135 93.38368 93.52997 93.39032 93.483406
92.715485 93.60235 93.42527 93.5927 93.21559 93.57044 93.57498 93.45756
92.89596 92.92823 93.08028 93.55374 93.312386 93.333496 93.56032 93.59084
93.30619 93.35586 92.908745 92.7637 -93.81875 93.97872 -93.423164 93.06155
-93.28152 -93.88941 93.811485 94.24743 -93.79126 -94.95231 93.604065 -94.66608
93.63043 -93.77017 -94.55736 94.824036 -95.34073 -94.72367 -94.3644 93.439095
-93.3942 93.61841 93.94807 -95.34153 -93.975555 -94.6541 -94.540085 -94.18327
-97.902954 93.876656 94.062904 94.276985 93.40713 -93.89736 93.04836 94.49005
93.99317 94.30766 93.932274 93.747086 92.59289 94.26484 93.27193 93.91789
93.75179 94.0799 94.00251 93.780846 92.81662 92.99456 93.134346 93.962364
93.59057 93.758385 94.31943 94.17351 93.59483 93.86779 93.12105 92.71638
00000000: 3617 bb42 0df8 ba42 a3ba ba42 b741 bbc2
00000010: 1a6f ba42 ad5c bb42 be0e bb42 520f bb42
00000020: 4445 bb42 ad50 bb42 1492 b942 9592 bb42
00000030: a8d0 ba42 9658 bb42 e3ea ba42 b35f bb42
00000040: 142f bb42 82af ba42 0f52 ba42 ad8f b942
00000050: 66c8 ba42 01cc ba42 9c0e bb42 05d9 ba42
00000060: d951 bb42 dd8d bb42 599c ba42 f940 bb42
00000070: c4a7 b942 16b5 b942 6601 bb42 4215 bb42
00000080: 486c ba42 916d bbc2 4d50 ba42 2c15 bb42
00000090: 72c4 ba42 580f bb42 d8c7 ba42 81f7 ba42
000000a0: 546e b942 6734 bb42 bdd9 ba42 762f bb42
000000b0: 626e ba42 1124 bb42 6426 bb42 45ea ba42
000000c0: bbca b942 41db b942 1a29 ba42 841b bb42
000000d0: f19f ba42 c0aa ba42 e21e bb42 832e bb42
000000e0: c59c ba42 33b6 ba42 47d1 b942 0487 b942
000000f0: 33a3 bbc2 1bf5 bb42 a9d8 bac2 831f ba42
00000100: 2390 bac2 61c7 bbc2 7b9f bb42 af7e bc42
00000110: 2095 bbc2 95e7 bdc2 4835 bb42 0855 bdc2
00000120: c842 bb42 548a bbc2 5e1d bdc2 e8a5 bd42
00000130: 74ae bec2 8572 bdc2 93ba bcc2 d1e0 ba42
00000140: d5c9 bac2 a03c bb42 69e5 bb42 ddae bec2
00000150: 7cf3 bbc2 e64e bdc2 8614 bdc2 d65d bcc2
00000160: 50ce c3c2 d9c0 bb42 3520 bc42 d18d bc42
00000170: 73d0 ba42 73cb bbc2 c318 ba42 e8fa bc42
00000180: 81fc bb42 869d bc42 53dd bb42 827e bb42
00000190: 8f2f b942 9987 bc42 3a8b ba42 f6d5 bb42
000001a0: eb80 bb42 e928 bc42 4901 bc42 cb8f bb42
000001b0: 1ca2 b942 37fd b942 c944 ba42 bbec bb42
000001c0: 5f2e bb42 4b84 bb42 8ca3 bc42 d658 bc42
000001d0: 8e30 bb42 4fbc bb42 fa3d ba42 c96e b942

key_encoder.attention.weight f4 [1, 83]
92.80379 92.95135 92.95152 92.98731 92.85025 -92.90769 92.99969 92.89442
92.934685 92.80659 92.89252 92.864685 92.839096 92.92284 92.83424 93.17378
92.81829 92.82529 92.99596 -92.92376 92.977974 -92.969055 93.183426 -92.885826
92.84116 92.93459 92.88154 93.04292 92.89597 93.08141 92.8941 -92.95214
93.07695 92.820404 92.92156 92.97489 92.917305 92.91159 92.99766 93.043
93.05533 92.962364 92.8827 93.03102 92.88796 -92.90637 92.98546 -92.916145
93.09887 -92.91286 92.92869 92.982735 26.483341 -71.79179 -84.90415 -54.76114
-55.392075 -84.82722 -93.150116 53.386505 -90.19518 -91.19996 89.24399 52.499004
-93.05327 -86.441444 -92.34037 -10.399381 36.995243 -89.94347 -60.66352 -91.92174
-85.9269 -92.82821 -93.08304 -92.942154 -80.91264 -80.10195 -92.46242 -89.728004
94.2878 -36.46073 36.365334
00000000: 8a9b b942 17e7 b942 2ee7 b942 81f9 b942
00000010: 54b3 b942 bdd0 b9c2 d7ff b942 f1c9 b942
00000020: 8fde b942 f99c b942 f8c8 b942 b8ba b942
00000030: 9ead b942 7ed8 b942 22ab b942 fa58 ba42
00000040: f7a2 b942 8ca6 b942 eefd b942 f7d8 b9c2
00000050: b9f4 b942 28f0 b9c2 ea5d ba42 8bc5 b9c2
00000060: adae b942 83de b942 59c3 b942 fa15 ba42
00000070: bdca b942 af29 ba42 c7c9 b942 7fe7 b9c2
00000080: 6627 ba42 0ca4 b942 d7d7 b942 25f3 b942
00000090: a9d5 b942 bcd2 b942 cdfe b942 0416 ba42
000000a0: 541c ba42 bbec b942 f1c3 b942 e20f ba42
000000b0: a3c6 b942 10d0 b9c2 8ef8 b942 11d5 b9c2
000000c0: 9f32 ba42 62d3 b9c2 7ddb b942 29f7 b942
000000d0: e2dd d341 6595 8fc2 edce a9c2 680b 5bc2
000000e0: 7c91 5dc2 89a7 a9c2 dc4c bac2 c88b 5542
000000f0: ef63 b4c2 6166 b6c2 ec7c b242 fbfe 5142
00000100: 461b bac2 05e2 acc2 45ae b8c2 dd63 26c1
00000110: 21fb 1342 0ee3 b3c2 72a7 72c2 eed7 b7c2
00000120: 93da abc2 0ba8 b9c2 842a bac2 62e2 b9c2
00000130: 46d3 a1c2 3334 a0c2 c2ec b8c2 bd74 b3c2
00000140: 5b93 bc42 cad7 11c2 1a76 1142

key_encoder.encoder.weight_ih_l0 f4 [104, 38]
93.36998 93.06871 93.00077 93.15317 93.01667 93.08417 93.15046 92.96944
93.18734 93.02384 93.05063 93.33504 93.14727 92.95737 93.024376 93.18987
93.25472 93.15677 92.95852 93.558136 93.09151 93.30839 93.21538 93.03579
92.96125 93.27844 93.14798 93.291176 93.60218 93.177 92.995094 93.043274
93.15841 93.04273 93.27261 92.9313 93.238594 93.134056 93.65886 93.27105
93.21131 93.335 93.176704 93.0203 93.044266 93.21699 93.361275 93.07065
93.12551 93.33143 93.37342 93.01187 93.250374 93.25485 93.02255 93.15148
93.01338 93.601326 93.14294 93.23224 93.22577 93.13011 93.04464 93.283
93.30041 93.274345 93.5181 93.172104 93.12559 93.205086 93.30158 93.10095
93.12961 93.191605 92.97036 93.33238 93.2842 93.05762 93.073944 93.038666
93.23534 93.271736 93.18986 93.30756 92.9347 93.23649 93.073456 93.114426
93.14625 93.26347 92.944786 93.13108 93.06038 93.20588 92.95303 93.587204
92.931786 93.079056 92.9928 92.98765 92.98319 93.090904 93.02098 93.20497
93.40756 92.99544 92.94734 93.304054 93.26633 93.17022 93.15921 93.155014
93.1757 93.19485 93.38748 93.32448 93.14527 93.202354 92.990265 93.18182
93.231064 93.07395 93.20948 93.26065 93.12171 93.008 93.2282 93.054924
93.17572 93.184975 92.98234 93.17287 93.06947 93.63816 93.15141 92.978004
93.112305 93.11778 92.98933 93.13369 93.311745 93.176476 93.438576 93.25917
93.3082 93.11924 93.16127 93.32526 92.972664 93.0401 92.970276 92.98784
93.50994 93.23963 93.087814 93.284515 93.02374 93.046585 93.33264 93.22532
93.03578 93.08313 93.310356 93.04033 93.08183 92.968124 93.244095 93.03848
93.20174 93.28458 93.204765 93.53392 93.105255 93.31791 93.14139 93.25082
93.22559 93.31763 93.313156 93.02294 93.578636 92.975174 93.223 93.017944
93.01685 93.116165 93.14465 93.1252 93.322205 93.0612 93.47957 93.286606
93.28809 93.24433 93.16736 92.99433 93.25001 93.13174 93.14572 93.269135
93.23239 93.049835 93.28509 92.92772 93.17279 92.92859 92.870056 93.19589
93.09724 93.64643 -93.31042 92.94028 93.119 92.38828 93.20918 -93.86077
93.11424 92.90257 93.751755 -93.154396 92.94925 93.144196 93.292404 93.26769
93.256805 93.193695 54.496956 93.29956 93.39268 93.15245 93.05459 93.22255
93.12499 93.142876 92.96657 93.09306 93.13123 93.300224 93.07728 93.20941
93.321175 93.23366 93.02953 93.21904 93.01565 93.2461 93.35063 93.73833
93.25125 93.20251 93.21079 93.07896 93.172165 93.22727 92.95635 92.97238
00000000: 6ebd ba42 2e23 ba42 6500 ba42 6c4e ba42
00000010: 8908 ba42 182b ba42 094d ba42 5af0 b942
00000020: eb5f ba42 350c ba42 ec19 ba42 8aab ba42
00000030: 674b ba42 2cea b942 7b0c ba42 3761 ba42
00000040: 6b82 ba42 4450 ba42 c3ea b942 c41d bb42
00000050: da2e ba42 e59d ba42 466e ba42 5312 ba42
00000060: 29ec b942 908e ba42 c44b ba42 1595 ba42
00000070: 5134 bb42 a05a ba42 7dfd b942 2816 ba42
00000080: 1b51 ba42 e115 ba42 948b ba42 d3dc b942
00000090: 297a ba42 a344 ba42 5651 bb42 c78a ba42
000000a0: 316c ba42 85ab ba42 795a ba42 650a ba42
000000b0: aa16 ba42 196f ba42 f9b8 ba42 2c24 ba42
000000c0: 4340 ba42 b1a9 ba42 31bf ba42 1406 ba42
000000d0: 3180 ba42 7c82 ba42 8c0b ba42 8f4d ba42
000000e0: da06 ba42 e133 bb42 2f49 ba42 e876 ba42
000000f0: 9873 ba42 9e42 ba42 db16 ba42 e590 ba42
00000100: cf99 ba42 778c ba42 4409 bb42 1e58 ba42
00000110: 4d40 ba42 0169 ba42 699a ba42 b033 ba42
00000120: 5c42 ba42 1a62 ba42 d3f0 b942 2eaa ba42
00000130: 8391 ba42 801d ba42 dc25 ba42 cc13 ba42
00000140: 7e78 ba42 218b ba42 3561 ba42 799d ba42
00000150: 91de b942 1579 ba42 9c25 ba42 963a ba42
00000160: e14a ba42 e686 ba42 bbe3 b942 1d43 ba42
00000170: ea1e ba42 6969 ba42 f4e7 b942 a62c bb42
00000180: 13dd b942 7a28 ba42 50fc b942 adf9 b942
00000190: 65f7 b942 8b2e ba42 be0a ba42 f268 ba42
000001a0: acd0 ba42 aafd b942 0ae5 b942 ad9b ba42
000001b0: 5c88 ba42 2757 ba42 8451 ba42 5e4f ba42
000001c0: f559 ba42 c363 ba42 64c6 ba42 22a6 ba42
000001d0: 614a ba42 9b67 ba42 04fb b942 185d ba42
000001e0: 4e76 ba42 dd25 ba42 416b ba42 7485 ba42
000001f0: 513e ba42 1904 ba42 d774 ba42 1f1c ba42
00000200: f859 ba42 b55e ba42 f5f6 b942 8258 ba42
00000210: 9223 ba42 bd46 bb42 864d ba42 bdf4 b942
00000220: 8039 ba42 4e3c ba42 89fa b942 7344 ba42
00000230: 9d9f ba42 5b5a ba42 8de0 ba42 b284 ba42
00000240: cc9d ba42 0d3d ba42 9252 ba42 88a6 ba42
00000250: 01f2 b942 8814 ba42 c8f0 b942 c6f9 b942
00000260: 1705 bb42 b17a ba42 f62c ba42 ac91 ba42
00000270: 280c ba42 da17 ba42 50aa ba42 5d73 ba42
00000280: 5212 ba42 902a ba42 e79e ba42 a614 ba42
00000290: e629 ba42 aeef b942 fa7c ba42 b413 ba42
000002a0: 4a67 ba42 b491 ba42 d768 ba42 5e11 bb42
000002b0: e435 ba42 c5a2 ba42 6448 ba42 6b80 ba42
000002c0: 8173 ba42 a0a2 ba42 56a0 ba42 bf0b ba42
000002d0: 4328 bb42 4af3 b942 2d72 ba42 3009 ba42
000002e0: a108 ba42 7a3b ba42 104a ba42 1a40 ba42
000002f0: f8a4 ba42 561f ba42 8af5 ba42 be92 ba42
00000300: 8193 ba42 197d ba42 b055 ba42 19fd b942
00000310: 0180 ba42 7343 ba42 9c4a ba42 cc89 ba42
00000320: fc76 ba42 8419 ba42 f791 ba42 feda b942
00000330: 7858 ba42 70db b942 78bd b942 4c64 ba42
00000340: c931 ba42 f94a bb42 ef9e bac2 6ce1 b942
00000350: ee3c ba42 cdc6 b842 1a6b ba42 b7b8 bbc2
00000360: 7e3a ba42 1ece b942 e680 bb42 0d4f bac2
00000370: 04e6 b942 d449 ba42 b695 ba42 0f89 ba42
00000380: 7c83 ba42 2c63 ba42 e2fc 5942 6099 ba42
00000390: 0dc9 ba42 0e4e ba42 f31b ba42 f271 ba42
000003a0: ff3f ba42 2749 ba42 e2ee b942 a62f ba42
000003b0: 3143 ba42 b799 ba42 9127 ba42 386b ba42
000003c0: 71a4 ba42 a277 ba42 1f0f ba42 2670 ba42
000003d0: 0308 ba42 017e ba42 86b3 ba42 067a bb42
000003e0: a480 ba42 af67 ba42 ed6b ba42 6d28 ba42
000003f0: 2658 ba42 5d74 ba42 a7e9 b942 dcf1 b942

key_encoder.encoder.weight_hh_l0 f4 [104, 26]
-93.02929 -93.15687 -93.02676 -93.11846 -93.15466 93.0181 -93.050705 -92.974754
-92.963394 -93.09492 -93.2778 -93.31275 -93.27242 -93.15603 -93.15062 93.15229
-93.16892 -93.03651 -93.26583 93.02671 -92.98157 93.27212 -93.23432 93.16038
-93.281265 -93.114624 -93.30119 -93.34049 -93.02422 -93.024925 -93.291466 93.292984
-93.10696 -93.27806 -93.482475 -93.331375 -93.07802 -93.385 -93.12728 -93.359184
-93.31024 93.32244 -93.349915 -93.22834 -93.045906 93.179146 -93.242004 93.33979
93.110985 93.0922 -93.18054 -93.14726 -92.98857 -93.06267 -93.16706 -93.01718
-93.00566 92.99559 -93.051094 -93.307526 -93.17735 -93.15526 -93.12737 -92.99077
-93.189354 -93.18655 -93.047356 93.07036 -93.01984 -93.01515 -92.97071 93.23505
-93.03934 93.00515 -93.02121 93.131836 -93.27926 -93.01798 -93.308815 -93.155365
-93.087105 -93.00984 -93.32396 93.33298 -93.02453 -93.1653 -93.02243 -93.077995
-93.11604 -93.126366 -93.26913 -93.02778 -93.19836 92.97246 -92.958405 -93.12712
-93.234406 93.02733 -93.31093 93.20455 -93.24112 93.15791 -93.066795 -92.982414
-93.15039 -93.05583 -92.97133 -93.278015 -93.2084 93.1368 -93.30904 -93.032295
-93.07501 -93.00998 -93.124756 -93.17463 -93.14395 -93.07532 -93.13839 93.12441
-93.041 -93.00523 -93.28658 93.05586 -92.94344 93.29206 -92.918144 93.11645
-92.98564 -93.03631 -93.34265 -93.02614 -93.13445 -92.99745 -93.142494 93.034836
-93.144806 -93.10456 -93.326515 -93.18869 -93.06421 -93.15337 -93.262955 -92.967155
-93.01293 93.04623 -93.20707 -93.06097 -93.29386 93.11798 -93.06177 93.33101
-93.11902 93.33755 -93.08882 -93.10131 -93.33312 -92.97653 -92.98334 -93.047714
-93.05644 93.24548 -93.34852 -93.33117 -93.20891 -93.041885 -93.20692 -93.02375
-93.046906 -93.045876 -93.214386 93.23076 -93.33027 -93.14634 -93.28446 93.1594
-93.14083 93.313736 -93.22234 93.181206 -92.95817 -93.01234 -92.998604 -93.25078
-93.237114 -93.37761 -93.37564 93.24544 -93.08323 -93.14772 -93.59004 -93.40684
-93.05821 -93.18997 -93.45335 -93.33729 -93.393555 93.1688 -93.11487 -93.40181
-93.05276 93.451324 -93.39025 93.17133 93.0264 93.37222 -93.22089 -93.15171
-93.0268 -93.22006 -93.31868 -93.16842 -93.31683 93.19999 -93.07719 -93.3385
-93.56266 -93.133156 -93.07928 -93.1975 -93.46171 -93.04776 -93.05905 93.279465
-93.1685 -93.25128 -93.327225 93.45312 -93.31046 93.37365 92.962555 93.116776
-93.46094 -93.26408 -93.23469 -93.37882 -93.26959 -93.18215 -93.29375 93.43826
-93.27603 -93.42618 -93.35286 -93.232895 -93.03172 -93.256195 -93.25237 -93.238266
-93.29186 93.20788 -93.422134 -93.28863 -93.285095 93.19138 -93.297745 93.31529
00000000: ff0e bac2 5150 bac2 b30d bac2 a73c bac2
00000010: 304f bac2 4409 ba42 f619 bac2 13f3 b9c2
00000020: 42ed b9c2 9930 bac2 3c8e bac2 21a0 bac2
00000030: 7b8b bac2 e34f bac2 1e4d bac2 f94d ba42
00000040: 7d56 bac2 b112 bac2 1b88 bac2 ad0d ba42
00000050: 90f6 b9c2 538b ba42 f977 bac2 1d52 ba42
00000060: 0290 bac2 b03a bac2 369a bac2 55ae bac2
00000070: 670c bac2 c30c bac2 3b95 bac2 0296 ba42
00000080: c336 bac2 5e8e bac2 07f7 bac2 aaa9 bac2
00000090: f227 bac2 1fc5 bac2 2b41 bac2 e7b7 bac2
000000a0: d89e bac2 17a5 ba42 28b3 bac2 e974 bac2
000000b0: 8117 bac2 b95b ba42 e87b bac2 f9ad ba42
000000c0: d338 ba42 352f ba42 705c bac2 664b bac2
000000d0: 26fa b9c2 1620 bac2 8955 bac2 cc08 bac2
000000e0: e602 bac2 befd b942 291a bac2 749d bac2
000000f0: ce5a bac2 7e4f bac2 3741 bac2 46fb b9c2
00000100: f360 bac2 835f bac2 3f18 bac2 0624 ba42
00000110: 280a bac2 c207 bac2 01f1 b9c2 5878 ba42
00000120: 2414 bac2 a302 ba42 dc0a bac2 8043 ba42
00000130: fb8e bac2 3509 bac2 1d9e bac2 8c4f bac2
00000140: 992c bac2 0a05 bac2 dea5 bac2 7caa ba42
00000150: 8f0c bac2 a254 bac2 7c0b bac2 ef27 bac2
00000160: 6a3b bac2 b340 bac2 cb89 bac2 390e bac2
00000170: 8f65 bac2 e6f1 b942 b4ea b9c2 1641 bac2
00000180: 0478 bac2 fe0d ba42 329f bac2 bb68 ba42
00000190: 747b bac2 da50 ba42 3322 bac2 fff6 b9c2
000001a0: 004d bac2 961c bac2 52f1 b9c2 588e bac2
000001b0: b36a bac2 0b46 ba42 3a9e bac2 8910 bac2
000001c0: 6826 bac2 1c05 bac2 e03f bac2 6959 bac2
000001d0: b449 bac2 9026 bac2 db46 bac2 b33f ba42
000001e0: fe14 bac2 ae02 bac2 bb92 bac2 9a1c ba42
000001f0: 0be3 b9c2 8995 ba42 17d6 b9c2 9f3b ba42
00000200: a6f8 b9c2 9712 bac2 70af bac2 620d bac2
00000210: d744 bac2 b2fe b9c2 f548 bac2 d611 ba42
00000220: 244a bac2 8935 bac2 2da7 bac2 9c60 bac2
00000230: e020 bac2 874e bac2 a286 bac2 2fef b9c2
00000240: 9f06 bac2 ab17 ba42 056a bac2 371f bac2
00000250: 7596 bac2 683c ba42 a01f bac2 7aa9 ba42
00000260: f03c bac2 d3ac ba42 7a2d bac2 df33 bac2
00000270: 8faa bac2 fcf3 b9c2 78f7 b9c2 6e18 bac2
00000280: e61c bac2 b07d ba42 71b2 bac2 8fa9 bac2
00000290: f66a bac2 7215 bac2 f169 bac2 290c bac2
000002a0: 0418 bac2 7d17 bac2 c46d bac2 2676 ba42
000002b0: 19a9 bac2 ed4a bac2 a591 bac2 9d51 ba42
000002c0: 1b48 bac2 a2a0 ba42 d771 bac2 c75c ba42
000002d0: 95ea b9c2 5106 bac2 49ff b9c2 6680 bac2
000002e0: 6779 bac2 56c1 bac2 54c0 bac2 aa7d ba42
000002f0: 9d2a bac2 a24b bac2 1a2e bbc2 4dd0 bac2
00000300: ce1d bac2 4461 bac2 1de8 bac2 b1ac bac2
00000310: 80c9 bac2 6d56 ba42 d03a bac2 bacd bac2
00000320: 031b bac2 14e7 ba42 cfc7 bac2 b957 ba42
00000330: 840d ba42 94be ba42 1871 bac2 ad4d bac2
00000340: b90d bac2 ac70 bac2 2aa3 bac2 3b56 bac2
00000350: 38a2 bac2 6566 ba42 8527 bac2 50ad bac2
00000360: 1520 bbc2 2d44 bac2 9728 bac2 1f65 bac2
00000370: 65ec bac2 7418 bac2 3c1e bac2 168f ba42
00000380: 4656 bac2 a880 bac2 8aa7 bac2 ffe7 ba42
00000390: f59e bac2 4fbf ba42 d4ec b942 ca3b ba42
000003a0: 00ec bac2 3587 bac2 2978 bac2 f5c1 bac2
000003b0: 088a bac2 435d bac2 6696 bac2 64e0 ba42
000003c0: 548d bac2 34da bac2 aab4 bac2 3e77 bac2
000003d0: 3e10 bac2 2c83 bac2 3781 bac2 fe79 bac2
000003e0: 6f95 bac2 6f6a ba42 22d8 bac2 c793 bac2
000003f0: f891 bac2 fd61 ba42 7298 bac2 6ea1 ba42

key_encoder.encoder.bias_ih_l0 f4 [104]
93.31471 93.759094 93.39462 93.24617 93.235176 93.62096 93.35416 94.09427
94.19844 94.1158 93.820305 94.13309 94.03211 93.628075 93.38848 92.88032
93.78711 93.93649 93.76087 93.92138 94.20163 93.57339 93.2997 93.34896
94.11183 93.38131 93.01549 93.34371 93.12936 93.01103 93.28356 93.15279
93.11329 93.70841 93.89648 93.59074 93.21819 93.68907 93.62841 93.04742
93.01218 -93.05637 93.368484 93.812675 93.30815 93.162994 93.89245 93.10727
93.07832 93.17597 93.56751 93.14651 -94.07629 -94.033165 -93.6594 -93.94561
-93.968994 93.83634 -93.53726 -94.21239 -94.31348 -94.10548 -94.823166 -94.269585
-94.072235 -93.7839 -94.51445 -93.15437 -94.21406 -94.1715 -94.00427 93.95419
-94.21892 93.343315 -91.33963 93.58526 -94.07457 -94.13769 93.42575 93.80907
93.523834 93.42019 93.265816 93.67987 93.608185 94.169525 95.07401 94.42184
93.36859 94.47917 94.24463 93.51447 93.21813 93.07247 93.75806 94.56728
93.60085 93.82869 94.67708 93.38427 93.41687 93.62054 94.31419 93.224174
00000000: 22a1 ba42 a884 bb42 0cca ba42 0a7e ba42
00000010: 6978 ba42 ee3d bb42 54b5 ba42 4430 bc42
00000020: 9a65 bc42 4a3b bc42 ffa3 bb42 2444 bc42
00000030: 7110 bc42 9341 bb42 e7c6 ba42 b9c2 b942
00000040: 0093 bb42 7cdf bb42 9185 bb42 bfd7 bb42
00000050: 3c67 bc42 9325 bb42 7299 ba42 abb2 ba42
00000060: 4239 bc42 3bc3 ba42 ee07 ba42 fbaf ba42
00000070: 3b42 ba42 a605 ba42 2f91 ba42 3a4e ba42
00000080: 013a ba42 b56a bb42 ffca bb42 752e bb42
00000090: b76f ba42 ce60 bb42 bf41 bb42 4718 ba42
000000a0: 3c06 ba42 dd1c bac2 aabc ba42 17a0 bb42
000000b0: c69d ba42 7453 ba42 efc8 bb42 ec36 ba42
000000c0: 1a28 ba42 195a ba42 9122 bb42 034b ba42
000000d0: 0f27 bcc2 fb10 bcc2 9d51 bbc2 27e4 bbc2
000000e0: 20f0 bbc2 35ac bb42 1413 bbc2 be6c bcc2
000000f0: 80a0 bcc2 0136 bcc2 76a5 bdc2 078a bcc2
00000100: fc24 bcc2 5b91 bbc2 6607 bdc2 0a4f bac2
00000110: 996d bcc2 cf57 bcc2 3002 bcc2 8ce8 bb42
00000120: 1670 bcc2 c7af ba42 e4ad b6c2 a72b bb42
00000130: 2e26 bcc2 7f46 bcc2 fcd9 ba42 3e9e bb42
00000140: 340c bb42 23d7 ba42 1988 ba42 185c bb42
00000150: 6437 bb42 cc56 bc42 e525 be42 fbd7 bc42
00000160: b8bc ba42 56f5 bc42 407d bc42 6907 bb42
00000170: af6f ba42 1b25 ba42 2084 bb42 7322 bd42
00000180: a333 bb42 4aa8 bb42 aa5a bd42 bfc4 ba42
00000190: 70d5 ba42 b73d bb42 dea0 bc42 c772 ba42

key_encoder.encoder.bias_hh_l0 f4 [104]
93.41266 93.78685 93.363495 93.33746 93.24442 93.66703 93.349174 93.91707
94.232315 94.17329 93.76607 94.41908 94.006256 93.445175 93.73208 92.82371
93.98275 93.854256 93.83653 93.80346 93.9589 93.625496 93.30521 93.56556
93.93535 93.50503 93.18628 93.23117 93.15941 92.96844 93.02445 93.21264
93.05124 93.60092 93.90652 93.74498 93.23798 93.90275 93.55398 93.03602
93.2686 -93.15989 93.57363 93.78693 93.05367 93.41335 93.662025 93.15772
93.10576 93.23265 93.83553 92.98964 -94.04577 -94.23542 -93.844765 -94.301895
-93.7166 93.75636 -93.30486 -94.121445 -94.222 -93.91191 -94.53418 -94.27242
-94.1599 -93.460236 -94.18199 -93.09147 -94.18872 -93.991806 -94.196915 93.98588
-94.1799 93.501274 -91.01807 93.5753 -94.17013 -94.10289 93.247925 93.47393
93.355125 93.45008 93.30164 93.608025 93.37529 94.00797 94.92122 94.35691
93.19595 94.53945 94.114075 93.47488 93.55579 92.96526 93.76574 94.68002
93.316 93.814064 94.749596 93.47886 93.39055 93.40802 94.46124 93.20223
00000000: 48d3 ba42 de92 bb42 1cba ba42 c8ac ba42
00000010: 257d ba42 8555 bb42 c7b2 ba42 8ad5 bb42
00000020: f276 bc42 b958 bc42 3a88 bb42 92d6 bc42
00000030: 3403 bc42 eee3 ba42 d376 bb42 bda5 b942
00000040: 2bf7 bb42 61b5 bb42 4eac bb42 5f9b bb42
00000050: f5ea bb42 4140 bb42 449c ba42 9121 bb42
00000060: e6de bb42 9302 bb42 605f ba42 5c76 ba42
00000070: 9e51 ba42 d7ef b942 850c ba42 df6c ba42
00000080: 3c1a ba42 ac33 bb42 23d0 bb42 6e7d bb42
00000090: d979 ba42 35ce bb42 a31b bb42 7112 ba42
000000a0: 8689 ba42 dd51 bac2 b325 bb42 e892 bb42
000000b0: 7b1b ba42 a3d3 ba42 f552 bb42 c150 ba42
000000c0: 2636 ba42 1e77 ba42 cbab bb42 b2fa b942
000000d0: 6f17 bcc2 8978 bcc2 85b0 bbc2 929a bcc2
000000e0: e66e bbc2 4283 bb42 179c bac2 2e3e bcc2
000000f0: aa71 bcc2 e6d2 bbc2 8011 bdc2 7b8b bcc2
00000100: de51 bcc2 a4eb bac2 2e5d bcc2 d52e bac2
00000110: a060 bcc2 cefb bbc2 d264 bcc2 c5f8 bb42
00000120: 1c5c bcc2 a700 bb42 4009 b6c2 8e26 bb42
00000130: 1b57 bcc2 ae34 bcc2 f07e ba42 a7f2 ba42
00000140: d3b5 ba42 71e6 ba42 719a ba42 4f37 bb42
00000150: 26c0 ba42 1504 bc42 aad7 bd42 bdb6 bc42
00000160: 5464 ba42 3314 bd42 683a bc42 23f3 ba42
00000170: 911c bb42 37ee b942 0f88 bb42 2c5c bd42
00000180: cba1 ba42 cda0 bb42 cb7f bd42 2df5 ba42
00000190: f6c7 ba42 e8d0 ba42 28ec bc42 8b67 ba42

atten_layer.0.weight f4 [56, 168]
0.030601077 0.073880695 0.07579518 0.045431234 0.005803779 0.02473116 -0.036744796 0.017726429
0.030561611 -0.038288996 0.013768323 0.0036077276 -0.069029726 0.05670143 0.056615807 0.00832805
-0.0022600368 -0.017303146 0.07150658 -0.04919473 0.009461321 -0.037061613 0.015218452 0.0019763187
-0.070426255 0.03151358 -0.05884923 0.001781784 0.023188129 0.022423573 0.024935514 -0.00570634
0.06444914 -0.038174354 -0.03321723 0.049068548 0.06958767 0.022093065 -0.04678099 0.061090894
0.06533379 -0.052401736 0.071009345 0.023143686 -0.00020933151 0.025002643 0.042872757 0.06328871
0.014919065 0.011840969 -0.057153866 0.03603836 -0.03310051 0.0042568 -0.04636301 0.006700851
0.06188578 -0.029303014 0.0011396632 0.033669055 -0.06088535 0.06262117 0.069488816 -0.021230798
0.07622758 -0.038310554 0.008875251 0.064987116 -0.04528032 -0.016082827 0.075561084 -0.026810639
-0.051201954 0.0051973835 -0.059946224 -0.02536102 0.0014939383 -0.059393913 -0.020406187 0.045877762
0.06225761 -0.05850224 0.045818448 0.041019343 -0.01357016 -0.014989354 0.07466277 0.04392232
0.050251596 0.0014272928 -0.055196904 0.031909943 0.02991265 -0.006468281 -0.012680486 0.012043193
-0.044817075 -0.039952062 0.04382419 -0.041818045 0.043175116 0.057185464 0.036210082 0.0050667524
-0.022395507 0.062117778 0.06915549 0.04940241 0.011403322 -0.026707511 0.030040033 -0.029160753
93.04667 -93.087524 93.12969 -93.053795 -93.06968 93.12566 -93.08736 -93.153175
93.065796 93.142006 93.079445 93.13397 -93.11457 93.0774 93.00567 -93.09903
93.13187 93.00749 -93.04807 92.99665 93.128265 -93.10617 -93.04996 93.095406
93.044624 93.05199 93.09982 93.08511 93.00172 93.09353 -93.15898 -93.192154
-93.14016 -93.1524 -93.1428 93.08463 -93.0941 -93.13021 -93.31576 -93.25277
-93.193825 -93.17301 -93.2021 -93.14072 -93.16758 -93.034805 -93.11434 -93.14633
-93.15974 93.06922 -93.22392 93.08588 -93.04748 93.08649 -93.1291 -93.05791
-0.026054397 0.062255405 0.059617735 0.0036318973 0.005726598 -0.023090564 0.0012816787 0.075529955
-0.003835544 0.06298923 -0.045026917 -0.034248292 0.0345418 0.047150217 0.043110147 0.051583804
-0.0046918616 -0.0446037 -0.008974634 -0.028023187 0.052700035 0.016822986 -0.025203243 0.046587266
-0.004994042 0.04630839 0.06313095 0.058984287 -0.015092269 -0.034983985 0.035031848 0.064936064
0.02629517 -0.069615595 -0.002593957 0.038805805 0.006614469 0.04026381 -0.026527815 0.07257982
-0.06804742 0.025899075 -0.072045505 -0.0627493 0.00930728 -0.0011718348 -0.02978412 -0.02574655
0.048130013 0.0010588914 0.048803516 -0.06324466 -0.072978035 -0.061554767 -0.024705898 -0.06713864
0.046454065 0.030963197 -0.06968436 0.052405275 -0.039098755 0.043569088 0.038892783 -0.027362488
0.0473572 -0.020491522 -0.057194084 0.06478568 0.005873516 0.027771525 0.06010697 0.0086766705
0.023401305 -0.048633114 -0.057487566 0.012154013 -0.030755904 0.057148673 -0.04477352 0.06886131
-0.07634761 0.07587098 0.054117672 0.04091005 0.07391108 0.023086198 0.012971461 0.04993502
00000000: 1caf fa3c c34e 973d 813a 9b3d 1a16 3a3d
00000010: a02d be3b 0099 ca3c b681 16bd 0437 913c
00000020: 585c fa3c ecd4 1cbd 8894 613c a06f 6c3b
00000030: 755f 8dbd c23f 683d fae5 673d 6072 083c
00000040: 201d 14bb 54bf 8dbc 0b72 923d 6a80 49bd
00000050: a803 1b3c ebcd 17bd d056 793c 2085 013b
00000060: a43b 90bd 6214 013d e40b 71bd c08a e93a
00000070: 08f5 bd3c a4b1 b73c 9045 cc3c 40fc babb
00000080: e9fd 833d b65c 1cbd ca0e 08bd 1afc 483d
00000090: fb83 8e3d 84fc b43c 6c9d 3fbd 723a 7a3d
000000a0: b9cd 853d 34a3 56bd 596d 913d d497 bd3c
000000b0: 0080 5bb9 58d2 cc3c 589b 2f3d 839d 813d
000000c0: 186f 743c a000 423c 2c1a 6abd f69c 133d
000000d0: 6694 07bd a07c 8b3b 24e7 3dbd d092 db3b
000000e0: f27b 7d3d e00c f0bc c060 953a 90e8 093d
000000f0: eb62 79bd 873f 803d 2750 8e3d 36ec adbc
00000100: 351d 9c3d 87eb 1cbd 8069 113c f717 853d
00000110: db77 39bd 22c0 83bc c5bf 9a3d fca1 dbbc
00000120: 24b9 51bd d04e aa3b 2c8a 75bd eac1 cfbc
00000130: 40d0 c33a 0847 73bd e02a a7bc 52ea 3b3d
00000140: d601 7f3d 0ba0 6fbd 20ac 3b3d e603 283d
00000150: 6055 5ebc e895 75bc cbe8 983d e4e7 333d
00000160: 9ed4 4d3d 0014 bb3a 2616 62bd 00b4 023d
00000170: 600b f53c e0f3 d3bb d0c1 4fbc d050 453c
00000180: 1c92 37bd c6a4 23bd fe80 333d 6649 2bbd
00000190: 64d8 303d 4e3b 6a3d 0651 143d 0007 a63b
000001a0: c876 b7bc 366f 7e3d 65a1 8d3d 2e5a 4a3d
000001b0: 00d5 3a3c b6c9 dabc 8416 f63c 88e2 eebc
000001c0: e517 ba42 d02c bac2 6742 ba42 8b1b bac2
000001d0: ad23 bac2 5740 ba42 ba2c bac2 6d4e bac2
000001e0: b021 ba42 b548 ba42 ad28 ba42 9844 ba42
000001f0: a93a bac2 a127 ba42 e702 ba42 b432 bac2
00000200: 8443 ba42 d603 ba42 9d18 bac2 49fe b942
00000210: ac41 ba42 5c36 bac2 9419 bac2 d930 ba42
00000220: d916 ba42 9e1a ba42 1c33 ba42 942b ba42
00000230: e100 ba42 e32f ba42 6651 bac2 6262 bac2
00000240: c347 bac2 074e bac2 1d49 bac2 552b ba42
00000250: 2e30 bac2 ab42 bac2 aba1 bac2 6b81 bac2
00000260: 3d63 bac2 9558 bac2 7a67 bac2 0c48 bac2
00000270: cd55 bac2 d211 bac2 8b3a bac2 ec4a bac2
00000280: c951 bac2 7123 ba42 a672 bac2 f82b ba42
00000290: 4f18 bac2 482c ba42 1942 bac2 a61d bac2
000002a0: 0870 d5bc 86ff 7e3d ba31 743d 2005 6e3b
000002b0: 30a6 bb3b 6c28 bdbc 00fe a73a 73af 9a3d
000002c0: c05d 7bbb 7f00 813d 256e 38bd f047 0cbd
000002d0: b47b 0d3d 9620 413d 4494 303d 8a49 533d
000002e0: 30be 99bb 5fb2 36bd 580a 13bc e290 e5bc
000002f0: fedb 573d 5cd0 893c 0877 cebc 4ad2 3e3d
00000300: 10a5 a3bb dead 3d3d cd4a 813d 8299 713d
00000310: 9045 77bc 5e4b 0fbd 8e7d 0f3d 33fd 843d
00000320: f868 d73c 9f92 8ebd 60ff 29bb d6f2 1e3d
00000330: 30be d83b aaeb 243d dc50 d9bc bba4 943d
00000340: 725c 8bbd 4c2a d43c 988c 93bd b482 80bd
00000350: 907d 183c 4098 99ba d4fd f3bc 6eea d2bc
00000360: fa23 453d 80ca 8a3a 32e6 473d 6b86 81bd
00000370: 8275 95bd da20 7cbd 0664 cabc fc7f 89bd
00000380: 9e46 3e3d 88a6 fd3c acb6 8ebd eaa6 563d
00000390: 0426 20bd 8075 323d 0a4e 1f3d 4c27 e0bc
000003a0: a0f9 413d d6dd a7bc 5844 6abd 5bae 843d
000003b0: a076 c03b 1c81 e33c ba32 763d 9828 0e3c
000003c0: 18b4 bf3c 8433 47bd 1578 6bbd a021 473c
000003d0: cef3 fbbc ba14 6a3d 7064 37bd 2907 8d3d
000003e0: 235c 9cbd 3f62 9b3d 7eaa 5d3d 4c91 273d
000003f0: b15e 973d 441f bd3c 4086 543c aa88 4c3d

atten_layer.0.bias f4 [56]
-93.068436 93.175865 -93.228485 -93.301476 93.36768 93.24309 -93.27691 93.04645
-93.09298 -93.07333 93.25506 93.31321 -92.99256 93.16894 93.2712 -93.140335
-93.16315 93.23003 93.14898 93.211754 93.11795 -93.2442 93.07312 93.173706
-93.251465 -93.14198 93.271576 93.17087 -93.37205 -93.12464 -93.13911 -93.05547
93.210785 -93.06164 93.12916 93.212425 93.320694 -93.18402 93.234344 93.05053
93.02248 -93.136375 93.27355 -93.151024 -93.30497 93.10451 -93.12879 -93.24027
93.07543 -93.24189 93.257416 93.1722 93.125496 93.1682 93.01975 93.3235
00000000: 0a23 bac2 0b5a ba42 fc74 bac2 5b9a bac2
00000010: 41bc ba42 767c ba42 c78d bac2 c817 ba42
00000020: 9b2f bac2 8c25 bac2 9782 ba42 5da0 ba42
00000030: 31fc b9c2 7f56 ba42 db8a ba42 da47 bac2
00000040: 8853 bac2 c675 ba42 474c ba42 6b6c ba42
00000050: 643c ba42 087d bac2 7025 ba42 f058 ba42
00000060: c080 bac2 b248 bac2 0c8b ba42 7c57 ba42
00000070: 7dbe bac2 d13f bac2 3947 bac2 671c bac2
00000080: ec6b ba42 8f1f bac2 2142 ba42 c36c ba42
00000090: 32a4 ba42 385e bac2 fc77 ba42 df19 ba42
000000a0: 820b ba42 d345 bac2 0f8c ba42 534d bac2
000000b0: 259c bac2 8235 ba42 f141 bac2 057b bac2
000000c0: 9f26 ba42 d97b bac2 cc83 ba42 2b58 ba42
000000d0: 4140 ba42 1e56 ba42 1d0a ba42 a2a5 ba42

atten_layer.2.weight f4 [1, 56]
-93.25325 -93.22025 93.39957 93.648155 -93.75316 -93.641014 93.541695 92.85785
-92.81765 93.78967 -93.62471 -93.72396 -92.933464 -93.7758 -93.71687 -93.05283
93.73316 -93.67815 92.847046 -93.38206 92.89227 93.78937 -93.51275 -93.57395
93.76092 93.519905 -93.70648 -93.520325 94.00564 -93.17859 93.73972 92.36919
-93.54364 93.61935 93.21252 92.71625 -93.824036 93.525246 -93.68825 -93.56248
-93.67413 -92.580444 -93.614296 93.440956 93.79611 -93.554115 93.49978 -92.61039
-93.63247 93.68676 -93.64294 92.78542 -93.343376 92.90354 -93.740005 -93.6293
00000000: aa81 bac2 c570 bac2 94cc ba42 db4b bb42
00000010: 9e81 bbc2 3348 bbc2 5915 bb42 38b7 b942
00000020: a3a2 b9c2 5094 bb42 da3f bbc2 ab72 bbc2
00000030: efdd b9c2 368d bbc2 0a6f bbc2 0d1b bac2
00000040: 6177 bb42 365b bbc2 b0b1 b942 9dc3 bac2
00000050: d8c8 b942 2894 bb42 8706 bbc2 dd25 bbc2
00000060: 9785 bb42 310a bb42 b869 bbc2 680a bbc2
00000070: e302 bc42 705b bac2 bd7a bb42 06bd b842
00000080: 5816 bbc2 1b3d bb42 cf6c ba42 b86e b942
00000090: e8a5 bbc2 ed0c bb42 6260 bbc2 fd1f bbc2
000000a0: 2859 bbc2 3029 b9c2 853a bbc2 c5e1 ba42
000000b0: 9c97 bb42 b51b bbc2 e3ff ba42 8538 b9c2
000000c0: d343 bbc2 9f5f bb42 2f49 bbc2 2392 b942
000000d0: cfaf bac2 9dce b942 e27a bbc2 3442 bbc2
