Final project/competition/savemodel/best_992.pth (torch_old, 668674 bytes, 63 tensors)

price_encoder.attention.weight f4 [1, 90]
000000 29 b8 b9 42 f6 da b9 c2 ea cb b9 42 43 1b b9 42
       92.85969 -92.92766 92.89827 92.553246
000010 1f d1 b9 42 a9 92 b9 42 99 a1 b9 c2 1e 96 b9 c2
       92.90844 92.786446 -92.81562 -92.7932
000020 54 9f b9 42 a5 e7 b9 42 27 21 ba c2 d5 92 b9 42
       92.81119 92.95243 -93.06475 92.78678
000030 25 c4 b9 c2 c3 d5 b9 42 64 a3 b9 42 b5 cf b9 c2
       -92.883095 92.9175 92.81912 -92.90568
000040 e3 90 b9 42 c8 ed b9 42 d5 d7 b9 42 ea fc b9 c2
       92.78298 92.96442 92.92155 -92.99397
000050 9a f3 b9 42 77 ed b9 c2 24 d7 b9 c2 16 b4 b9 42
       92.975784 -92.9638 -92.9202 92.85173
000060 13 f0 b9 42 d7 88 b9 42 84 93 b9 42 07 ab b9 42
       92.968895 92.767265 92.78812 92.83404
000070 a3 94 b9 42 53 ce b9 c2 b1 8b b9 42 d5 9a b9 c2
       92.790306 -92.90298 92.772835 -92.80241
000080 ed 93 b9 42 3e 17 b9 c2 c1 fa b9 42 be ab b9 42
       92.78892 -92.545395 92.98975 92.835434
000090 be 8c b9 c2 c6 9d b9 c2 a9 a8 b9 42 f7 cd b9 42
       -92.77489 -92.80815 92.829414 92.902275
0000a0 42 e6 b9 c2 f7 a2 b9 42 f6 86 b9 c2 56 99 b9 42
       -92.94972 92.81829 -92.763596 92.799484
0000b0 2b a4 b9 42 72 6c b9 c2 af bc b9 42 c7 92 b9 42
       92.82064 -92.71181 92.86852 92.786674
0000c0 4c 0e ba 42 5d fb b9 c2 e2 7b b9 42 d6 79 b9 c2
       93.02792 -92.990944 92.74196 -92.73796
0000d0 b5 af b9 c2 60 c8 b9 42 75 88 b9 42 5b c2 b9 42
       -92.84318 92.89136 92.76652 92.8796
0000e0 3d bd b9 42 39 a6 b9 42 ce cb b9 42 fc c3 b9 c2
       92.869606 92.82465 92.898056 -92.88278
0000f0 a3 b2 b9 c2 21 fb b9 c2 a9 ed b9 c2 a0 c3 b9 c2
       -92.8489 -92.990486 -92.96418 -92.88208
000100 07 c8 b9 c2 71 9a b9 c2 09 aa b9 c2 2e 75 b9 c2
       -92.89068 -92.80164 -92.8321 -92.72887
000110 68 8b b9 c2 b1 af b9 c2 3b d1 b9 c2 01 af b9 c2
       -92.77228 -92.84315 -92.90865 -92.841805
000120 c8 d6 b9 c2 35 8c b9 c2 80 ab b9 c2 0b d0 b9 c2
       -92.919495 -92.77384 -92.83496 -92.906334
000130 50 e9 b9 c2 d2 b7 b9 c2 7f 71 b9 c2 9a 0f ba c2
       -92.95569 -92.859024 -92.72167 -93.03047
000140 2b 39 ba c2 74 f6 b9 c2 ad a7 b9 c2 48 cf b9 c2
       -93.11166 -92.98135 -92.82749 -92.90485
000150 0d a6 b9 c2 62 b6 b9 c2 0e f4 b9 c2 83 f8 b9 c2
       -92.82432 -92.85622 -92.97667 -92.985374
000160 52 a2 b9 c2 70 a3 b9 c2
       -92.81703 -92.819214

price_encoder.encoder.weight_ih_l0 f4 [120, 45]
000000 30 d1 e4 bc 14 e3 29 3e 48 80 b6 3d 68 ba d7 bd
       -0.02793178 0.1659053 0.089111865 -0.10533601
000010 08 94 23 3d 24 e4 f6 3d 24 0e 2b bd 3e 61 82 3d
       0.039936095 0.12055233 -0.041761532 0.06366204
000020 a0 74 35 bc 4c 40 8e 3d 66 d8 07 be a0 f4 0c bd
       -0.011075169 0.069458574 -0.13266143 -0.03441298
000030 00 13 fc 3a 8b 6a f0 bd 32 94 df bd 0e 2a a7 bd
       0.0019231737 -0.117390715 -0.10916938 -0.08162318
000040 a6 44 35 3e 3b 2b c7 bd e0 b5 ef bd e0 b3 2f 3e
       0.17701969 -0.097250424 -0.11704612 0.1715846
000050 95 81 f0 bd cd c2 b9 bd 78 7c bf bc a0 cd 5c 3d
       -0.11743466 -0.090703584 -0.023374781 0.053907037
000060 2a ec 00 be d4 53 ef 3d c0 73 19 bb 99 3b 14 be
       -0.1259009 0.11685911 -0.002341494 -0.1447586
000070 e1 12 08 be 58 8a a2 bd 5b 28 d5 bd 50 b3 c9 3c
       -0.13288452 -0.07936543 -0.10408088 0.024621636
000080 4b 3b 1c be fa cf d0 40 b7 dc b9 42 0f a8 b9 42
       -0.15256993 6.525388 92.93108 92.82824
000090 41 e8 b9 42 07 4f ba 42 7f a2 2c be 96 61 b9 42
       92.95362 93.15435 -0.16858862 92.6906
0000a0 7a 50 b9 42 15 b0 b9 42 8b 87 b9 42 a9 c1 9d bd
       92.65718 92.84391 92.76473 -0.07702953
0000b0 d4 d9 15 3e 37 7c b3 bd 9c ab 16 3e e4 eb c8 3d
       0.14633876 -0.087639265 0.14713901 0.098106176
0000c0 88 b3 83 3c 3c 89 a7 3d ca f5 31 3e 10 2d 0b bc
       0.016076818 0.08180472 0.17378917 -0.00849463
0000d0 5c 01 03 3e b6 d1 24 be 9c 38 95 3d 3d 36 0c be
       0.12793487 -0.16095623 0.07286188 -0.13692565
0000e0 4e 28 33 3e 00 ac bc bb be 6a 03 3e 60 9c de bb
       0.17495844 -0.0057578087 0.12833688 -0.0067935437
0000f0 24 4a 36 3e e8 df b6 bc 68 4e 38 be c0 83 f6 3d
       0.1780172 -0.022323564 -0.1799866 0.12036848
000100 ed 97 8a bd 99 fd 31 be a0 2d b1 3d 62 87 19 be
       -0.06767259 -0.17381896 0.086512804 -0.1499305
000110 00 55 47 bb 8b 4a a4 bd 80 5f f4 3a c8 c3 39 3d
       -0.0030415654 -0.080220304 0.0018644184 0.045352727
000120 40 53 a1 3d e0 21 6a 3d c8 0a e5 bc 74 69 30 bd
       0.07877207 0.057161212 -0.027959242 -0.043069318
000130 cc 25 57 bd 48 18 44 3d d5 78 35 41 a0 43 ba 42
       -0.05252628 0.04787472 11.342 93.13208
000140 60 2d ba 42 66 14 ba 42 90 36 ba 42 f0 07 49 3d
       93.08862 93.03984 93.10657 0.049079835
000150 c8 84 b9 42 9e 96 b9 42 2d 78 b9 42 e2 68 b9 42
       92.75934 92.794174 92.73472 92.70485
000160 4a 53 f7 bd 40 45 56 bd f4 2a 49 bd 0b 78 98 bd
       -0.12076433 -0.052312136 -0.04911323 -0.074447714
000170 06 7a c8 bd e4 03 fa bd 39 fc 28 be ff 40 9b bd
       -0.09788899 -0.12207773 -0.16502465 -0.075807564
000180 1c 02 12 3e 9b 09 ba bd 63 4d d7 bd 50 eb 25 bd
       0.14258617 -0.09083863 -0.10512807 -0.040507615
000190 40 3b f5 bb fc 6b 19 be 6c 71 c3 3d e4 e5 0b 3e
       -0.00748387 -0.14982599 0.09543118 0.13661915
0001a0 f4 d8 67 3d fa 3c 0a be 80 ab 10 3e a0 46 d1 3d
       0.056603387 -0.13499823 0.14127922 0.10218549
0001b0 b0 03 11 3e 08 53 59 bd c0 a6 8a 3d 80 83 a6 3a
       0.14161563 -0.0530577 0.06770086 0.0012703985
0001c0 35 41 24 be a8 c5 9a 3d b4 f3 83 bd 90 e8 49 bc
       -0.160405 0.07557231 -0.06442967 -0.012323514
0001d0 08 ae dc 3c 68 99 26 3e e8 98 0c 3e 8c 7d 2d 3e
       0.026938453 0.16269457 0.13730204 0.16942424
0001e0 18 2a ca 3d ee 24 2d 3e 38 1e af bc f0 82 cb 3f
       0.0987131 0.16908619 -0.021376714 1.5899334
0001f0 d7 0f ba 42 c0 d5 b9 42 b0 b8 b9 42 bb c3 b9 42
       93.03094 92.91748 92.86072 92.882286
000200 d0 96 50 3d bb 9c b9 c2 73 78 b9 c2 28 54 b9 c2
       0.050925076 -92.806114 -92.73525 -92.66437
000210 5b 11 b9 c2 dd e9 20 be 3c e0 35 3e 3c 4a 33 3e
       -92.5339 -0.15714212 0.1776132 0.17508787
000220 67 60 b8 bd e7 b7 2b be e0 16 06 3e e8 e6 12 3d
       -0.09002762 -0.16769372 0.13094664 0.03586474
000230 e4 28 a9 3d 08 58 53 3d ae 1b 1f be ce c7 14 be
       0.082597524 0.051597625 -0.15537903 -0.14529344
000240 c0 4b 87 bc dc 47 fb 3d f3 94 ff bd bc e4 e2 3d
       -0.016515613 0.122695655 -0.12479582 0.11078784
000250 e6 ea 31 3e 00 7d 0b bb 54 db 3d 3d 7c e8 b2 3d
       0.17374763 -0.0021284223 0.046351746 0.08735749
000260 95 53 00 be fe c5 35 3e 24 e3 f6 bd 3c 1c 84 bd
       -0.12531884 0.1775131 -0.120550424 -0.06450698
000270 2c 87 11 3d f4 bf 59 3d 90 b5 ae bc e4 5d 10 3e
       0.0355293 0.053161576 -0.02132681 0.14098316
000280 18 83 e5 3d 75 8c 1f be 6e d9 f5 bd 5c 82 98 3d
       0.11206645 -0.15580924 -0.12004362 0.07446739
000290 59 ff 28 be ec 80 2b be 4b b5 c1 bd 12 f9 7c bd
       -0.16503657 -0.16748399 -0.09458407 -0.06176097
0002a0 6f fc 5a c2 ed 44 ba c2 94 79 ba c2 ed 84 ba c2
       -54.746517 -93.13462 -93.23746 -93.25962
0002b0 18 87 ba c2 20 2f 15 3e 54 31 b9 c2 d5 20 b9 c2
       -93.263855 0.14568758 -92.596344 -92.564125
0002c0 5e 4c b9 c2 38 7e b9 c2 78 85 96 bd a8 73 fa 3c
       -92.649155 -92.74652 -0.07349676 0.030572727
0002d0 56 24 1c 3e 70 b6 e0 3d 64 6b 69 3d 1c b1 47 3d
       0.15248236 0.10972297 0.05698718 0.04875289
0002e0 98 d9 db 3d 64 dd 27 be cc bc 1c be 2c 28 f7 3d
       0.10734862 -0.16393048 -0.15306395 0.12068209
0002f0 f4 44 69 bd 2a cb 32 be 2e a2 16 be fe b9 3a 3e
       -0.056950524 -0.17460313 -0.14710304 0.18235013
000300 6e f7 f6 bd 20 45 01 3c dc 79 01 bd c8 31 87 3c
       -0.12058912 0.007890016 -0.031610355 0.01650323
000310 79 b9 2f be ec 02 12 bd c9 5a b4 bd 1c 39 06 be
       -0.17160596 -0.035647318 -0.088063784 -0.13107723
000320 4a 30 3a be 40 5b 08 3d d8 62 46 bd 66 4d fd bd
       -0.18182483 0.033290148 -0.04843411 -0.12368278
000330 20 4b 7b 3d d4 d4 df 3d d8 1b 5f bd e9 7b 9b bd
       0.06135094 0.109292656 -0.054469913 -0.07591993
000340 48 c1 2f 3e 33 57 1e be bc bf 07 be f0 6b d8 bd
       0.17163575 -0.15462951 -0.13256735 -0.105674624
000350 66 d9 6e bd 59 20 63 c1 df bb b9 42 17 15 b9 42
       -0.058312796 -14.195397 92.866936 92.54119
000360 81 a5 b9 42 4b 19 b9 42 d4 a7 06 bd 6e 3b b9 c2
       92.82325 92.5494 -0.032874897 -92.61607
000370 fc 6e b9 c2 87 60 b9 c2 9b 3e b9 c2 36 3a 08 3e
       -92.71677 -92.68853 -92.62228 0.13303456
000380 c0 a7 e5 3b 3c 9e 06 3e 22 9c 0b 3e 0f ba 07 be
       0.0070085227 0.13146299 0.13633779 -0.1325457
000390 f3 59 9e bd e4 b1 d6 bd b2 37 d0 bd 78 63 82 3d
       -0.07732 -0.10483149 -0.10166873 0.063666284
0003a0 aa 89 ea bd 38 31 0f 3d 94 8b 2f 3d 8f dd c3 bd
       -0.114520386 0.034959048 0.04285772 -0.09563743
0003b0 66 1c 23 3e 33 06 aa bd 78 61 b2 bc bc 8d 48 3d
       0.15928802 -0.08301964 -0.021774992 0.048963293
0003c0 50 a8 cd 3c 00 1c 58 bd 60 b7 ca 3b c3 9b c6 bd
       0.025104672 -0.052761078 0.006186411 -0.09697678
0003d0 7a 54 06 3e 4c 37 b5 3d 04 d1 8b 3d f8 04 36 3e
       0.13118163 0.08848438 0.06826976 0.17775333
0003e0 a6 91 d3 bd b8 9d 02 be fc 0b cc 3d 28 b8 31 be
       -0.103305146 -0.12755477 0.09963223 -0.17355406
0003f0 50 57 b1 3d 68 39 0e 3e 8e 52 a1 bd 18 a6 6d 3d
       0.08659232 0.13889086 -0.07877074 0.058019727

price_encoder.encoder.weight_hh_l0 f4 [120, 30]
000000 bf 9a b9 c2 72 73 b9 42 62 6e b9 c2 8e 90 b9 c2
       -92.80224 92.72548 -92.71559 -92.78233
000010 1e a9 b9 c2 8b 9b b9 c2 89 63 b9 42 b1 c5 b9 42
       -92.83031 -92.803795 92.694405 92.886116
000020 95 b7 b9 c2 35 e9 b9 c2 21 67 b9 42 fa dc b9 c2
       -92.85856 -92.95548 92.70142 -92.931595
000030 c1 9a b9 42 3a e6 b9 c2 8e e8 b9 c2 f1 a4 b9 42
       92.80225 -92.94966 -92.95421 92.82215
000040 68 82 b9 c2 22 b4 b9 c2 89 96 b9 c2 85 e1 b9 42
       -92.7547 -92.85182 -92.794014 92.94047
000050 19 4d b9 c2 11 ac b9 42 64 ad b9 42 5b a0 b9 c2
       -92.65058 92.83607 92.83865 -92.813194
000060 1e ae b9 c2 f3 aa b9 c2 77 ee b9 c2 3a 8c b9 c2
       -92.84007 -92.833885 -92.96575 -92.77388
000070 fe 5f b9 c2 68 c1 b9 42 cc d1 b9 c2 f9 9e b9 42
       -92.687485 92.87775 -92.90976 92.81049
000080 a1 4a b9 c2 89 41 b9 c2 bd 57 b9 c2 a6 a5 b9 c2
       -92.64576 -92.628 -92.671364 -92.82353
000090 94 bb b9 42 8d 21 ba 42 c1 83 b9 c2 9c db b9 c2
       92.86636 93.06553 -92.75733 -92.928925
0000a0 0e 2b b9 42 c3 8c b9 c2 ff 79 b9 42 98 00 ba c2
       92.58409 -92.774925 92.73827 -93.00116
0000b0 06 c6 b9 c2 88 be b9 42 33 e3 b9 c2 ba cf b9 c2
       -92.886765 92.87213 -92.94375 -92.905716
0000c0 6a df b9 c2 70 c5 b9 42 21 54 b9 c2 e5 52 b9 42
       -92.936356 92.88562 -92.664314 92.6619
0000d0 4d 74 b9 42 3b de b9 c2 20 9f b9 c2 46 10 ba c2
       92.72715 -92.934044 -92.81079 -93.031784
0000e0 08 53 b9 c2 fc 70 b9 c2 42 86 b9 c2 ff 96 b9 c2
       -92.66217 -92.72067 -92.76222 -92.794914
0000f0 b6 02 ba c2 33 5f b9 42 97 66 b9 c2 2a 27 b9 42
       -93.005295 92.685936 -92.70037 92.57649
000100 d5 d5 b9 c2 f5 81 b9 c2 7c 08 ba 42 1d a6 b9 42
       -92.91764 -92.75382 93.01657 92.82444
000110 28 73 b9 c2 6e bf b9 c2 0a ab b9 42 f7 9f b9 c2
       -92.724915 -92.873886 92.83406 -92.81243
000120 c0 6a b9 42 c0 e6 b9 c2 5a c8 b9 c2 b6 a7 b9 42
       92.708496 -92.95068 -92.89131 92.82756
000130 c8 16 ba c2 d5 57 b9 c2 8f e8 b9 c2 be 5a b9 42
       -93.044495 -92.67155 -92.954216 92.67723
000140 32 50 b9 c2 f6 77 b9 42 ec c7 b9 42 39 c9 b9 c2
       -92.65663 92.7343 92.89047 -92.89301
000150 ed fa b9 c2 04 9f b9 c2 21 00 ba c2 ef 0b ba c2
       -92.99009 -92.81058 -93.00025 -93.02331
000160 b8 36 b9 c2 6d a9 b9 42 0d 71 b9 42 7f dd b9 c2
       -92.60687 92.83091 92.7208 -92.93261
000170 73 c6 b9 c2 3c c9 b9 42 a9 b3 b9 42 41 1b ba 42
       -92.887596 92.893036 92.8509 93.05323
000180 2f e5 b9 c2 3d ba b9 c2 22 de b9 42 ea 80 b7 c2
       -92.947624 -92.86375 92.93385 -91.751785
000190 f3 72 b9 c2 ac 6e b9 42 63 9c b9 c2 f1 ac b9 42
       -92.72451 92.716156 -92.80544 92.837776
0001a0 49 9c b9 c2 04 b3 b9 c2 34 a4 b9 42 2c df b9 42
       -92.805244 -92.84964 92.82071 92.93588
0001b0 77 6a b9 c2 9c b2 b9 c2 60 26 b9 42 af e4 b9 c2
       -92.70794 -92.84885 92.57495 -92.94665
0001c0 84 95 b9 c2 26 3b b9 42 54 c5 b9 42 b0 57 b9 42
       -92.79202 92.615524 92.88541 92.671265
0001d0 38 ad b9 42 b5 ba b9 42 d1 15 b9 c2 e2 54 b9 42
       92.83832 92.86466 -92.54261 92.66579
0001e0 b5 da b9 c2 f4 9e b9 42 73 63 b9 c2 0d 5b b9 42
       -92.92716 92.810455 -92.69424 92.67783
0001f0 d8 21 b9 c2 30 89 b9 c2 e9 d3 b9 42 8a cd b9 42
       -92.5661 -92.767944 92.91389 92.90144
000200 d6 e3 b9 c2 aa 3d b9 c2 24 8c b9 42 23 de b9 c2
       -92.94499 -92.62044 92.77371 -92.93386
000210 19 cb b9 42 2c 56 b9 c2 41 3f b9 c2 cd 88 b9 42
       92.896675 -92.668304 -92.62354 92.76719
000220 51 cd b9 c2 d7 63 b9 c2 b9 d5 b9 c2 cf 7b b9 42
       -92.90101 -92.695 -92.91743 92.74181
000230 46 57 b9 c2 c7 71 b9 42 28 8d b9 42 c9 34 b9 c2
       -92.670456 92.72222 92.775696 -92.603096
000240 16 71 b9 c2 7f bc b9 c2 4c d5 b9 c2 c6 5c b9 c2
       -92.72087 -92.86816 -92.916595 -92.6812
000250 57 37 b9 c2 33 87 b9 42 e9 bb b9 c2 f5 f8 b9 42
       -92.608086 92.76406 -92.86701 92.986244
000260 93 8d b9 c2 95 50 b9 c2 51 89 b9 c2 63 db b9 c2
       -92.77651 -92.65739 -92.768196 -92.92849
000270 07 d7 b9 42 60 45 ba 42 47 ff b9 c2 b0 7e b9 c2
       92.919975 93.1355 -92.99859 -92.74744
000280 2a 61 b9 42 5b 32 ba c2 6f 90 b9 42 b2 c4 b9 c2
       92.68977 -93.09835 92.7821 -92.88417
000290 2e 4b b9 c2 78 98 b9 42 1e 94 b9 c2 9d eb b9 c2
       -92.646835 92.79779 -92.78929 -92.96018
0002a0 9b 3b b9 c2 43 df b9 42 17 44 b9 c2 20 64 b9 42
       -92.61642 92.93606 -92.63299 92.69556
0002b0 61 ce b9 42 9e 8f b9 c2 f0 06 ba c2 56 83 b9 c2
       92.90308 -92.7805 -93.01355 -92.756516
0002c0 66 79 b9 c2 ef f6 b9 c2 4d 7c b9 c2 df 3a b9 c2
       -92.73711 -92.98229 -92.742775 -92.61498
0002d0 fb cf b9 c2 a3 74 b9 42 98 e8 b9 c2 43 6d b9 c2
       -92.90621 92.727806 -92.954285 -92.7134
0002e0 12 9a b9 c2 ad b8 b9 c2 b2 ac b9 42 2a a1 b9 42
       -92.80092 -92.860695 92.837296 92.81477
0002f0 24 61 b9 c2 13 ae b9 c2 04 c1 b9 42 ee 89 b9 c2
       -92.68973 -92.83999 92.87698 -92.769394
000300 60 59 b9 42 7f 9b b9 c2 d6 3d b9 c2 53 91 b9 42
       92.67456 -92.8037 -92.62077 92.78384
000310 ee fa b9 c2 04 b0 b9 c2 41 30 b9 42 71 aa b9 42
       -92.9901 -92.84378 92.594246 92.83289
000320 3b f1 b9 c2 53 9c b9 42 37 fa b9 42 57 e3 b9 c2
       -92.97115 92.80532 92.9887 -92.94402
000330 b3 bc b9 c2 65 da b9 c2 16 ce b9 c2 98 92 b9 c2
       -92.86855 -92.92655 -92.90251 -92.786316
000340 82 1f b9 c2 9f 3f b9 c2 09 75 b9 c2 99 97 b9 42
       -92.56154 -92.62426 -92.728584 92.79609
000350 e8 77 b9 c2 4f 90 b9 c2 a6 a4 b9 c2 29 fd b9 c2
       -92.73419 -92.78185 -92.82158 -92.99445
000360 ed e9 b9 42 f7 94 b9 42 97 74 b9 c2 01 a4 b9 c2
       92.95689 92.79095 -92.727715 -92.82032
000370 45 98 b9 42 92 ba b9 c2 53 40 b9 42 49 da b9 c2
       92.7974 -92.864395 92.62563 -92.92634
000380 7f dd b9 c2 0d e8 b9 42 be bf b9 c2 6b d3 b9 c2
       -92.93261 92.953224 -92.8745 -92.912926
000390 9c 47 b9 42 96 64 b9 42 2d 41 b9 c2 51 f2 b9 42
       92.63986 92.69646 -92.6273 92.973274
0003a0 cc cc b9 42 bf b3 b9 c2 1c ac b9 c2 c6 eb b9 c2
       92.899994 -92.85107 -92.83615 -92.960495
0003b0 b3 ef b9 c2 76 8f b9 c2 46 8b b8 c2 83 54 b9 c2
       -92.96816 -92.7802 -92.27202 -92.66506
0003c0 cd 72 b9 c2 40 74 b9 42 e5 5c b9 c2 b0 94 b9 c2
       -92.72422 92.72705 -92.681435 -92.790405
0003d0 8f 7b b9 c2 fb e3 b9 c2 97 cf b9 42 14 fa b9 42
       -92.741325 -92.945274 92.90545 92.988434
0003e0 62 7e b9 c2 56 9b b9 c2 35 8c b9 42 66 2e ba c2
       -92.74684 -92.80339 92.77384 -93.09062
0003f0 a2 be b9 42 55 d8 b9 c2 4e bb b9 c2 5a 02 ba 42
       92.87233 -92.92252 -92.86583 93.00459

price_encoder.encoder.bias_ih_l0 f4 [120]
000000 5d 39 ba 42 da 98 ba 42 5e fa b9 42 b2 e7 ba c2
       93.11204 93.29854 92.989 -93.45253
000010 a3 69 b9 42 30 5b ba 42 42 c9 ba 42 96 c6 ba 42
       92.70632 93.1781 93.39308 93.38786
000020 dd 19 ba 42 51 a5 ba 42 a9 b1 b8 42 0f bc ba 42
       93.050514 93.32288 92.34699 93.3673
000030 cb d8 b9 42 21 89 ba 42 0b e8 b9 42 3d 2a ba 42
       92.92342 93.26783 92.95321 93.0825
000040 0c e0 ba 42 dd ed b9 42 b0 16 b9 42 25 e5 b8 42
       93.43759 92.96458 92.54431 92.44755
000050 37 85 b9 42 05 74 ba 42 42 75 ba 42 17 3f ba 42
       92.760185 93.2266 93.22902 93.12322
000060 d1 78 ba 42 cc e9 ba 42 2e fc b9 42 79 96 ba 42
       93.23597 93.456635 92.99254 93.29389
000070 ac 5c b9 42 41 ae b8 42 0c 19 ba 42 0f 44 ba 42
       92.681 92.34034 93.04892 93.13293
000080 88 b5 b9 42 57 58 ba c2 fe 28 b9 42 a1 6b ba 42
       92.85455 -93.17254 92.58006 93.21021
000090 ad 0e ba 42 15 5e ba 42 11 33 ba 42 7d d2 b9 42
       93.02866 93.183754 93.09974 92.91111
0000a0 a7 d3 b8 42 17 5d ba 42 85 76 b9 42 f9 93 ba 42
       92.41338 93.181816 92.73148 93.28901
0000b0 ed 9f b9 42 ca 44 ba 42 4d 7b ba 42 36 fd b9 42
       92.812355 93.13435 93.24082 92.99455
0000c0 23 60 b9 42 6e 17 b9 42 77 74 b9 42 47 d6 b9 42
       92.68777 92.54576 92.72747 92.91851
0000d0 da cd b9 42 97 d4 b9 42 6e 91 ba 42 81 fe b9 42
       92.902054 92.915215 93.28404 92.99708
0000e0 05 0f ba 42 f0 5b ba 42 4d 1b b9 42 11 d7 b8 42
       93.029335 93.179565 92.55332 92.42005
0000f0 14 d8 ba c2 04 fe ba 42 52 85 ba c2 80 ac b9 42
       -93.42203 93.496124 -93.26039 92.836914
000100 49 d9 b9 c2 b6 08 bb c2 c9 2c bb 42 12 b3 bb 42
       -92.924385 -93.51701 93.58747 93.84975
000110 8a f5 ba c2 05 80 bd c2 ba 7d ba 42 e3 58 bc c2
       -93.47957 -94.75004 93.24556 -94.17361
000120 d7 ab ba 42 b1 87 ba c2 0c 66 bc c2 78 ed bc 42
       93.335625 -93.26502 -94.19931 94.463806
000130 ad 21 be c2 84 e2 bc c2 eb cc bb c2 f8 42 ba 42
       -95.06577 -94.44241 -93.90023 93.1308
000140 43 12 ba c2 80 aa ba 42 67 aa bb 42 65 93 bd c2
       -93.03567 93.33301 93.83282 -94.78788
000150 df 2d bb c2 ff cf bc c2 4d e3 bb c2 a5 bb bb c2
       -93.58959 -94.40624 -93.94395 -93.86649
000160 0e 08 c3 c2 40 97 ba 42 31 51 bb 42 e2 c7 bb 42
       -97.51573 93.29541 93.65858 93.890396
000170 ac 4a ba 42 83 06 bb c2 f0 4c b9 42 90 fb bb 42
       93.14584 -93.51272 92.65027 93.99133
000180 89 cc bb 42 4e 9c bb 42 e9 18 bb 42 b4 d6 ba 42
       93.89948 93.80528 93.54865 93.41934
000190 92 4a b8 42 cb 58 bc 42 45 37 ba 42 9e 22 bb 42
       92.145645 94.17342 93.10795 93.56761
0001a0 ea e0 ba 42 61 c8 bb 42 09 c7 bb 42 5a a6 ba 42
       93.439285 93.891365 93.88874 93.324905
0001b0 ea eb b8 42 16 28 b9 42 66 82 b9 42 dd 8b bb 42
       92.46077 92.57829 92.754684 93.77317
0001c0 15 b1 ba 42 1f 3d ba 42 de 7e bb 42 d9 5f bb 42
       93.34586 93.11938 93.74779 93.6872
0001d0 b1 5b ba 42 40 1a bb 42 50 92 b9 42 7b f1 b8 42
       93.179085 93.55127 92.78577 92.47164

price_encoder.encoder.bias_hh_l0 f4 [120]
000000 d4 57 ba 42 ab 38 ba 42 41 fb b9 42 55 82 ba c2
       93.17154 93.11068 92.99073 -93.254555
000010 b8 af b9 42 4b 9d ba 42 5c 4f ba 42 f0 4f ba 42
       92.8432 93.30721 93.155 93.15613
000020 e2 85 ba 42 4b 91 ba 42 b2 d2 b8 42 33 d3 ba 42
       93.26149 93.283775 92.411514 93.4125
000030 46 11 ba 42 34 99 ba 42 81 2b ba 42 51 a0 ba 42
       93.03374 93.299225 93.08497 93.31312
000040 b2 6f ba 42 20 f0 b9 42 ad 92 b9 42 4b d0 b8 42
       93.218155 92.968994 92.786476 92.40682
000050 04 09 ba 42 9f 0c ba 42 3a 4f ba 42 a3 19 ba 42
       93.01761 93.02465 93.15474 93.05007
000060 77 92 ba 42 7b ce ba 42 f7 dc b9 42 97 81 ba 42
       93.286064 93.40328 92.93157 93.253105
000070 62 e8 b8 42 b4 f5 b8 42 04 42 ba 42 e0 55 ba 42
       92.45387 92.47989 93.12894 93.167725
000080 e6 ac b9 42 2f ae ba c2 eb 90 b9 42 ca 55 ba 42
       92.83769 -93.3402 92.78304 93.16756
000090 10 05 ba 42 f6 4f ba 42 76 08 ba 42 1f 38 ba 42
       93.00989 93.15617 93.016525 93.10961
0000a0 f2 ae b8 42 05 75 ba 42 5b 1a ba 42 14 70 ba 42
       92.34169 93.22855 93.051476 93.2189
0000b0 00 af b9 42 af 64 ba 42 02 67 ba 42 e3 2a ba 42
       92.8418 93.19665 93.20119 93.08376
0000c0 59 0b b9 42 df 1b b9 42 b8 69 b9 42 22 5c ba 42
       92.52216 92.554436 92.70648 93.17995
0000d0 8f e0 b9 42 5e eb b9 42 80 5f ba 42 21 6f ba 42
       92.93859 92.9597 93.18652 93.21705
0000e0 63 dd b9 42 d1 f6 b9 42 e5 11 b9 42 a2 c7 b8 42
       92.932396 92.98206 92.53495 92.38991
0000f0 d1 e3 ba c2 b9 35 bb 42 47 19 ba c2 21 60 b9 42
       -93.444954 93.60493 -93.04937 92.68775
000100 c1 d0 b9 c2 ff 07 bb c2 19 e0 ba 42 4d bf bb 42
       -92.90772 -93.51562 93.43769 93.873634
000110 be d5 ba c2 33 28 bd c2 e6 75 ba 42 a6 95 bc c2
       -93.417465 -94.578514 93.23027 -94.29228
000120 66 83 ba 42 f2 ca ba c2 fc 5d bc c2 86 e6 bc 42
       93.25664 -93.39638 -94.18356 94.45024
000130 12 ef bd c2 23 b3 bc c2 31 fb bb c2 6f 21 ba 42
       -94.966934 -94.34988 -93.99061 93.0653
000140 73 0a ba c2 3e 7d ba 42 07 26 bb 42 7b ef bd c2
       -93.02041 93.24461 93.57427 -94.967735
000150 1a 34 bb c2 84 8f bc c2 24 55 bc c2 74 9e bb c2
       -93.60176 -94.280304 -94.16629 -93.80948
000160 ee 0e c3 c2 77 01 bb 42 d3 60 bb 42 6f ce bb 42
       -97.52916 93.50286 93.68911 93.90319
000170 11 11 ba 42 11 0c bb c2 61 59 b9 42 86 3b bc 42
       93.03333 -93.52357 92.67457 94.11626
000180 1f 3d bb 42 24 de bb 42 f1 1d bb 42 20 bf ba 42
       93.61938 93.93387 93.55848 93.37329
000190 2d 70 b8 42 37 c8 bb 42 d8 cb b9 42 94 16 bb 42
       92.21909 93.891045 92.89813 93.5441
0001a0 89 c1 ba 42 87 69 bb 42 e7 41 bb 42 69 d0 ba 42
       93.378 93.70611 93.628716 93.40705
0001b0 ba e2 b8 42 d5 3d b9 42 67 85 b9 42 59 2d bb 42
       92.442825 92.620766 92.76055 93.58857
0001c0 fd 6e ba 42 e9 c4 ba 42 2a e4 bb 42 74 99 bb 42
       93.216774 93.38459 93.94563 93.79971
0001d0 2c 71 ba 42 ed fc ba 42 98 7e b9 42 67 af b8 42
       93.22104 93.493996 92.74725 92.34258

key_encoder.attention.weight f4 [1, 83]
000000 28 dc b8 42 b5 27 b9 42 cc 27 b9 42 1f 3a b9 42
       92.42999 92.57755 92.57773 92.61352
000010 f2 f3 b8 42 5b 11 b9 c2 75 40 b9 42 8f 0a b9 42
       92.476456 -92.5339 92.62589 92.52062
000020 2d 1f b9 42 97 dd b8 42 96 09 b9 42 56 fb b8 42
       92.56089 92.43279 92.51872 92.49089
000030 3c ee b8 42 1c 19 b9 42 c0 eb b8 42 98 99 b9 42
       92.4653 92.54904 92.46045 92.79999
000040 95 e3 b8 42 2a e7 b8 42 8c 3e b9 42 95 19 b9 c2
       92.444496 92.45149 92.62216 -92.549965
000050 57 35 b9 42 c6 30 b9 c2 88 9e b9 42 29 06 b9 c2
       92.60418 -92.59526 92.80963 -92.51203
000060 4b ef b8 42 21 1f b9 42 f7 03 b9 42 98 56 b9 42
       92.46737 92.5608 92.507744 92.66913
000070 5b 0b b9 42 4d 6a b9 42 65 0a b9 42 1d 28 b9 c2
       92.52218 92.70762 92.5203 -92.57835
000080 04 68 b9 42 aa e4 b8 42 75 18 b9 42 c3 33 b9 42
       92.703156 92.44661 92.54777 92.6011
000090 47 16 b9 42 5a 13 b9 42 6b 3f b9 42 a2 56 b9 42
       92.54351 92.537796 92.62386 92.669205
0000a0 f2 5c b9 42 59 2d b9 42 8f 04 b9 42 80 50 b9 42
       92.68153 92.58857 92.5089 92.65723
0000b0 41 07 b9 42 ae 10 b9 c2 2c 39 b9 42 af 15 b9 c2
       92.51417 -92.53258 92.611664 -92.54235
0000c0 3d 73 b9 42 00 14 b9 c2 1b 1c b9 42 c7 37 b9 42
       92.725075 -92.53906 92.55489 92.60894
0000d0 6a db d6 41 03 d6 8e c2 8b 0f a9 c2 a4 8c 59 c2
       26.857136 -71.41799 -84.53036 -54.387344
0000e0 b8 12 5c c2 27 e8 a8 c2 7a 8d b9 c2 06 0e 54 42
       -55.01828 -84.45342 -92.77632 53.013695
0000f0 8d a4 b3 c2 ff a6 b5 c2 0c ed b1 42 37 80 50 42
       -89.82139 -90.826164 88.96298 52.12521
000100 e4 5b b9 c2 a3 22 ac c2 e3 ee b7 c2 57 67 20 c1
       -92.679474 -86.06765 -91.966576 -10.025229
000110 e5 79 15 42 ac 23 b3 c2 ae 28 71 c2 8c 18 b7 c2
       37.369038 -89.56967 -60.289726 -91.54794
000120 31 1b ab c2 a9 e8 b8 c2 22 6b b9 c2 00 23 b9 c2
       -85.55311 -92.454414 -92.70924 -92.56836
000130 e4 13 a1 c2 d1 74 9f c2 60 2d b8 c2 5b b5 b2 c2
       -80.53885 -79.72816 -92.08862 -89.35421
000140 f9 d3 bb 42 06 59 10 c2 56 f7 0f 42
       93.91401 -36.086937 35.99154

key_encoder.encoder.weight_ih_l0 f4 [104, 38]
000000 0c fe b9 42 cc 63 b9 42 03 41 b9 42 0a 8f b9 42
       92.996185 92.694916 92.626976 92.77937
000010 27 49 b9 42 b6 6b b9 42 a7 8d b9 42 f8 30 b9 42
       92.642876 92.71037 92.776665 92.59564
000020 89 a0 b9 42 d3 4c b9 42 8a 5a b9 42 28 ec b9 42
       92.813545 92.65005 92.676834 92.96124
000030 05 8c b9 42 ca 2a b9 42 19 4d b9 42 d5 a1 b9 42
       92.773476 92.58357 92.65058 92.81608
000040 09 c3 b9 42 e2 90 b9 42 61 2b b9 42 62 5e ba 42
       92.88093 92.782974 92.584724 93.18434
000050 78 6f b9 42 83 de b9 42 e4 ae b9 42 f1 52 b9 42
       92.71771 92.93459 92.84158 92.661995
000060 c7 2c b9 42 2e cf b9 42 62 8c b9 42 b3 d5 b9 42
       92.587456 92.90465 92.774185 92.91738
000070 ef 74 ba 42 3e 9b b9 42 1b 3e b9 42 c6 56 b9 42
       93.228386 92.80321 92.6213 92.66948
000080 b9 91 b9 42 7f 56 b9 42 32 cc b9 42 71 1d b9 42
       92.784615 92.66894 92.89882 92.5575
000090 c7 ba b9 42 41 85 b9 42 f4 91 ba 42 65 cb b9 42
       92.8648 92.76026 93.285065 92.897255
0000a0 cf ac b9 42 23 ec b9 42 17 9b b9 42 03 4b b9 42
       92.83752 92.961205 92.80291 92.64651
0000b0 48 57 b9 42 b7 af b9 42 97 f9 b9 42 ca 64 b9 42
       92.67047 92.84319 92.98748 92.69685
0000c0 e1 80 b9 42 4f ea b9 42 cf ff b9 42 b2 46 b9 42
       92.75172 92.957634 92.999626 92.63808
0000d0 cf c0 b9 42 1a c3 b9 42 2a 4c b9 42 2d 8e b9 42
       92.87658 92.88106 92.64876 92.77769
0000e0 78 47 b9 42 7f 74 ba 42 cd 89 b9 42 86 b7 b9 42
       92.63959 93.22753 92.76914 92.858444
0000f0 36 b4 b9 42 3c 83 b9 42 79 57 b9 42 83 d1 b9 42
       92.851974 92.75632 92.670845 92.9092
000100 6d da b9 42 15 cd b9 42 e2 49 ba 42 bc 98 b9 42
       92.92661 92.90055 93.1443 92.79831
000110 eb 80 b9 42 9f a9 b9 42 07 db b9 42 4e 74 b9 42
       92.75179 92.83129 92.92779 92.72716
000120 fa 82 b9 42 b8 a2 b9 42 71 31 b9 42 cc ea b9 42
       92.75581 92.81781 92.596565 92.95859
000130 21 d2 b9 42 1e 5e b9 42 7a 66 b9 42 6a 54 b9 42
       92.91041 92.68382 92.70015 92.66487
000140 1c b9 b9 42 bf cb b9 42 d3 a1 b9 42 17 de b9 42
       92.86154 92.89794 92.81606 92.93377
000150 2f 1f b9 42 b3 b9 b9 42 3a 66 b9 42 34 7b b9 42
       92.560905 92.86269 92.69966 92.74063
000160 7f 8b b9 42 84 c7 b9 42 59 24 b9 42 bb 83 b9 42
       92.77245 92.88968 92.57099 92.757286
000170 88 5f b9 42 07 aa b9 42 92 28 b9 42 44 6d ba 42
       92.686584 92.832085 92.57924 93.21341
000180 b1 1d b9 42 18 69 b9 42 ee 3c b9 42 4b 3a b9 42
       92.55799 92.70526 92.619 92.61385
000190 03 38 b9 42 29 6f b9 42 5c 4b b9 42 90 a9 b9 42
       92.6094 92.71711 92.64719 92.83118
0001a0 4a 11 ba 42 48 3e b9 42 a8 25 b9 42 4b dc b9 42
       93.03377 92.62164 92.57355 92.93026
0001b0 fa c8 b9 42 c5 97 b9 42 22 92 b9 42 fc 8f b9 42
       92.89253 92.796425 92.785416 92.78122
0001c0 93 9a b9 42 61 a4 b9 42 02 07 ba 42 c0 e6 b9 42
       92.8019 92.82105 93.01369 92.95068
0001d0 ff 8a b9 42 39 a8 b9 42 a2 3b b9 42 b6 9d b9 42
       92.77148 92.82856 92.61647 92.80803
0001e0 ec b6 b9 42 7b 66 b9 42 df ab b9 42 12 c6 b9 42
       92.85727 92.70016 92.835686 92.886856
0001f0 ef 7e b9 42 b7 44 b9 42 75 b5 b9 42 bd 5c b9 42
       92.74792 92.63421 92.85441 92.68113
000200 96 9a b9 42 53 9f b9 42 93 37 b9 42 20 99 b9 42
       92.801926 92.81118 92.60854 92.79907
000210 30 64 b9 42 5b 87 ba 42 24 8e b9 42 5b 35 b9 42
       92.69568 93.264366 92.77762 92.60421
000220 1e 7a b9 42 ec 7c b9 42 27 3b b9 42 11 85 b9 42
       92.73851 92.74399 92.61553 92.759895
000230 3b e0 b9 42 f9 9a b9 42 2b 21 ba 42 50 c5 b9 42
       92.93795 92.80268 93.06478 92.885376
000240 6a de b9 42 ab 7d b9 42 30 93 b9 42 26 e7 b9 42
       92.9344 92.745445 92.787476 92.95146
000250 9f 32 b9 42 26 55 b9 42 66 31 b9 42 64 3a b9 42
       92.59887 92.666306 92.59648 92.614044
000260 b5 45 ba 42 4f bb b9 42 94 6d b9 42 4a d2 b9 42
       93.13615 92.86584 92.71402 92.91072
000270 c6 4c b9 42 78 58 b9 42 ee ea b9 42 fb b3 b9 42
       92.64995 92.67279 92.95885 92.851524
000280 f0 52 b9 42 2e 6b b9 42 85 df b9 42 44 55 b9 42
       92.66199 92.709335 92.93656 92.666534
000290 84 6a b9 42 4c 30 b9 42 98 bd b9 42 52 54 b9 42
       92.70804 92.59433 92.8703 92.66469
0002a0 e8 a7 b9 42 52 d2 b9 42 75 a9 b9 42 fc 51 ba 42
       92.82794 92.91078 92.83097 93.160126
0002b0 82 76 b9 42 63 e3 b9 42 02 89 b9 42 09 c1 b9 42
       92.73146 92.944115 92.76759 92.87702
0002c0 1f b4 b9 42 3e e3 b9 42 f4 e0 b9 42 5d 4c b9 42
       92.8518 92.94383 92.93936 92.64915
0002d0 e1 68 ba 42 e8 33 b9 42 cb b2 b9 42 ce 49 b9 42
       93.20484 92.60138 92.849205 92.64415
0002e0 3f 49 b9 42 18 7c b9 42 ae 8a b9 42 b8 80 b9 42
       92.64306 92.74237 92.77086 92.7514
0002f0 96 e5 b9 42 f4 5f b9 42 28 36 ba 42 5c d3 b9 42
       92.94841 92.68741 93.105774 92.91281
000300 1f d4 b9 42 b7 bd b9 42 4e 96 b9 42 b7 3d b9 42
       92.9143 92.87054 92.793564 92.62054
000310 9f c0 b9 42 11 84 b9 42 3a 8b b9 42 6a ca b9 42
       92.87621 92.75794 92.77193 92.89534
000320 9a b7 b9 42 22 5a b9 42 95 d2 b9 42 9c 1b b9 42
       92.8586 92.67604 92.91129 92.553925
000330 16 99 b9 42 0e 1c b9 42 16 fe b8 42 ea a4 b9 42
       92.798996 92.554794 92.49626 92.8221
000340 67 72 b9 42 97 8b ba 42 8d df b9 c2 0a 22 b9 42
       92.72344 93.27264 -92.93662 92.56648
000350 8c 7d b9 42 6b 07 b8 42 b8 ab b9 42 55 f9 ba c2
       92.74521 92.01449 92.83539 -93.48698
000360 1c 7b b9 42 bc 0e b9 42 84 c1 ba 42 ab 8f b9 c2
       92.74045 92.52878 93.37796 -92.7806
000370 a2 26 b9 42 72 8a b9 42 54 d6 b9 42 ad c9 b9 42
       92.575455 92.7704 92.91861 92.8939
000380 1a c4 b9 42 ca a3 b9 42 1e 7e 58 42 fe d9 b9 42
       92.88301 92.8199 54.12316 92.925766
000390 ab 09 ba 42 ac 8e b9 42 91 5c b9 42 90 b2 b9 42
       93.01888 92.778656 92.68079 92.848755
0003a0 9d 80 b9 42 c5 89 b9 42 80 2f b9 42 44 70 b9 42
       92.7512 92.76908 92.59277 92.71927
0003b0 cf 83 b9 42 55 da b9 42 2f 68 b9 42 d6 ab b9 42
       92.75744 92.92643 92.70348 92.83562
0003c0 0f e5 b9 42 40 b8 b9 42 bd 4f b9 42 c4 b0 b9 42
       92.94738 92.85986 92.65574 92.845245
0003d0 a1 48 b9 42 9f be b9 42 24 f4 b9 42 a4 ba ba 42
       92.64185 92.87231 92.97684 93.36453
0003e0 42 c1 b9 42 4d a8 b9 42 8b ac b9 42 0b 69 b9 42
       92.87746 92.82871 92.837 92.70516
0003f0 c4 98 b9 42 fb b4 b9 42 45 2a b9 42 7a 32 b9 42
       92.79837 92.85348 92.58256 92.59859

key_encoder.encoder.weight_hh_l0 f4 [104, 26]
000000 9d 4f b9 c2 ef 90 b9 c2 51 4e b9 c2 45 7d b9 c2
       -92.655495 -92.78307 -92.65296 -92.74467
000010 ce 8f b9 c2 e2 49 b9 42 94 5a b9 c2 b1 33 b9 c2
       -92.78087 92.6443 -92.67691 -92.60096
000020 e0 2d b9 c2 37 71 b9 c2 da ce b9 c2 bf e0 b9 c2
       -92.5896 -92.72112 -92.90401 -92.93896
000030 19 cc b9 c2 81 90 b9 c2 bc 8d b9 c2 97 8e b9 42
       -92.89863 -92.782234 -92.776825 92.778496
000040 1b 97 b9 c2 4f 53 b9 c2 b9 c8 b9 c2 4b 4e b9 42
       -92.79513 -92.66271 -92.89204 92.652916
000050 2e 37 b9 c2 f1 cb b9 42 97 b8 b9 c2 bb 92 b9 42
       -92.60777 92.89832 -92.86053 92.78658
000060 a0 d0 b9 c2 4e 7b b9 c2 d4 da b9 c2 f3 ee b9 c2
       -92.90747 -92.74083 -92.9274 -92.9667
000070 05 4d b9 c2 61 4d b9 c2 d9 d5 b9 c2 a0 d6 b9 42
       -92.65043 -92.65113 -92.91767 92.91919
000080 61 77 b9 c2 fc ce b9 c2 a5 37 ba c2 48 ea b9 c2
       -92.73316 -92.90427 -93.10868 -92.95758
000090 90 68 b9 c2 bd 05 ba c2 c9 81 b9 c2 85 f8 b9 c2
       -92.70422 -93.01121 -92.75349 -92.98539
0000a0 76 df b9 c2 b5 e5 b9 42 c6 f3 b9 c2 87 b5 b9 c2
       -92.93645 92.94865 -92.97612 -92.854546
0000b0 1f 58 b9 c2 57 9c b9 42 86 bc b9 c2 97 ee b9 42
       -92.67211 92.80535 -92.86821 92.965996
0000c0 71 79 b9 42 d3 6f b9 42 0e 9d b9 c2 04 8c b9 c2
       92.73719 92.71841 -92.80675 -92.77347
0000d0 c4 3a b9 c2 b4 60 b9 c2 27 96 b9 c2 6a 49 b9 c2
       -92.61478 -92.68887 -92.79327 -92.64339
0000e0 84 43 b9 c2 5c 3e b9 42 c7 5a b9 c2 12 de b9 c2
       -92.63187 92.621796 -92.6773 -92.93373
0000f0 6c 9b b9 c2 1c 90 b9 c2 d5 81 b9 c2 e4 3b b9 c2
       -92.80356 -92.78146 -92.75358 -92.616974
000100 91 a1 b9 c2 21 a0 b9 c2 dd 58 b9 c2 a4 64 b9 42
       -92.81556 -92.81275 -92.67356 92.69656
000110 c6 4a b9 c2 60 48 b9 c2 9f 31 b9 c2 f6 b8 b9 42
       -92.64604 -92.64136 -92.59692 92.86125
000120 c2 54 b9 c2 41 43 b9 42 7a 4b b9 c2 1e 84 b9 42
       -92.66554 92.631355 -92.647415 92.75804
000130 99 cf b9 c2 d3 49 b9 c2 bb de b9 c2 2a 90 b9 c2
       -92.905464 -92.64419 -92.93502 -92.78157
000140 37 6d b9 c2 a8 45 b9 c2 7c e6 b9 c2 1a eb b9 42
       -92.71331 -92.63605 -92.950165 92.95918
000150 2d 4d b9 c2 40 95 b9 c2 1a 4c b9 c2 8d 68 b9 c2
       -92.650734 -92.791504 -92.648636 -92.7042
000160 08 7c b9 c2 51 81 b9 c2 69 ca b9 c2 d7 4e b9 c2
       -92.74225 -92.75257 -92.89533 -92.653984
000170 2d a6 b9 c2 84 32 b9 42 52 2b b9 c2 b4 81 b9 c2
       -92.82456 92.59866 -92.58461 -92.75333
000180 a2 b8 b9 c2 9c 4e b9 42 d0 df b9 c2 59 a9 b9 42
       -92.86061 92.653534 -92.93713 92.83076
000190 12 bc b9 c2 78 91 b9 42 d1 62 b9 c2 9d 37 b9 c2
       -92.867325 92.78412 -92.693 -92.60862
0001a0 9e 8d b9 c2 34 5d b9 c2 f0 31 b9 c2 f6 ce b9 c2
       -92.776596 -92.68204 -92.597534 -92.90422
0001b0 51 ab b9 c2 a9 86 b9 42 d8 de b9 c2 27 51 b9 c2
       -92.8346 92.76301 -92.93524 -92.6585
0001c0 06 67 b9 c2 ba 45 b9 c2 7e 80 b9 c2 07 9a b9 c2
       -92.70122 -92.636185 -92.75096 -92.800835
0001d0 52 8a b9 c2 2e 67 b9 c2 79 87 b9 c2 51 80 b9 42
       -92.77016 -92.70152 -92.764595 92.75062
0001e0 9c 55 b9 c2 4c 43 b9 c2 59 d3 b9 c2 38 5d b9 42
       -92.667206 -92.63144 -92.91279 92.68207
0001f0 a9 23 b9 c2 27 d6 b9 42 b5 16 b9 c2 3d 7c b9 42
       -92.56965 92.91827 -92.54435 92.74265
000200 44 39 b9 c2 35 53 b9 c2 0e f0 b9 c2 00 4e b9 c2
       -92.61185 -92.66251 -92.96886 -92.65234
000210 75 85 b9 c2 50 3f b9 c2 93 89 b9 c2 74 52 b9 42
       -92.76066 -92.62366 -92.7687 92.66104
000220 c2 8a b9 c2 27 76 b9 c2 cb e7 b9 c2 3a a1 b9 c2
       -92.77101 -92.73077 -92.95272 -92.814896
000230 7e 61 b9 c2 25 8f b9 c2 40 c7 b9 c2 cd 2f b9 c2
       -92.690414 -92.77958 -92.88916 -92.59336
000240 3d 47 b9 c2 49 58 b9 42 a3 aa b9 c2 d5 5f b9 c2
       -92.63914 92.67243 -92.833275 -92.68717
000250 13 d7 b9 c2 06 7d b9 42 3e 60 b9 c2 18 ea b9 42
       -92.92007 92.74419 -92.68797 92.957214
000260 8e 7d b9 c2 71 ed b9 42 18 6e b9 c2 7d 74 b9 c2
       -92.745224 92.96375 -92.71503 -92.727516
000270 2d eb b9 c2 9a 34 b9 c2 16 38 b9 c2 0c 59 b9 c2
       -92.95933 -92.60274 -92.60954 -92.67392
000280 84 5d b9 c2 4e be b9 42 0f f3 b9 c2 2d ea b9 c2
       -92.68265 92.87169 -92.974724 -92.957375
000290 94 ab b9 c2 10 56 b9 c2 8f aa b9 c2 c7 4c b9 c2
       -92.83511 -92.66809 -92.83312 -92.649956
0002a0 a2 58 b9 c2 1b 58 b9 c2 62 ae b9 c2 c4 b6 b9 42
       -92.67311 -92.67208 -92.84059 92.856964
0002b0 b7 e9 b9 c2 8b 8b b9 c2 43 d2 b9 c2 3b 92 b9 42
       -92.956474 -92.772545 -92.91067 92.78561
0002c0 b9 88 b9 c2 40 e1 b9 42 75 b2 b9 c2 65 9d b9 42
       -92.76704 92.93994 -92.84855 92.80741
0002d0 33 2b b9 c2 ef 46 b9 c2 e7 3f b9 c2 04 c1 b9 c2
       -92.58437 -92.63854 -92.62481 -92.87698
0002e0 05 ba b9 c2 f4 01 ba c2 f2 00 ba c2 48 be b9 42
       -92.86332 -93.003815 -93.00185 92.87164
0002f0 3b 6b b9 c2 40 8c b9 c2 b8 6e ba c2 eb 10 ba c2
       -92.709435 -92.773926 -93.21625 -93.03304
000300 6c 5e b9 c2 e2 a1 b9 c2 bb 28 ba c2 4f ed b9 c2
       -92.68442 -92.81618 -93.07955 -92.96349
000310 1e 0a ba c2 0b 97 b9 42 6e 7b b9 c2 58 0e ba c2
       -93.01976 92.795006 -92.74107 -93.028015
000320 a1 5b b9 c2 b2 27 ba 42 6d 08 ba c2 57 98 b9 42
       -92.67896 93.07753 -93.01646 92.79754
000330 22 4e b9 42 32 ff b9 42 b6 b1 b9 c2 4b 8e b9 c2
       92.6526 92.99843 -92.84709 -92.777916
000340 57 4e b9 c2 4a b1 b9 c2 c8 e3 b9 c2 d9 96 b9 c2
       -92.65301 -92.84627 -92.944885 -92.794624
000350 d6 e2 b9 c2 03 a7 b9 42 23 68 b9 c2 ee ed b9 c2
       -92.94304 92.826195 -92.70339 -92.96471
000360 b3 60 ba c2 cb 84 b9 c2 35 69 b9 c2 bd a5 b9 c2
       -93.188866 -92.75936 -92.70548 -92.82371
000370 03 2d ba c2 12 59 b9 c2 da 5e b9 c2 b4 cf b9 42
       -93.08791 -92.673965 -92.68526 92.90567
000380 e4 96 b9 c2 46 c1 b9 c2 28 e8 b9 c2 9d 28 ba 42
       -92.79471 -92.87749 -92.95343 93.07932
000390 93 df b9 c2 ed ff b9 42 72 2d b9 42 68 7c b9 42
       -92.93667 92.999855 92.58876 92.74298
0003a0 9e 2c ba c2 d3 c7 b9 c2 c7 b8 b9 c2 93 02 ba c2
       -93.08714 -92.89028 -92.86089 -93.00503
0003b0 a6 ca b9 c2 e1 9d b9 c2 04 d7 b9 c2 02 21 ba 42
       -92.8958 -92.80836 -92.91995 93.06447
0003c0 f2 cd b9 c2 d2 1a ba c2 48 f5 b9 c2 dc b7 b9 c2
       -92.90224 -93.05238 -92.979065 -92.8591
0003d0 dc 50 b9 c2 ca c3 b9 c2 d5 c1 b9 c2 9c ba b9 c2
       -92.65793 -92.8824 -92.87858 -92.86447
0003e0 0d d6 b9 c2 0d ab b9 42 c0 18 ba c2 65 d4 b9 c2
       -92.91807 92.83408 -93.04834 -92.91483
0003f0 96 d2 b9 c2 9b a2 b9 42 10 d9 b9 c2 0c e2 b9 42
       -92.9113 92.81759 -92.92395 92.9415

key_encoder.encoder.bias_ih_l0 f4 [104]
000000 c0 e1 b9 42 46 c5 ba 42 aa 0a ba 42 a8 be b9 42
       92.94092 93.3853 93.02083 92.872375
000010 07 b9 b9 42 8c 7e ba 42 f2 f5 b9 42 e2 70 bb 42
       92.86138 93.24716 92.98036 93.720474
000020 38 a6 bb 42 e8 7b bb 42 9d e4 ba 42 c2 84 bb 42
       93.824646 93.742004 93.44651 93.75929
000030 0f 51 bb 42 31 82 ba 42 85 07 ba 42 57 03 b9 42
       93.65832 93.25428 93.01469 92.50652
000040 9e d3 ba 42 1a 20 bb 42 2f c6 ba 42 5d 18 bb 42
       93.413315 93.5627 93.38708 93.547585
000050 da a7 bb 42 31 66 ba 42 10 da b9 42 49 f3 b9 42
       93.827835 93.19959 92.9259 92.97517
000060 e0 79 bb 42 d9 03 ba 42 8c 48 b9 42 99 f0 b9 42
       93.73804 93.007515 92.64169 92.96992
000070 d9 82 b9 42 44 46 b9 42 cd d1 b9 42 d8 8e b9 42
       92.75556 92.63724 92.90977 92.77899
000080 9f 7a b9 42 53 ab ba 42 9d 0b bb 42 13 6f ba 42
       92.739494 93.33462 93.52268 93.21694
000090 55 b0 b9 42 6c a1 ba 42 5d 82 ba 42 e5 58 b9 42
       92.8444 93.31528 93.254616 92.67362
0000a0 da 46 b9 42 7b 5d b9 c2 48 fd b9 42 b5 e0 ba 42
       92.63838 -92.68258 92.99469 93.43888
0000b0 64 de b9 42 12 94 b9 42 8d 09 bb 42 8a 77 b9 42
       92.93436 92.7892 93.518654 92.733475
0000c0 b8 68 b9 42 b7 9a b9 42 2f 63 ba 42 a1 8b b9 42
       92.70453 92.80218 93.19372 92.77271
0000d0 ad 67 bb c2 99 51 bb c2 3b 92 ba c2 c5 24 bb c2
       -93.70249 -93.65937 -93.28561 -93.571815
0000e0 be 30 bb c2 d3 ec ba 42 b2 53 ba c2 5c ad bb c2
       -93.5952 93.46255 -93.16347 -93.83859
0000f0 1e e1 bb c2 9f 76 bb c2 14 e6 bc c2 a5 ca bb c2
       -93.93968 -93.73168 -94.44937 -93.89579
000100 9a 65 bb c2 f9 d1 ba c2 04 48 bc c2 a8 8f b9 c2
       -93.69844 -93.4101 -94.140656 -92.78058
000110 37 ae bb c2 6d 98 bb c2 ce 42 bb c2 2a 29 bb 42
       -93.84026 -93.79771 -93.63048 93.5804
000120 b4 b0 bb c2 65 f0 b9 42 82 ee b5 c2 45 6c ba 42
       -93.84512 92.96952 -90.965836 93.211464
000130 cc 66 bb c2 1d 87 bb c2 9a 1a ba 42 dc de ba 42
       -93.700775 -93.76389 93.051956 93.43527
000140 d2 4c ba 42 c1 17 ba 42 b7 c8 b9 42 b6 9c ba 42
       93.15004 93.046394 92.89202 93.306076
000150 02 78 ba 42 6a 97 bb 42 83 66 bd 42 99 18 bc 42
       93.23439 93.79573 94.70022 94.04804
000160 56 fd b9 42 f4 35 bc 42 de bd bb 42 07 48 ba 42
       92.9948 94.10538 93.870834 93.14068
000170 4d b0 b9 42 b9 65 b9 42 be c4 ba 42 11 63 bc 42
       92.84434 92.69868 93.38426 94.19349
000180 41 74 ba 42 e8 e8 ba 42 48 9b bc 42 5d 05 ba 42
       93.22706 93.454895 94.30328 93.010475
000190 0e 16 ba 42 55 7e ba 42 7c e1 bb 42 65 b3 b9 42
       93.043076 93.24674 93.9404 92.85038

key_encoder.encoder.bias_hh_l0 f4 [104]
000000 e6 13 ba 42 7c d3 ba 42 ba fa b9 42 66 ed b9 42
       93.038864 93.413055 92.9897 92.96367
000010 c3 bd b9 42 23 96 ba 42 65 f3 b9 42 28 16 bb 42
       92.87063 93.293236 92.97538 93.543274
000020 90 b7 bb 42 57 99 bb 42 d8 c8 ba 42 30 17 bc 42
       93.85852 93.79949 93.39227 94.04529
000030 d2 43 bb 42 8c 24 ba 42 71 b7 ba 42 5b e6 b8 42
       93.63246 93.07138 93.358284 92.44991
000040 c9 37 bb 42 ff f5 ba 42 ec ec ba 42 fd db ba 42
       93.608955 93.48046 93.46274 93.429665
000050 93 2b bb 42 df 80 ba 42 e2 dc b9 42 2f 62 ba 42
       93.585106 93.2517 92.93141 93.191765
000060 84 1f bb 42 31 43 ba 42 fe 9f b9 42 fa b6 b9 42
       93.561554 93.13123 92.812485 92.857376
000070 3c 92 b9 42 75 30 b9 42 23 4d b9 42 7d ad b9 42
       92.785614 92.59464 92.65066 92.838844
000080 da 5a b9 42 4a 74 ba 42 c1 10 bb 42 0c be ba 42
       92.677444 93.22713 93.53272 93.371185
000090 77 ba b9 42 d3 0e bb 42 41 5c ba 42 0f 53 b9 42
       92.86419 93.52895 93.18018 92.662224
0000a0 24 ca b9 42 7b 92 b9 c2 51 66 ba 42 86 d3 ba 42
       92.894806 -92.786095 93.19984 93.41313
0000b0 19 5c b9 42 41 14 ba 42 93 93 ba 42 5f 91 b9 42
       92.67988 93.03956 93.28823 92.78393
0000c0 c4 76 b9 42 bc b7 b9 42 69 ec ba 42 50 3b b9 42
       92.731964 92.85886 93.46174 92.615845
0000d0 0d 58 bb c2 27 b9 bb c2 23 f1 ba c2 30 db bb c2
       -93.671974 -93.861626 -93.47097 -93.9281
0000e0 84 af ba c2 e0 c3 ba 42 b5 dc b9 c2 cc 7e bb c2
       -93.342804 93.38257 -92.93107 -93.74765
0000f0 48 b2 bb c2 84 13 bb c2 1e 52 bc c2 19 cc bb c2
       -93.848206 -93.53812 -94.160385 -93.89863
000100 7c 92 bb c2 42 2c ba c2 cc 9d bb c2 73 6f b9 c2
       -93.7861 -93.08644 -93.8082 -92.717674
000110 3e a1 bb c2 6c 3c bb c2 70 a5 bb c2 63 39 bb 42
       -93.814926 -93.61801 -93.82312 93.61208
000120 ba 9c bb c2 45 41 ba 42 de 49 b5 c2 2c 67 ba 42
       -93.80611 93.12748 -90.64427 93.20151
000130 b9 97 bb c2 4c 75 bb c2 8e bf b9 42 45 33 ba 42
       -93.79633 -93.729095 92.87413 93.100136
000140 71 f6 b9 42 0f 27 ba 42 0f db b9 42 ed 77 ba 42
       92.98133 93.07629 92.92785 93.23423
000150 c4 00 ba 42 b3 44 bb 42 48 18 bd 42 5b f7 bb 42
       93.001495 93.63418 94.547424 93.983116
000160 f2 a4 b9 42 d1 54 bc 42 06 7b bb 42 c1 33 ba 42
       92.82216 94.16566 93.74028 93.10108
000170 2f 5d ba 42 d5 2e b9 42 ad c8 ba 42 ca 9c bc 42
       93.182 92.59147 93.391945 94.30623
000180 69 e2 b9 42 6b e1 ba 42 69 c0 bc 42 cb 35 ba 42
       92.94221 93.44027 94.3758 93.105064
000190 94 08 ba 42 86 11 ba 42 c6 2c bc 42 29 a8 b9 42
       93.016754 93.034225 94.08745 92.82844

atten_layer.0.weight f4 [56, 168]
000000 1c af fa 3c c3 4e 97 3d 81 3a 9b 3d 1a 16 3a 3d
       0.030601077 0.073880695 0.07579518 0.045431234
000010 a0 2d be 3b 00 99 ca 3c b6 81 16 bd 04 37 91 3c
       0.005803779 0.02473116 -0.036744796 0.017726429
000020 58 5c fa 3c ec d4 1c bd 88 94 61 3c a0 6f 6c 3b
       0.030561611 -0.038288996 0.013768323 0.0036077276
000030 75 5f 8d bd c2 3f 68 3d fa e5 67 3d 60 72 08 3c
       -0.069029726 0.05670143 0.056615807 0.00832805
000040 20 1d 14 bb 54 bf 8d bc 0b 72 92 3d 6a 80 49 bd
       -0.0022600368 -0.017303146 0.07150658 -0.04919473
000050 a8 03 1b 3c eb cd 17 bd d0 56 79 3c 20 85 01 3b
       0.009461321 -0.037061613 0.015218452 0.0019763187
000060 a4 3b 90 bd 62 14 01 3d e4 0b 71 bd c0 8a e9 3a
       -0.070426255 0.03151358 -0.05884923 0.001781784
000070 08 f5 bd 3c a4 b1 b7 3c 90 45 cc 3c 40 fc ba bb
       0.023188129 0.022423573 0.024935514 -0.00570634
000080 e9 fd 83 3d b6 5c 1c bd ca 0e 08 bd 1a fc 48 3d
       0.06444914 -0.038174354 -0.03321723 0.049068548
000090 fb 83 8e 3d 84 fc b4 3c 6c 9d 3f bd 72 3a 7a 3d
       0.06958767 0.022093065 -0.04678099 0.061090894
0000a0 b9 cd 85 3d 34 a3 56 bd 59 6d 91 3d d4 97 bd 3c
       0.06533379 -0.052401736 0.071009345 0.023143686
0000b0 00 80 5b b9 58 d2 cc 3c 58 9b 2f 3d 83 9d 81 3d
       -0.00020933151 0.025002643 0.042872757 0.06328871
0000c0 18 6f 74 3c a0 00 42 3c 2c 1a 6a bd f6 9c 13 3d
       0.014919065 0.011840969 -0.057153866 0.03603836
0000d0 66 94 07 bd a0 7c 8b 3b 24 e7 3d bd d0 92 db 3b
       -0.03310051 0.0042568 -0.04636301 0.006700851
0000e0 f2 7b 7d 3d e0 0c f0 bc c0 60 95 3a 90 e8 09 3d
       0.06188578 -0.029303014 0.0011396632 0.033669055
0000f0 eb 62 79 bd 87 3f 80 3d 27 50 8e 3d 36 ec ad bc
       -0.06088535 0.06262117 0.069488816 -0.021230798
000100 35 1d 9c 3d 87 eb 1c bd 80 69 11 3c f7 17 85 3d
       0.07622758 -0.038310554 0.008875251 0.064987116
000110 db 77 39 bd 22 c0 83 bc c5 bf 9a 3d fc a1 db bc
       -0.04528032 -0.016082827 0.075561084 -0.026810639
000120 24 b9 51 bd d0 4e aa 3b 2c 8a 75 bd ea c1 cf bc
       -0.051201954 0.0051973835 -0.059946224 -0.02536102
000130 40 d0 c3 3a 08 47 73 bd e0 2a a7 bc 52 ea 3b 3d
       0.0014939383 -0.059393913 -0.020406187 0.045877762
000140 d6 01 7f 3d 0b a0 6f bd 20 ac 3b 3d e6 03 28 3d
       0.06225761 -0.05850224 0.045818448 0.041019343
000150 60 55 5e bc e8 95 75 bc cb e8 98 3d e4 e7 33 3d
       -0.01357016 -0.014989354 0.07466277 0.04392232
000160 9e d4 4d 3d 00 14 bb 3a 26 16 62 bd 00 b4 02 3d
       0.050251596 0.0014272928 -0.055196904 0.031909943
000170 60 0b f5 3c e0 f3 d3 bb d0 c1 4f bc d0 50 45 3c
       0.02991265 -0.006468281 -0.012680486 0.012043193
000180 1c 92 37 bd c6 a4 23 bd fe 80 33 3d 66 49 2b bd
       -0.044817075 -0.039952062 0.04382419 -0.041818045
000190 64 d8 30 3d 4e 3b 6a 3d 06 51 14 3d 00 07 a6 3b
       0.043175116 0.057185464 0.036210082 0.0050667524
0001a0 c8 76 b7 bc 36 6f 7e 3d 65 a1 8d 3d 2e 5a 4a 3d
       -0.022395507 0.062117778 0.06915549 0.04940241
0001b0 00 d5 3a 3c b6 c9 da bc 84 16 f6 3c 88 e2 ee bc
       0.011403322 -0.026707511 0.030040033 -0.029160753
0001c0 83 58 b9 42 6e 6d b9 c2 05 83 b9 42 29 5c b9 c2
       92.672874 -92.71373 92.7559 -92.68
0001d0 4b 64 b9 c2 f5 80 b9 42 58 6d b9 c2 0b 8f b9 c2
       -92.695885 92.75187 -92.71356 -92.77938
0001e0 4e 62 b9 42 53 89 b9 42 4b 69 b9 42 36 85 b9 42
       92.692 92.76821 92.70565 92.76018
0001f0 47 7b b9 c2 3f 68 b9 42 85 43 b9 42 52 73 b9 c2
       -92.740776 92.703606 92.631874 -92.725235
000200 22 84 b9 42 74 44 b9 42 3b 59 b9 c2 e7 3e b9 42
       92.75807 92.6337 -92.67428 92.622856
000210 4a 82 b9 42 fa 76 b9 c2 32 5a b9 c2 77 71 b9 42
       92.75447 -92.732376 -92.67616 92.72161
000220 77 57 b9 42 3c 5b b9 42 ba 73 b9 42 32 6c b9 42
       92.67083 92.67819 92.72603 92.71132
000230 7f 41 b9 42 81 70 b9 42 04 92 b9 c2 00 a3 b9 c2
       92.62792 92.719734 -92.78519 -92.81836
000240 61 88 b9 c2 a5 8e b9 c2 bb 89 b9 c2 f3 6b b9 42
       -92.766365 -92.7786 -92.769005 92.71084
000250 cc 70 b9 c2 49 83 b9 c2 49 e2 b9 c2 09 c2 b9 c2
       -92.72031 -92.75642 -92.94196 -92.878975
000260 db a3 b9 c2 33 99 b9 c2 18 a8 b9 c2 aa 88 b9 c2
       -92.82003 -92.79922 -92.82831 -92.76692
000270 6b 96 b9 c2 70 52 b9 c2 29 7b b9 c2 8a 8b b9 c2
       -92.793785 -92.66101 -92.74055 -92.77254
000280 67 92 b9 c2 0f 64 b9 42 44 b3 b9 c2 96 6c b9 42
       -92.78594 92.69543 -92.85013 92.71208
000290 ed 58 b9 c2 e6 6c b9 42 b7 82 b9 c2 44 5e b9 c2
       -92.67368 92.71269 -92.7553 -92.68411
0002a0 08 70 d5 bc 86 ff 7e 3d ba 31 74 3d 20 05 6e 3b
       -0.026054397 0.062255405 0.059617735 0.0036318973
0002b0 30 a6 bb 3b 6c 28 bd bc 00 fe a7 3a 73 af 9a 3d
       0.005726598 -0.023090564 0.0012816787 0.075529955
0002c0 c0 5d 7b bb 7f 00 81 3d 25 6e 38 bd f0 47 0c bd
       -0.003835544 0.06298923 -0.045026917 -0.034248292
0002d0 b4 7b 0d 3d 96 20 41 3d 44 94 30 3d 8a 49 53 3d
       0.0345418 0.047150217 0.043110147 0.051583804
0002e0 30 be 99 bb 5f b2 36 bd 58 0a 13 bc e2 90 e5 bc
       -0.0046918616 -0.0446037 -0.008974634 -0.028023187
0002f0 fe db 57 3d 5c d0 89 3c 08 77 ce bc 4a d2 3e 3d
       0.052700035 0.016822986 -0.025203243 0.046587266
000300 10 a5 a3 bb de ad 3d 3d cd 4a 81 3d 82 99 71 3d
       -0.004994042 0.04630839 0.06313095 0.058984287
000310 90 45 77 bc 5e 4b 0f bd 8e 7d 0f 3d 33 fd 84 3d
       -0.015092269 -0.034983985 0.035031848 0.064936064
000320 f8 68 d7 3c 9f 92 8e bd 60 ff 29 bb d6 f2 1e 3d
       0.02629517 -0.069615595 -0.002593957 0.038805805
000330 30 be d8 3b aa eb 24 3d dc 50 d9 bc bb a4 94 3d
       0.006614469 0.04026381 -0.026527815 0.07257982
000340 72 5c 8b bd 4c 2a d4 3c 98 8c 93 bd b4 82 80 bd
       -0.06804742 0.025899075 -0.072045505 -0.0627493
000350 90 7d 18 3c 40 98 99 ba d4 fd f3 bc 6e ea d2 bc
       0.00930728 -0.0011718348 -0.02978412 -0.02574655
000360 fa 23 45 3d 80 ca 8a 3a 32 e6 47 3d 6b 86 81 bd
       0.048130013 0.0010588914 0.048803516 -0.06324466
000370 82 75 95 bd da 20 7c bd 06 64 ca bc fc 7f 89 bd
       -0.072978035 -0.061554767 -0.024705898 -0.06713864
000380 9e 46 3e 3d 88 a6 fd 3c ac b6 8e bd ea a6 56 3d
       0.046454065 0.030963197 -0.06968436 0.052405275
000390 04 26 20 bd 80 75 32 3d 0a 4e 1f 3d 4c 27 e0 bc
       -0.039098755 0.043569088 0.038892783 -0.027362488
0003a0 a0 f9 41 3d d6 dd a7 bc 58 44 6a bd 5b ae 84 3d
       0.0473572 -0.020491522 -0.057194084 0.06478568
0003b0 a0 76 c0 3b 1c 81 e3 3c ba 32 76 3d 98 28 0e 3c
       0.005873516 0.027771525 0.06010697 0.0086766705
0003c0 18 b4 bf 3c 84 33 47 bd 15 78 6b bd a0 21 47 3c
       0.023401305 -0.048633114 -0.057487566 0.012154013
0003d0 ce f3 fb bc ba 14 6a 3d 70 64 37 bd 29 07 8d 3d
       -0.030755904 0.057148673 -0.04477352 0.06886131
0003e0 23 5c 9c bd 3f 62 9b 3d 7e aa 5d 3d 4c 91 27 3d
       -0.07634761 0.07587098 0.054117672 0.04091005
0003f0 b1 5e 97 3d 44 1f bd 3c 40 86 54 3c aa 88 4c 3d
       0.07391108 0.023086198 0.012971461 0.04993502
