Final project/competition/savemodel/best_999.pth (torch_old, 668674 bytes, 63 tensors)

price_encoder.attention.weight f4 [1, 90]
000000 d9 07 bb 42 a6 2a bb c2 9a 1b bb 42 f3 6a ba 42
       93.51533 -93.5833 93.55391 93.208885
000010 cf 20 bb 42 59 e2 ba 42 49 f1 ba c2 ce e5 ba c2
       93.56408 93.442085 -93.47126 -93.44884
000020 04 ef ba 42 55 37 bb 42 d7 70 bb c2 85 e2 ba 42
       93.46683 93.60807 -93.72039 93.44242
000030 d5 13 bb c2 73 25 bb 42 14 f3 ba 42 65 1f bb c2
       -93.538734 93.57314 93.47476 -93.56132
000040 93 e0 ba 42 78 3d bb 42 85 27 bb 42 9a 4c bb c2
       93.43862 93.620056 93.57719 -93.64961
000050 4a 43 bb 42 27 3d bb c2 d4 26 bb c2 c6 03 bb 42
       93.631424 -93.61944 -93.575836 93.50737
000060 c3 3f bb 42 87 d8 ba 42 34 e3 ba 42 b7 fa ba 42
       93.624535 93.422905 93.443756 93.48968
000070 53 e4 ba 42 03 1e bb c2 61 db ba 42 85 ea ba c2
       93.445946 -93.55862 93.428474 -93.458046
000080 9d e3 ba 42 ee 66 ba c2 71 4a bb 42 6e fb ba 42
       93.44456 -93.201035 93.64539 93.49107
000090 6e dc ba c2 76 ed ba c2 59 f8 ba 42 a7 1d bb 42
       -93.43053 -93.46379 93.485054 93.557915
0000a0 f2 35 bb c2 a7 f2 ba 42 a6 d6 ba c2 06 e9 ba 42
       -93.60536 93.47393 -93.419235 93.455124
0000b0 db f3 ba 42 22 bc ba c2 5f 0c bb 42 77 e2 ba 42
       93.47628 -93.36745 93.52416 93.442314
0000c0 fc 5d bb 42 0d 4b bb c2 92 cb ba 42 86 c9 ba c2
       93.68356 -93.64658 93.3976 -93.3936
0000d0 65 ff ba c2 10 18 bb 42 25 d8 ba 42 0b 12 bb 42
       -93.49882 93.547 93.42216 93.53524
0000e0 ed 0c bb 42 e9 f5 ba 42 7e 1b bb 42 ac 13 bb c2
       93.525246 93.48029 93.553696 -93.53842
0000f0 53 02 bb c2 d1 4a bb c2 59 3d bb c2 50 13 bb c2
       -93.50454 -93.646126 -93.61982 -93.53772
000100 b7 17 bb c2 21 ea ba c2 b9 f9 ba c2 de c4 ba c2
       -93.54632 -93.45728 -93.48774 -93.38451
000110 18 db ba c2 61 ff ba c2 eb 20 bb c2 b1 fe ba c2
       -93.42792 -93.49879 -93.56429 -93.497444
000120 78 26 bb c2 e5 db ba c2 30 fb ba c2 bb 1f bb c2
       -93.575134 -93.42948 -93.4906 -93.56197
000130 00 39 bb c2 82 07 bb c2 2f c1 ba c2 4a 5f bb c2
       -93.61133 -93.51466 -93.37731 -93.68611
000140 db 88 bb c2 24 46 bb c2 5d f7 ba c2 f8 1e bb c2
       -93.767296 -93.63699 -93.48313 -93.560486
000150 bd f5 ba c2 12 06 bb c2 be 43 bb c2 33 48 bb c2
       -93.47996 -93.511856 -93.63231 -93.641014
000160 02 f2 ba c2 20 f3 ba c2
       -93.47267 -93.47485

price_encoder.encoder.weight_ih_l0 f4 [120, 45]
000000 30 d1 e4 bc 14 e3 29 3e 48 80 b6 3d 68 ba d7 bd
       -0.02793178 0.1659053 0.089111865 -0.10533601
000010 08 94 23 3d 24 e4 f6 3d 24 0e 2b bd 3e 61 82 3d
       0.039936095 0.12055233 -0.041761532 0.06366204
000020 a0 74 35 bc 4c 40 8e 3d 66 d8 07 be a0 f4 0c bd
       -0.011075169 0.069458574 -0.13266143 -0.03441298
000030 00 13 fc 3a 8b 6a f0 bd 32 94 df bd 0e 2a a7 bd
       0.0019231737 -0.117390715 -0.10916938 -0.08162318
000040 a6 44 35 3e 3b 2b c7 bd e0 b5 ef bd e0 b3 2f 3e
       0.17701969 -0.097250424 -0.11704612 0.1715846
000050 95 81 f0 bd cd c2 b9 bd 78 7c bf bc a0 cd 5c 3d
       -0.11743466 -0.090703584 -0.023374781 0.053907037
000060 2a ec 00 be d4 53 ef 3d c0 73 19 bb 99 3b 14 be
       -0.1259009 0.11685911 -0.002341494 -0.1447586
000070 e1 12 08 be 58 8a a2 bd 5b 28 d5 bd 50 b3 c9 3c
       -0.13288452 -0.07936543 -0.10408088 0.024621636
000080 4b 3b 1c be aa 48 d2 40 67 2c bb 42 bf f7 ba 42
       -0.15256993 6.57137 93.58672 93.48388
000090 f1 37 bb 42 b7 9e bb 42 7f a2 2c be 46 b1 ba 42
       93.60926 93.80999 -0.16858862 93.34624
0000a0 2a a0 ba 42 c5 ff ba 42 3b d7 ba 42 a9 c1 9d bd
       93.31282 93.49955 93.42037 -0.07702953
0000b0 d4 d9 15 3e 37 7c b3 bd 9c ab 16 3e e4 eb c8 3d
       0.14633876 -0.087639265 0.14713901 0.098106176
0000c0 88 b3 83 3c 3c 89 a7 3d ca f5 31 3e 10 2d 0b bc
       0.016076818 0.08180472 0.17378917 -0.00849463
0000d0 5c 01 03 3e b6 d1 24 be 9c 38 95 3d 3d 36 0c be
       0.12793487 -0.16095623 0.07286188 -0.13692565
0000e0 4e 28 33 3e 00 ac bc bb be 6a 03 3e 60 9c de bb
       0.17495844 -0.0057578087 0.12833688 -0.0067935437
0000f0 24 4a 36 3e e8 df b6 bc 68 4e 38 be c0 83 f6 3d
       0.1780172 -0.022323564 -0.1799866 0.12036848
000100 ed 97 8a bd 99 fd 31 be a0 2d b1 3d 62 87 19 be
       -0.06767259 -0.17381896 0.086512804 -0.1499305
000110 00 55 47 bb 8b 4a a4 bd 80 5f f4 3a c8 c3 39 3d
       -0.0030415654 -0.080220304 0.0018644184 0.045352727
000120 40 53 a1 3d e0 21 6a 3d c8 0a e5 bc 74 69 30 bd
       0.07877207 0.057161212 -0.027959242 -0.043069318
000130 cc 25 57 bd 48 18 44 3d f5 c5 36 41 50 93 bb 42
       -0.05252628 0.04787472 11.423329 93.78772
000140 10 7d bb 42 16 64 bb 42 40 86 bb 42 f0 07 49 3d
       93.74426 93.69548 93.76221 0.049079835
000150 78 d4 ba 42 4e e6 ba 42 dd c7 ba 42 92 b8 ba 42
       93.41498 93.449814 93.39036 93.36049
000160 4a 53 f7 bd 40 45 56 bd f4 2a 49 bd 0b 78 98 bd
       -0.12076433 -0.052312136 -0.04911323 -0.074447714
000170 06 7a c8 bd e4 03 fa bd 39 fc 28 be ff 40 9b bd
       -0.09788899 -0.12207773 -0.16502465 -0.075807564
000180 1c 02 12 3e 9b 09 ba bd 63 4d d7 bd 50 eb 25 bd
       0.14258617 -0.09083863 -0.10512807 -0.040507615
000190 40 3b f5 bb fc 6b 19 be 6c 71 c3 3d e4 e5 0b 3e
       -0.00748387 -0.14982599 0.09543118 0.13661915
0001a0 f4 d8 67 3d fa 3c 0a be 80 ab 10 3e a0 46 d1 3d
       0.056603387 -0.13499823 0.14127922 0.10218549
0001b0 b0 03 11 3e 08 53 59 bd c0 a6 8a 3d 80 83 a6 3a
       0.14161563 -0.0530577 0.06770086 0.0012703985
0001c0 35 41 24 be a8 c5 9a 3d b4 f3 83 bd 90 e8 49 bc
       -0.160405 0.07557231 -0.06442967 -0.012323514
0001d0 08 ae dc 3c 68 99 26 3e e8 98 0c 3e 8c 7d 2d 3e
       0.026938453 0.16269457 0.13730204 0.16942424
0001e0 18 2a ca 3d ee 24 2d 3e 38 1e af bc 30 d5 cc 3f
       0.0987131 0.16908619 -0.021376714 1.600256
0001f0 87 5f bb 42 70 25 bb 42 60 08 bb 42 6b 13 bb 42
       93.68658 93.57312 93.51636 93.537926
000200 d0 96 50 3d 6b ec ba c2 23 c8 ba c2 d8 a3 ba c2
       0.050925076 -93.461754 -93.39089 -93.32001
000210 0b 61 ba c2 dd e9 20 be 3c e0 35 3e 3c 4a 33 3e
       -93.18954 -0.15714212 0.1776132 0.17508787
000220 67 60 b8 bd e7 b7 2b be e0 16 06 3e e8 e6 12 3d
       -0.09002762 -0.16769372 0.13094664 0.03586474
000230 e4 28 a9 3d 08 58 53 3d ae 1b 1f be ce c7 14 be
       0.082597524 0.051597625 -0.15537903 -0.14529344
000240 c0 4b 87 bc dc 47 fb 3d f3 94 ff bd bc e4 e2 3d
       -0.016515613 0.122695655 -0.12479582 0.11078784
000250 e6 ea 31 3e 00 7d 0b bb 54 db 3d 3d 7c e8 b2 3d
       0.17374763 -0.0021284223 0.046351746 0.08735749
000260 95 53 00 be fe c5 35 3e 24 e3 f6 bd 3c 1c 84 bd
       -0.12531884 0.1775131 -0.120550424 -0.06450698
000270 2c 87 11 3d f4 bf 59 3d 90 b5 ae bc e4 5d 10 3e
       0.0355293 0.053161576 -0.02132681 0.14098316
000280 18 83 e5 3d 75 8c 1f be 6e d9 f5 bd 5c 82 98 3d
       0.11206645 -0.15580924 -0.12004362 0.07446739
000290 59 ff 28 be ec 80 2b be 4b b5 c1 bd 12 f9 7c bd
       -0.16503657 -0.16748399 -0.09458407 -0.06176097
0002a0 9f 89 5c c2 9d 94 bb c2 44 c9 bb c2 9d d4 bb c2
       -55.134396 -93.79026 -93.8931 -93.91526
0002b0 c8 d6 bb c2 20 2f 15 3e 04 81 ba c2 85 70 ba c2
       -93.919495 0.14568758 -93.25198 -93.219765
0002c0 0e 9c ba c2 e8 cd ba c2 78 85 96 bd a8 73 fa 3c
       -93.304794 -93.40216 -0.07349676 0.030572727
0002d0 56 24 1c 3e 70 b6 e0 3d 64 6b 69 3d 1c b1 47 3d
       0.15248236 0.10972297 0.05698718 0.04875289
0002e0 98 d9 db 3d 64 dd 27 be cc bc 1c be 2c 28 f7 3d
       0.10734862 -0.16393048 -0.15306395 0.12068209
0002f0 f4 44 69 bd 2a cb 32 be 2e a2 16 be fe b9 3a 3e
       -0.056950524 -0.17460313 -0.14710304 0.18235013
000300 6e f7 f6 bd 20 45 01 3c dc 79 01 bd c8 31 87 3c
       -0.12058912 0.007890016 -0.031610355 0.01650323
000310 79 b9 2f be ec 02 12 bd c9 5a b4 bd 1c 39 06 be
       -0.17160596 -0.035647318 -0.088063784 -0.13107723
000320 4a 30 3a be 40 5b 08 3d d8 62 46 bd 66 4d fd bd
       -0.18182483 0.033290148 -0.04843411 -0.12368278
000330 20 4b 7b 3d d4 d4 df 3d d8 1b 5f bd e9 7b 9b bd
       0.06135094 0.109292656 -0.054469913 -0.07591993
000340 48 c1 2f 3e 33 57 1e be bc bf 07 be f0 6b d8 bd
       0.17163575 -0.15462951 -0.13256735 -0.105674624
000350 66 d9 6e bd c9 b7 64 c1 8f 0b bb 42 c7 64 ba 42
       -0.058312796 -14.294869 93.522575 93.19683
000360 31 f5 ba 42 fb 68 ba 42 d4 a7 06 bd 1e 8b ba c2
       93.47889 93.20504 -0.032874897 -93.27171
000370 ac be ba c2 37 b0 ba c2 4b 8e ba c2 36 3a 08 3e
       -93.372406 -93.34417 -93.277916 0.13303456
000380 c0 a7 e5 3b 3c 9e 06 3e 22 9c 0b 3e 0f ba 07 be
       0.0070085227 0.13146299 0.13633779 -0.1325457
000390 f3 59 9e bd e4 b1 d6 bd b2 37 d0 bd 78 63 82 3d
       -0.07732 -0.10483149 -0.10166873 0.063666284
0003a0 aa 89 ea bd 38 31 0f 3d 94 8b 2f 3d 8f dd c3 bd
       -0.114520386 0.034959048 0.04285772 -0.09563743
0003b0 66 1c 23 3e 33 06 aa bd 78 61 b2 bc bc 8d 48 3d
       0.15928802 -0.08301964 -0.021774992 0.048963293
0003c0 50 a8 cd 3c 00 1c 58 bd 60 b7 ca 3b c3 9b c6 bd
       0.025104672 -0.052761078 0.006186411 -0.09697678
0003d0 7a 54 06 3e 4c 37 b5 3d 04 d1 8b 3d f8 04 36 3e
       0.13118163 0.08848438 0.06826976 0.17775333
0003e0 a6 91 d3 bd b8 9d 02 be fc 0b cc 3d 28 b8 31 be
       -0.103305146 -0.12755477 0.09963223 -0.17355406
0003f0 50 57 b1 3d 68 39 0e 3e 8e 52 a1 bd 18 a6 6d 3d
       0.08659232 0.13889086 -0.07877074 0.058019727

price_encoder.encoder.weight_hh_l0 f4 [120, 30]
000000 6f ea ba c2 22 c3 ba 42 12 be ba c2 3e e0 ba c2
       -93.45788 93.38112 -93.37123 -93.43797
000010 ce f8 ba c2 3b eb ba c2 39 b3 ba 42 61 15 bb 42
       -93.48595 -93.459435 93.350044 93.541756
000020 45 07 bb c2 e5 38 bb c2 d1 b6 ba 42 aa 2c bb c2
       -93.5142 -93.61112 93.35706 -93.587234
000030 71 ea ba 42 ea 35 bb c2 3e 38 bb c2 a1 f4 ba 42
       93.45789 -93.6053 -93.60985 93.47779
000040 18 d2 ba c2 d2 03 bb c2 39 e6 ba c2 35 31 bb 42
       -93.41034 -93.50746 -93.44965 93.59611
000050 c9 9c ba c2 c1 fb ba 42 14 fd ba 42 0b f0 ba c2
       -93.30622 93.49171 93.49429 -93.468834
000060 ce fd ba c2 a3 fa ba c2 27 3e bb c2 ea db ba c2
       -93.49571 -93.489525 -93.62139 -93.42952
000070 ae af ba c2 18 11 bb 42 7c 21 bb c2 a9 ee ba 42
       -93.343124 93.53339 -93.5654 93.46613
000080 51 9a ba c2 39 91 ba c2 6d a7 ba c2 56 f5 ba c2
       -93.3014 -93.28364 -93.327 -93.47917
000090 44 0b bb 42 3d 71 bb 42 71 d3 ba c2 4c 2b bb c2
       93.522 93.72117 -93.41297 -93.584564
0000a0 be 7a ba 42 73 dc ba c2 af c9 ba 42 48 50 bb c2
       93.23973 -93.430565 93.39391 -93.6568
0000b0 b6 15 bb c2 38 0e bb 42 e3 32 bb c2 6a 1f bb c2
       -93.542404 93.52777 -93.59939 -93.561356
0000c0 1a 2f bb c2 20 15 bb 42 d1 a3 ba c2 95 a2 ba 42
       -93.591995 93.54126 -93.319954 93.31754
0000d0 fd c3 ba 42 eb 2d bb c2 d0 ee ba c2 f6 5f bb c2
       93.38279 -93.58968 -93.46643 -93.68742
0000e0 b8 a2 ba c2 ac c0 ba c2 f2 d5 ba c2 af e6 ba c2
       -93.31781 -93.37631 -93.41786 -93.450554
0000f0 66 52 bb c2 e3 ae ba 42 47 b6 ba c2 da 76 ba 42
       -93.660934 93.341576 -93.35601 93.23213
000100 85 25 bb c2 a5 d1 ba c2 2c 58 bb 42 cd f5 ba 42
       -93.57328 -93.40946 93.67221 93.48008
000110 d8 c2 ba c2 1e 0f bb c2 ba fa ba 42 a7 ef ba c2
       -93.380554 -93.529526 93.4897 -93.46807
000120 70 ba ba 42 70 36 bb c2 0a 18 bb c2 66 f7 ba 42
       93.364136 -93.60632 -93.54695 93.4832
000130 78 66 bb c2 85 a7 ba c2 3f 38 bb c2 6e aa ba 42
       -93.700134 -93.32719 -93.609856 93.33287
000140 e2 9f ba c2 a6 c7 ba 42 9c 17 bb 42 e9 18 bb c2
       -93.31227 93.38994 93.54611 -93.54865
000150 9d 4a bb c2 b4 ee ba c2 d1 4f bb c2 9f 5b bb c2
       -93.64573 -93.46622 -93.65589 -93.67895
000160 68 86 ba c2 1d f9 ba 42 bd c0 ba 42 2f 2d bb c2
       -93.26251 93.48655 93.37644 -93.58825
000170 23 16 bb c2 ec 18 bb 42 59 03 bb 42 f1 6a bb 42
       -93.543236 93.548676 93.50654 93.70887
000180 df 34 bb c2 ed 09 bb c2 d2 2d bb 42 9a d0 b8 c2
       -93.603264 -93.51939 93.58949 -92.407425
000190 a3 c2 ba c2 5c be ba 42 13 ec ba c2 a1 fc ba 42
       -93.38015 93.371796 -93.46108 93.493416
0001a0 f9 eb ba c2 b4 02 bb c2 e4 f3 ba 42 dc 2e bb 42
       -93.460884 -93.50528 93.47635 93.59152
0001b0 27 ba ba c2 4c 02 bb c2 10 76 ba 42 5f 34 bb c2
       -93.36358 -93.504486 93.23059 -93.60229
0001c0 34 e5 ba c2 d6 8a ba 42 04 15 bb 42 60 a7 ba 42
       -93.44766 93.271164 93.541046 93.326904
0001d0 e8 fc ba 42 65 0a bb 42 81 65 ba c2 92 a4 ba 42
       93.49396 93.5203 -93.19825 93.32143
0001e0 65 2a bb c2 a4 ee ba 42 23 b3 ba c2 bd aa ba 42
       -93.5828 93.466095 -93.34988 93.33347
0001f0 88 71 ba c2 e0 d8 ba c2 99 23 bb 42 3a 1d bb 42
       -93.22174 -93.423584 93.56953 93.55708
000200 86 33 bb c2 5a 8d ba c2 d4 db ba 42 d3 2d bb c2
       -93.60063 -93.27608 93.42935 -93.5895
000210 c9 1a bb 42 dc a5 ba c2 f1 8e ba c2 7d d8 ba 42
       93.552315 -93.323944 -93.27918 93.42283
000220 01 1d bb c2 87 b3 ba c2 69 25 bb c2 7f cb ba 42
       -93.55665 -93.35064 -93.57307 93.39745
000230 f6 a6 ba c2 77 c1 ba 42 d8 dc ba 42 79 84 ba c2
       -93.326096 93.37786 93.431335 -93.258736
000240 c6 c0 ba c2 2f 0c bb c2 fc 24 bb c2 76 ac ba c2
       -93.37651 -93.523796 -93.572235 -93.33684
000250 07 87 ba c2 e3 d6 ba 42 99 0b bb c2 a5 48 bb 42
       -93.263725 93.4197 -93.52265 93.641884
000260 43 dd ba c2 45 a0 ba c2 01 d9 ba c2 13 2b bb c2
       -93.43215 -93.31303 -93.423836 -93.58413
000270 b7 26 bb 42 10 95 bb 42 f7 4e bb c2 60 ce ba c2
       93.575615 93.79114 -93.65423 -93.403076
000280 da b0 ba 42 0b 82 bb c2 1f e0 ba 42 62 14 bb c2
       93.34541 -93.75399 93.43774 -93.53981
000290 de 9a ba c2 28 e8 ba 42 ce e3 ba c2 4d 3b bb c2
       -93.302475 93.45343 -93.44493 -93.61582
0002a0 4b 8b ba c2 f3 2e bb 42 c7 93 ba c2 d0 b3 ba 42
       -93.27206 93.5917 -93.28863 93.3512
0002b0 11 1e bb 42 4e df ba c2 a0 56 bb c2 06 d3 ba c2
       93.55872 -93.43614 -93.66919 -93.412155
0002c0 16 c9 ba c2 9f 46 bb c2 fd cb ba c2 8f 8a ba c2
       -93.392746 -93.63793 -93.398415 -93.27062
0002d0 ab 1f bb c2 53 c4 ba 42 48 38 bb c2 f3 bc ba c2
       -93.56185 93.383446 -93.609924 -93.36904
0002e0 c2 e9 ba c2 5d 08 bb c2 62 fc ba 42 da f0 ba 42
       -93.45656 -93.516335 93.492935 93.47041
0002f0 d4 b0 ba c2 c3 fd ba c2 b4 10 bb 42 9e d9 ba c2
       -93.34537 -93.49563 93.53262 -93.42503
000300 10 a9 ba 42 2f eb ba c2 86 8d ba c2 03 e1 ba 42
       93.3302 -93.45934 -93.27641 93.439476
000310 9e 4a bb c2 b4 ff ba c2 f1 7f ba 42 21 fa ba 42
       -93.64574 -93.49942 93.249886 93.48853
000320 eb 40 bb c2 03 ec ba 42 e7 49 bb 42 07 33 bb c2
       -93.62679 93.46096 93.64434 -93.59966
000330 63 0c bb c2 15 2a bb c2 c6 1d bb c2 48 e2 ba c2
       -93.52419 -93.58219 -93.55815 -93.441956
000340 32 6f ba c2 4f 8f ba c2 b9 c4 ba c2 49 e7 ba 42
       -93.21718 -93.2799 -93.384224 93.45173
000350 98 c7 ba c2 ff df ba c2 56 f4 ba c2 d9 4c bb c2
       -93.38983 -93.43749 -93.47722 -93.65009
000360 9d 39 bb 42 a7 e4 ba 42 47 c4 ba c2 b1 f3 ba c2
       93.612526 93.44659 -93.383354 -93.47596
000370 f5 e7 ba 42 42 0a bb c2 03 90 ba 42 f9 29 bb c2
       93.45304 -93.520035 93.28127 -93.58198
000380 2f 2d bb c2 bd 37 bb 42 6e 0f bb c2 1b 23 bb c2
       -93.58825 93.608864 -93.530136 -93.568565
000390 4c 97 ba 42 46 b4 ba 42 dd 90 ba c2 01 42 bb 42
       93.2955 93.3521 -93.282936 93.628914
0003a0 7c 1c bb 42 6f 03 bb c2 cc fb ba c2 76 3b bb c2
       93.55563 -93.50671 -93.49179 -93.616135
0003b0 63 3f bb c2 26 df ba c2 f6 da b9 c2 33 a4 ba c2
       -93.6238 -93.43584 -92.92766 -93.3207
0003c0 7d c2 ba c2 f0 c3 ba 42 95 ac ba c2 60 e4 ba c2
       -93.37986 93.38269 -93.337074 -93.446045
0003d0 3f cb ba c2 ab 33 bb c2 47 1f bb 42 c4 49 bb 42
       -93.396965 -93.600914 93.56109 93.64407
0003e0 12 ce ba c2 06 eb ba c2 e5 db ba 42 16 7e bb c2
       -93.40248 -93.45903 93.42948 -93.74626
0003f0 52 0e bb 42 05 28 bb c2 fe 0a bb c2 0a 52 bb 42
       93.52797 -93.57816 -93.52147 93.66023

price_encoder.encoder.bias_ih_l0 f4 [120]
000000 0d 89 bb 42 8a e8 bb 42 0e 4a bb 42 62 37 bc c2
       93.76768 93.95418 93.64464 -94.10817
000010 53 b9 ba 42 e0 aa bb 42 f2 18 bc 42 46 16 bc 42
       93.36196 93.83374 94.04872 94.0435
000020 8d 69 bb 42 01 f5 bb 42 59 01 ba 42 bf 0b bc 42
       93.706154 93.97852 93.00263 94.02294
000030 7b 28 bb 42 d1 d8 bb 42 bb 37 bb 42 ed 79 bb 42
       93.57906 93.92347 93.60885 93.73814
000040 bc 2f bc 42 8d 3d bb 42 60 66 ba 42 d5 34 ba 42
       94.09323 93.62022 93.19995 93.10319
000050 e7 d4 ba 42 b5 c3 bb 42 f2 c4 bb 42 c7 8e bb 42
       93.415825 93.88224 93.88466 93.77886
000060 81 c8 bb 42 7c 39 bc 42 de 4b bb 42 29 e6 bb 42
       93.89161 94.112274 93.64818 93.94953
000070 5c ac ba 42 f1 fd b9 42 bc 68 bb 42 bf 93 bb 42
       93.33664 92.99598 93.70456 93.78857
000080 38 05 bb 42 07 a8 bb c2 ae 78 ba 42 51 bb bb 42
       93.51019 -93.82818 93.2357 93.86585
000090 5d 5e bb 42 c5 ad bb 42 c1 82 bb 42 2d 22 bb 42
       93.6843 93.83939 93.75538 93.56675
0000a0 57 23 ba 42 c7 ac bb 42 35 c6 ba 42 a9 e3 bb 42
       93.06902 93.837456 93.38712 93.94465
0000b0 9d ef ba 42 7a 94 bb 42 fd ca bb 42 e6 4c bb 42
       93.467995 93.78999 93.89646 93.65019
0000c0 d3 af ba 42 1e 67 ba 42 27 c4 ba 42 f7 25 bb 42
       93.34341 93.2014 93.38311 93.57415
0000d0 8a 1d bb 42 47 24 bb 42 1e e1 bb 42 31 4e bb 42
       93.55769 93.570854 93.93968 93.65272
0000e0 b5 5e bb 42 a0 ab bb 42 fd 6a ba 42 c1 26 ba 42
       93.684975 93.835205 93.20896 93.07569
0000f0 c4 27 bc c2 b4 4d bc 42 02 d5 bb c2 30 fc ba 42
       -94.07767 94.151764 -93.91603 93.49255
000100 f9 28 bb c2 66 58 bc c2 79 7c bc 42 c2 02 bd 42
       -93.580025 -94.17265 94.24311 94.50539
000110 3a 45 bc c2 b5 cf be c2 6a cd bb 42 93 a8 bd c2
       -94.13521 -95.40568 93.9012 -94.82925
000120 87 fb bb 42 61 d7 bb c2 bc b5 bd c2 28 3d be 42
       93.991264 -93.92066 -94.85495 95.119446
000130 5d 71 bf c2 34 32 be c2 9b 1c bd c2 a8 92 bb 42
       -95.72141 -95.09805 -94.55587 93.78644
000140 f3 61 bb c2 30 fa bb 42 17 fa bc 42 15 e3 be c2
       -93.69131 93.98865 94.48846 -95.44352
000150 8f 7d bc c2 af 1f be c2 fd 32 bd c2 55 0b bd c2
       -94.24523 -95.06188 -94.59959 -94.52213
000160 be 57 c4 c2 f0 e6 bb 42 e1 a0 bc 42 92 17 bd 42
       -98.17137 93.95105 94.31422 94.546036
000170 5c 9a bb 42 33 56 bc c2 a0 9c ba 42 40 4b bd 42
       93.80148 -94.16836 93.30591 94.64697
000180 39 1c bd 42 fe eb bc 42 99 68 bc 42 64 26 bc 42
       94.55512 94.46092 94.20429 94.07498
000190 42 9a b9 42 7b a8 bd 42 f5 86 bb 42 4e 72 bc 42
       92.801285 94.82906 93.76359 94.22325
0001a0 9a 30 bc 42 11 18 bd 42 b9 16 bd 42 0a f6 bb 42
       94.094925 94.547005 94.54438 93.980545
0001b0 9a 3b ba 42 c6 77 ba 42 16 d2 ba 42 8d db bc 42
       93.11641 93.23393 93.410324 94.42881
0001c0 c5 00 bc 42 cf 8c bb 42 8e ce bc 42 89 af bc 42
       94.0015 93.77502 94.40343 94.34284
0001d0 61 ab bb 42 f0 69 bc 42 00 e2 ba 42 2b 41 ba 42
       93.834724 94.20691 93.44141 93.12728

price_encoder.encoder.bias_hh_l0 f4 [120]
000000 84 a7 bb 42 5b 88 bb 42 f1 4a bb 42 05 d2 bb c2
       93.82718 93.76632 93.64637 -93.910194
000010 68 ff ba 42 fb ec bb 42 0c 9f bb 42 a0 9f bb 42
       93.49884 93.96285 93.81064 93.81177
000020 92 d5 bb 42 fb e0 bb 42 62 22 ba 42 e3 22 bc 42
       93.91713 93.939415 93.067154 94.06814
000030 f6 60 bb 42 e4 e8 bb 42 31 7b bb 42 01 f0 bb 42
       93.68938 93.954865 93.74061 93.96876
000040 62 bf bb 42 d0 3f bb 42 5d e2 ba 42 fb 1f ba 42
       93.873795 93.62463 93.442116 93.06246
000050 b4 58 bb 42 4f 5c bb 42 ea 9e bb 42 53 69 bb 42
       93.67325 93.68029 93.81038 93.70571
000060 27 e2 bb 42 2b 1e bc 42 a7 2c bb 42 47 d1 bb 42
       93.9417 94.05892 93.58721 93.908745
000070 12 38 ba 42 64 45 ba 42 b4 91 bb 42 90 a5 bb 42
       93.10951 93.13553 93.78458 93.823364
000080 96 fc ba 42 df fd bb c2 9b e0 ba 42 7a a5 bb 42
       93.49333 -93.99584 93.43868 93.8232
000090 c0 54 bb 42 a6 9f bb 42 26 58 bb 42 cf 87 bb 42
       93.66553 93.81181 93.672165 93.76525
0000a0 a2 fe b9 42 b5 c4 bb 42 0b 6a bb 42 c4 bf bb 42
       92.99733 93.88419 93.707115 93.87454
0000b0 b0 fe ba 42 5f b4 bb 42 b2 b6 bb 42 93 7a bb 42
       93.49744 93.85229 93.85683 93.7394
0000c0 09 5b ba 42 8f 6b ba 42 68 b9 ba 42 d2 ab bb 42
       93.1778 93.210075 93.36212 93.83559
0000d0 3f 30 bb 42 0e 3b bb 42 30 af bb 42 d1 be bb 42
       93.59423 93.61534 93.84216 93.87269
0000e0 13 2d bb 42 81 46 bb 42 95 61 ba 42 52 17 ba 42
       93.588036 93.6377 93.19059 93.04555
0000f0 81 33 bc c2 69 85 bc 42 f7 68 bb c2 d1 af ba 42
       -94.10059 94.26057 -93.70501 93.34339
000100 71 20 bb c2 af 57 bc c2 c9 2f bc 42 fd 0e bd 42
       -93.56336 -94.17126 94.09333 94.529274
000110 6e 25 bc c2 e3 77 be c2 96 c5 bb 42 56 e5 bd c2
       -94.073105 -95.23415 93.88591 -94.94792
000120 16 d3 bb 42 a2 1a bc c2 ac ad bd c2 36 36 be 42
       93.91228 -94.05202 -94.8392 95.10588
000130 c2 3e bf c2 d3 02 be c2 e1 4a bd c2 1f 71 bb 42
       -95.622574 -95.005516 -94.64625 93.72094
000140 23 5a bb c2 ee cc bb 42 b7 75 bc 42 2b 3f bf c2
       -93.67605 93.90025 94.22991 -95.623375
000150 ca 83 bc c2 34 df bd c2 d4 a4 bd c2 24 ee bc c2
       -94.2574 -94.93594 -94.82193 -94.46512
000160 9e 5e c4 c2 27 51 bc 42 83 b0 bc 42 1f 1e bd 42
       -98.1848 94.1585 94.34475 94.55883
000170 c1 60 bb 42 c1 5b bc c2 11 a9 ba 42 36 8b bd 42
       93.68897 -94.17921 93.33021 94.7719
000180 cf 8c bc 42 d4 2d bd 42 a1 6d bc 42 d0 0e bc 42
       94.27502 94.58951 94.21412 94.02893
000190 dd bf b9 42 e7 17 bd 42 88 1b bb 42 44 66 bc 42
       92.87473 94.546684 93.55377 94.19974
0001a0 39 11 bc 42 37 b9 bc 42 97 91 bc 42 19 20 bc 42
       94.03364 94.36175 94.284355 94.06269
0001b0 6a 32 ba 42 85 8d ba 42 17 d5 ba 42 09 7d bc 42
       93.098465 93.276405 93.41619 94.24421
0001c0 ad be bb 42 99 14 bc 42 da 33 bd 42 24 e9 bc 42
       93.87241 94.04023 94.60127 94.45535
0001d0 dc c0 bb 42 9d 4c bc 42 48 ce ba 42 17 ff b9 42
       93.87668 94.149635 93.40289 92.99822

key_encoder.attention.weight f4 [1, 83]
000000 d8 2b ba 42 65 77 ba 42 7c 77 ba 42 cf 89 ba 42
       93.08563 93.23319 93.23337 93.26916
000010 a2 43 ba 42 0b 61 ba c2 25 90 ba 42 3f 5a ba 42
       93.132095 -93.18954 93.28153 93.17626
000020 dd 6e ba 42 47 2d ba 42 46 59 ba 42 06 4b ba 42
       93.21653 93.08843 93.17436 93.14653
000030 ec 3d ba 42 cc 68 ba 42 70 3b ba 42 48 e9 ba 42
       93.12094 93.20468 93.11609 93.45563
000040 45 33 ba 42 da 36 ba 42 3c 8e ba 42 45 69 ba c2
       93.100136 93.10713 93.2778 -93.205605
000050 07 85 ba 42 76 80 ba c2 38 ee ba 42 d9 55 ba c2
       93.25982 -93.2509 93.46527 -93.16767
000060 fb 3e ba 42 d1 6e ba 42 a7 53 ba 42 48 a6 ba 42
       93.12301 93.21644 93.16338 93.32477
000070 0b 5b ba 42 fd b9 ba 42 15 5a ba 42 cd 77 ba c2
       93.17782 93.36326 93.17594 -93.233986
000080 b4 b7 ba 42 5a 34 ba 42 25 68 ba 42 73 83 ba 42
       93.358795 93.10225 93.20341 93.25674
000090 f7 65 ba 42 0a 63 ba 42 1b 8f ba 42 52 a6 ba 42
       93.19915 93.193436 93.2795 93.324844
0000a0 a2 ac ba 42 09 7d ba 42 3f 54 ba 42 30 a0 ba 42
       93.33717 93.24421 93.16454 93.31287
0000b0 f1 56 ba 42 5e 60 ba c2 dc 88 ba 42 5f 65 ba c2
       93.16981 -93.18822 93.2673 -93.19799
0000c0 ed c2 ba 42 b0 63 ba c2 cb 6b ba 42 77 87 ba 42
       93.380714 -93.1947 93.21053 93.26458
0000d0 aa 9c d1 41 b3 25 90 c2 3b 5f aa c2 04 2c 5c c2
       26.201496 -72.07363 -85.186 -55.042984
0000e0 18 b2 5e c2 d7 37 aa c2 2a dd ba c2 64 ac 56 42
       -55.67392 -85.10906 -93.43196 53.66835
0000f0 3d f4 b4 c2 af f6 b6 c2 f3 f6 b2 42 97 1f 53 42
       -90.47703 -91.481804 89.48232 52.78085
000100 94 ab ba c2 53 72 ad c2 93 3e b9 c2 67 e7 2a c1
       -93.33511 -86.72329 -92.622215 -10.681495
000110 85 da 12 42 5c 73 b4 c2 0e c8 73 c2 3c 68 b8 c2
       36.713398 -90.22531 -60.945366 -92.20358
000120 e1 6a ac c2 59 38 ba c2 d2 ba ba c2 b0 72 ba c2
       -86.20875 -93.110054 -93.36488 -93.224
000130 94 63 a2 c2 81 c4 a0 c2 10 7d b9 c2 0b 05 b4 c2
       -81.19449 -80.3838 -92.74426 -90.00985
000140 a9 23 bd 42 66 f8 12 c2 b6 96 12 42
       94.56965 -36.742577 36.64718

key_encoder.encoder.weight_ih_l0 f4 [104, 38]
000000 bc 4d bb 42 7c b3 ba 42 b3 90 ba 42 ba de ba 42
       93.651825 93.350555 93.282616 93.43501
000010 d7 98 ba 42 66 bb ba 42 57 dd ba 42 a8 80 ba 42
       93.298515 93.36601 93.432304 93.25128
000020 39 f0 ba 42 83 9c ba 42 3a aa ba 42 d8 3b bb 42
       93.469185 93.30569 93.33247 93.61688
000030 b5 db ba 42 7a 7a ba 42 c9 9c ba 42 85 f1 ba 42
       93.429115 93.23921 93.30622 93.47172
000040 b9 12 bb 42 92 e0 ba 42 11 7b ba 42 12 ae bb 42
       93.53657 93.438614 93.240364 93.83998
000050 28 bf ba 42 33 2e bb 42 94 fe ba 42 a1 a2 ba 42
       93.37335 93.59023 93.49722 93.317635
000060 77 7c ba 42 de 1e bb 42 12 dc ba 42 63 25 bb 42
       93.243095 93.56029 93.429825 93.57302
000070 9f c4 bb 42 ee ea ba 42 cb 8d ba 42 76 a6 ba 42
       93.884026 93.45885 93.27694 93.32512
000080 69 e1 ba 42 2f a6 ba 42 e2 1b bb 42 21 6d ba 42
       93.440254 93.32458 93.55446 93.21314
000090 77 0a bb 42 f1 d4 ba 42 a4 e1 bb 42 15 1b bb 42
       93.52044 93.4159 93.940704 93.552895
0000a0 7f fc ba 42 d3 3b bb 42 c7 ea ba 42 b3 9a ba 42
       93.49316 93.616844 93.45855 93.30215
0000b0 f8 a6 ba 42 67 ff ba 42 47 49 bb 42 7a b4 ba 42
       93.32611 93.49883 93.64312 93.35249
0000c0 91 d0 ba 42 ff 39 bb 42 7f 4f bb 42 62 96 ba 42
       93.40736 93.61327 93.655266 93.29372
0000d0 7f 10 bb 42 ca 12 bb 42 da 9b ba 42 dd dd ba 42
       93.53222 93.5367 93.3044 93.43333
0000e0 28 97 ba 42 2f c4 bb 42 7d d9 ba 42 36 07 bb 42
       93.29523 93.88317 93.42478 93.514084
0000f0 e6 03 bb 42 ec d2 ba 42 29 a7 ba 42 33 21 bb 42
       93.507614 93.41196 93.326485 93.56484
000100 1d 2a bb 42 c5 1c bb 42 92 99 bb 42 6c e8 ba 42
       93.58225 93.55619 93.79994 93.45395
000110 9b d0 ba 42 4f f9 ba 42 b7 2a bb 42 fe c3 ba 42
       93.40743 93.48693 93.58343 93.3828
000120 aa d2 ba 42 68 f2 ba 42 21 81 ba 42 7c 3a bb 42
       93.41145 93.47345 93.252205 93.61423
000130 d1 21 bb 42 ce ad ba 42 2a b6 ba 42 1a a4 ba 42
       93.56605 93.33946 93.35579 93.32051
000140 cc 08 bb 42 6f 1b bb 42 83 f1 ba 42 c7 2d bb 42
       93.51718 93.55358 93.4717 93.58941
000150 df 6e ba 42 63 09 bb 42 ea b5 ba 42 e4 ca ba 42
       93.216545 93.51833 93.3553 93.39627
000160 2f db ba 42 34 17 bb 42 09 74 ba 42 6b d3 ba 42
       93.42809 93.54532 93.22663 93.412926
000170 38 af ba 42 b7 f9 ba 42 42 78 ba 42 f4 bc bb 42
       93.342224 93.487724 93.23488 93.86905
000180 61 6d ba 42 c8 b8 ba 42 9e 8c ba 42 fb 89 ba 42
       93.21363 93.3609 93.27464 93.26949
000190 b3 87 ba 42 d9 be ba 42 0c 9b ba 42 40 f9 ba 42
       93.26504 93.37275 93.302826 93.48682
0001a0 fa 60 bb 42 f8 8d ba 42 58 75 ba 42 fb 2b bb 42
       93.68941 93.27728 93.22919 93.5859
0001b0 aa 18 bb 42 75 e7 ba 42 d2 e1 ba 42 ac df ba 42
       93.54817 93.452065 93.441055 93.43686
0001c0 43 ea ba 42 11 f4 ba 42 b2 56 bb 42 70 36 bb 42
       93.45754 93.47669 93.66933 93.60632
0001d0 af da ba 42 e9 f7 ba 42 52 8b ba 42 66 ed ba 42
       93.42712 93.4842 93.27211 93.46367
0001e0 9c 06 bb 42 2b b6 ba 42 8f fb ba 42 c2 15 bb 42
       93.51291 93.3558 93.491325 93.542496
0001f0 9f ce ba 42 67 94 ba 42 25 05 bb 42 6d ac ba 42
       93.40356 93.28985 93.51005 93.33677
000200 46 ea ba 42 03 ef ba 42 43 87 ba 42 d0 e8 ba 42
       93.457565 93.46682 93.26418 93.45471
000210 e0 b3 ba 42 0b d7 bb 42 d4 dd ba 42 0b 85 ba 42
       93.35132 93.920006 93.43326 93.25985
000220 ce c9 ba 42 9c cc ba 42 d7 8a ba 42 c1 d4 ba 42
       93.39415 93.39963 93.27117 93.415535
000230 eb 2f bb 42 a9 ea ba 42 db 70 bb 42 00 15 bb 42
       93.59359 93.45832 93.72042 93.541016
000240 1a 2e bb 42 5b cd ba 42 e0 e2 ba 42 d6 36 bb 42
       93.59004 93.401085 93.443115 93.6071
000250 4f 82 ba 42 d6 a4 ba 42 16 81 ba 42 14 8a ba 42
       93.25451 93.321945 93.25212 93.269684
000260 65 95 bb 42 ff 0a bb 42 44 bd ba 42 fa 21 bb 42
       93.79179 93.52148 93.36966 93.56636
000270 76 9c ba 42 28 a8 ba 42 9e 3a bb 42 ab 03 bb 42
       93.30559 93.32843 93.61449 93.507164
000280 a0 a2 ba 42 de ba ba 42 35 2f bb 42 f4 a4 ba 42
       93.31763 93.364975 93.5922 93.322174
000290 34 ba ba 42 fc 7f ba 42 48 0d bb 42 02 a4 ba 42
       93.36368 93.24997 93.52594 93.32033
0002a0 98 f7 ba 42 02 22 bb 42 25 f9 ba 42 ac a1 bb 42
       93.48358 93.56642 93.48661 93.815765
0002b0 32 c6 ba 42 13 33 bb 42 b2 d8 ba 42 b9 10 bb 42
       93.3871 93.599754 93.42323 93.53266
0002c0 cf 03 bb 42 ee 32 bb 42 a4 30 bb 42 0d 9c ba 42
       93.50744 93.59947 93.595 93.30479
0002d0 91 b8 bb 42 98 83 ba 42 7b 02 bb 42 7e 99 ba 42
       93.86048 93.25702 93.504845 93.29979
0002e0 ef 98 ba 42 c8 cb ba 42 5e da ba 42 68 d0 ba 42
       93.2987 93.39801 93.4265 93.40704
0002f0 46 35 bb 42 a4 af ba 42 d8 85 bb 42 0c 23 bb 42
       93.60405 93.34305 93.76141 93.56845
000300 cf 23 bb 42 67 0d bb 42 fe e5 ba 42 67 8d ba 42
       93.56994 93.52618 93.4492 93.27618
000310 4f 10 bb 42 c1 d3 ba 42 ea da ba 42 1a 1a bb 42
       93.53185 93.41358 93.42757 93.55098
000320 4a 07 bb 42 d2 a9 ba 42 45 22 bb 42 4c 6b ba 42
       93.51424 93.33168 93.56693 93.209564
000330 c6 e8 ba 42 be 6b ba 42 c6 4d ba 42 9a f4 ba 42
       93.454636 93.210434 93.1519 93.47774
000340 17 c2 ba 42 47 db bb 42 3d 2f bb c2 ba 71 ba 42
       93.37908 93.928276 -93.59226 93.22212
000350 3c cd ba 42 1b 57 b9 42 68 fb ba 42 05 49 bc c2
       93.40085 92.67013 93.49103 -94.14262
000360 cc ca ba 42 6c 5e ba 42 34 11 bc 42 5b df ba c2
       93.39609 93.18442 94.0336 -93.43624
000370 52 76 ba 42 22 da ba 42 04 26 bb 42 5d 19 bb 42
       93.231094 93.42604 93.57425 93.54954
000380 ca 13 bb 42 7a f3 ba 42 7e 1d 5b 42 ae 29 bb 42
       93.53865 93.47554 54.7788 93.581406
000390 5b 59 bb 42 5c de ba 42 41 ac ba 42 40 02 bb 42
       93.67452 93.434296 93.33643 93.504395
0003a0 4d d0 ba 42 75 d9 ba 42 30 7f ba 42 f4 bf ba 42
       93.40684 93.42472 93.24841 93.37491
0003b0 7f d3 ba 42 05 2a bb 42 df b7 ba 42 86 fb ba 42
       93.41308 93.58207 93.35912 93.49126
0003c0 bf 34 bb 42 f0 07 bb 42 6d 9f ba 42 74 00 bb 42
       93.60302 93.5155 93.31138 93.500885
0003d0 51 98 ba 42 4f 0e bb 42 d4 43 bb 42 54 0a bc 42
       93.29749 93.52795 93.63248 94.02017
0003e0 f2 10 bb 42 fd f7 ba 42 3b fc ba 42 bb b8 ba 42
       93.5331 93.48435 93.49264 93.3608
0003f0 74 e8 ba 42 ab 04 bb 42 f5 79 ba 42 2a 82 ba 42
       93.45401 93.50912 93.2382 93.25423

key_encoder.encoder.weight_hh_l0 f4 [104, 26]
000000 4d 9f ba c2 9f e0 ba c2 01 9e ba c2 f5 cc ba c2
       -93.311134 -93.43871 -93.3086 -93.40031
000010 7e df ba c2 92 99 ba 42 44 aa ba c2 61 83 ba c2
       -93.43651 93.29994 -93.33255 -93.2566
000020 90 7d ba c2 e7 c0 ba c2 8a 1e bb c2 6f 30 bb c2
       -93.24524 -93.37676 -93.55965 -93.5946
000030 c9 1b bb c2 31 e0 ba c2 6c dd ba c2 47 de ba 42
       -93.55427 -93.437874 -93.432465 93.434135
000040 cb e6 ba c2 ff a2 ba c2 69 18 bb c2 fb 9d ba 42
       -93.45077 -93.31835 -93.547676 93.308556
000050 de 86 ba c2 a1 1b bb 42 47 08 bb c2 6b e2 ba 42
       -93.26341 93.55396 -93.51617 93.44222
000060 50 20 bb c2 fe ca ba c2 84 2a bb c2 a3 3e bb c2
       -93.56311 -93.39647 -93.58304 -93.62234
000070 b5 9c ba c2 11 9d ba c2 89 25 bb c2 50 26 bb 42
       -93.30607 -93.30677 -93.57331 93.57483
000080 11 c7 ba c2 ac 1e bb c2 55 87 bb c2 f8 39 bb c2
       -93.3888 -93.559906 -93.76432 -93.61322
000090 40 b8 ba c2 6d 55 bb c2 79 d1 ba c2 35 48 bb c2
       -93.35986 -93.66685 -93.40913 -93.64103
0000a0 26 2f bb c2 65 35 bb 42 76 43 bb c2 37 05 bb c2
       -93.59209 93.60429 -93.63176 -93.510185
0000b0 cf a7 ba c2 07 ec ba 42 36 0c bb c2 47 3e bb 42
       -93.32775 93.46099 -93.52385 93.621635
0000c0 21 c9 ba 42 83 bf ba 42 be ec ba c2 b4 db ba c2
       93.39283 93.37405 -93.46239 -93.42911
0000d0 74 8a ba c2 64 b0 ba c2 d7 e5 ba c2 1a 99 ba c2
       -93.27042 -93.34451 -93.448906 -93.29903
0000e0 34 93 ba c2 0c 8e ba 42 77 aa ba c2 c2 2d bb c2
       -93.287506 93.277435 -93.33294 -93.58937
0000f0 1c eb ba c2 cc df ba c2 85 d1 ba c2 94 8b ba c2
       -93.4592 -93.4371 -93.40922 -93.27261
000100 41 f1 ba c2 d1 ef ba c2 8d a8 ba c2 54 b4 ba 42
       -93.4712 -93.46839 -93.3292 93.3522
000110 76 9a ba c2 10 98 ba c2 4f 81 ba c2 a6 08 bb 42
       -93.30168 -93.297 -93.252556 93.51689
000120 72 a4 ba c2 f1 92 ba 42 2a 9b ba c2 ce d3 ba 42
       -93.32118 93.286995 -93.303055 93.41368
000130 49 1f bb c2 83 99 ba c2 6b 2e bb c2 da df ba c2
       -93.561104 -93.29983 -93.59066 -93.43721
000140 e7 bc ba c2 58 95 ba c2 2c 36 bb c2 ca 3a bb 42
       -93.36895 -93.29169 -93.605804 93.61482
000150 dd 9c ba c2 f0 e4 ba c2 ca 9b ba c2 3d b8 ba c2
       -93.30637 -93.44714 -93.304276 -93.35984
000160 b8 cb ba c2 01 d1 ba c2 19 1a bb c2 87 9e ba c2
       -93.39789 -93.40821 -93.55097 -93.30962
000170 dd f5 ba c2 34 82 ba 42 02 7b ba c2 64 d1 ba c2
       -93.4802 93.2543 -93.24025 -93.408966
000180 52 08 bb c2 4c 9e ba 42 80 2f bb c2 09 f9 ba 42
       -93.51625 93.30917 -93.59277 93.4864
000190 c2 0b bb c2 28 e1 ba 42 81 b2 ba c2 4d 87 ba c2
       -93.522964 93.43976 -93.34864 -93.26426
0001a0 4e dd ba c2 e4 ac ba c2 a0 81 ba c2 a6 1e bb c2
       -93.432236 -93.33768 -93.253174 -93.55986
0001b0 01 fb ba c2 59 d6 ba 42 88 2e bb c2 d7 a0 ba c2
       -93.49024 93.41865 -93.59088 -93.31414
0001c0 b6 b6 ba c2 6a 95 ba c2 2e d0 ba c2 b7 e9 ba c2
       -93.35686 -93.291824 -93.4066 -93.456474
0001d0 02 da ba c2 de b6 ba c2 29 d7 ba c2 01 d0 ba 42
       -93.4258 -93.35716 -93.420235 93.40626
0001e0 4c a5 ba c2 fc 92 ba c2 09 23 bb c2 e8 ac ba 42
       -93.322845 -93.28708 -93.56843 93.33771
0001f0 59 73 ba c2 d7 25 bb 42 65 66 ba c2 ed cb ba 42
       -93.22529 93.573906 -93.19999 93.39829
000200 f4 88 ba c2 e5 a2 ba c2 be 3f bb c2 b0 9d ba c2
       -93.26749 -93.31815 -93.6245 -93.30798
000210 25 d5 ba c2 00 8f ba c2 43 d9 ba c2 24 a2 ba 42
       -93.4163 -93.2793 -93.42434 93.31668
000220 72 da ba c2 d7 c5 ba c2 7b 37 bb c2 ea f0 ba c2
       -93.42665 -93.386406 -93.60836 -93.470535
000230 2e b1 ba c2 d5 de ba c2 f0 16 bb c2 7d 7f ba c2
       -93.346054 -93.43522 -93.5448 -93.249
000240 ed 96 ba c2 f9 a7 ba 42 53 fa ba c2 85 af ba c2
       -93.29478 93.32807 -93.488914 -93.34281
000250 c3 26 bb c2 b6 cc ba 42 ee af ba c2 c8 39 bb 42
       -93.57571 93.399826 -93.34361 93.612854
000260 3e cd ba c2 21 3d bb 42 c8 bd ba c2 2d c4 ba c2
       -93.40086 93.61939 -93.37067 -93.383156
000270 dd 3a bb c2 4a 84 ba c2 c6 87 ba c2 bc a8 ba c2
       -93.61497 -93.25838 -93.26518 -93.32956
000280 34 ad ba c2 fe 0d bb 42 bf 42 bb c2 dd 39 bb c2
       -93.33829 93.52733 -93.63036 -93.613014
000290 44 fb ba c2 c0 a5 ba c2 3f fa ba c2 77 9c ba c2
       -93.49075 -93.32373 -93.48876 -93.305595
0002a0 52 a8 ba c2 cb a7 ba c2 12 fe ba c2 74 06 bb 42
       -93.32875 -93.32772 -93.49623 93.5126
0002b0 67 39 bb c2 3b db ba c2 f3 21 bb c2 eb e1 ba 42
       -93.612114 -93.428185 -93.56631 93.441246
0002c0 69 d8 ba c2 f0 30 bb 42 25 02 bb c2 15 ed ba 42
       -93.422676 93.59558 -93.50419 93.46305
0002d0 e3 7a ba c2 9f 96 ba c2 97 8f ba c2 b4 10 bb c2
       -93.24001 -93.29418 -93.28045 -93.53262
0002e0 b5 09 bb c2 a4 51 bb c2 a2 50 bb c2 f8 0d bb 42
       -93.51896 -93.659454 -93.657486 93.52728
0002f0 eb ba ba c2 f0 db ba c2 68 be bb c2 9b 60 bb c2
       -93.365074 -93.429565 -93.87189 -93.68868
000300 1c ae ba c2 92 f1 ba c2 6b 78 bb c2 ff 3c bb c2
       -93.34006 -93.47182 -93.73519 -93.61913
000310 ce 59 bb c2 bb e6 ba 42 1e cb ba c2 08 5e bb c2
       -93.6754 93.450645 -93.39671 -93.683655
000320 51 ab ba c2 62 77 bb 42 1d 58 bb c2 07 e8 ba 42
       -93.3346 93.73317 -93.6721 93.45318
000330 d2 9d ba 42 e2 4e bb 42 66 01 bb c2 fb dd ba c2
       93.30824 93.65407 -93.50273 -93.433556
000340 07 9e ba c2 fa 00 bb c2 78 33 bb c2 89 e6 ba c2
       -93.30865 -93.50191 -93.600525 -93.450264
000350 86 32 bb c2 b3 f6 ba 42 d3 b7 ba c2 9e 3d bb c2
       -93.59868 93.481834 -93.35903 -93.620346
000360 63 b0 bb c2 7b d4 ba c2 e5 b8 ba c2 6d f5 ba c2
       -93.844505 -93.415 -93.36112 -93.47935
000370 b3 7c bb c2 c2 a8 ba c2 8a ae ba c2 64 1f bb 42
       -93.74355 -93.329605 -93.3409 93.56131
000380 94 e6 ba c2 f6 10 bb c2 d8 37 bb c2 4d 78 bb 42
       -93.45035 -93.53313 -93.60907 93.73496
000390 43 2f bb c2 9d 4f bb 42 22 7d ba 42 18 cc ba 42
       -93.59231 93.655495 93.2444 93.39862
0003a0 4e 7c bb c2 83 17 bb c2 77 08 bb c2 43 52 bb c2
       -93.74278 -93.54592 -93.51653 -93.66067
0003b0 56 1a bb c2 91 ed ba c2 b4 26 bb c2 b2 70 bb 42
       -93.55144 -93.464 -93.57559 93.72011
0003c0 a2 1d bb c2 82 6a bb c2 f8 44 bb c2 8c 07 bb c2
       -93.55788 -93.70802 -93.634705 -93.51474
0003d0 8c a0 ba c2 7a 13 bb c2 85 11 bb c2 4c 0a bb c2
       -93.31357 -93.53804 -93.53422 -93.52011
0003e0 bd 25 bb c2 bd fa ba 42 70 68 bb c2 15 24 bb c2
       -93.57371 93.48972 -93.70398 -93.57047
0003f0 46 22 bb c2 4b f2 ba 42 c0 28 bb c2 bc 31 bb 42
       -93.56694 93.47323 -93.57959 93.59714

key_encoder.encoder.bias_ih_l0 f4 [104]
000000 70 31 bb 42 f6 14 bc 42 5a 5a bb 42 58 0e bb 42
       93.59656 94.04094 93.67647 93.528015
000010 b7 08 bb 42 3c ce bb 42 a2 45 bb 42 92 c0 bc 42
       93.51702 93.9028 93.636 94.376114
000020 e8 f5 bc 42 98 cb bc 42 4d 34 bc 42 72 d4 bc 42
       94.480286 94.397644 94.10215 94.41493
000030 bf a0 bc 42 e1 d1 bb 42 35 57 bb 42 07 53 ba 42
       94.31396 93.90992 93.67033 93.16216
000040 4e 23 bc 42 ca 6f bc 42 df 15 bc 42 0d 68 bc 42
       94.068954 94.21834 94.04272 94.203224
000050 8a f7 bc 42 e1 b5 bb 42 c0 29 bb 42 f9 42 bb 42
       94.483475 93.85523 93.58154 93.630806
000060 90 c9 bc 42 89 53 bb 42 3c 98 ba 42 49 40 bb 42
       94.39368 93.663155 93.29733 93.62556
000070 89 d2 ba 42 f4 95 ba 42 7d 21 bb 42 88 de ba 42
       93.4112 93.29288 93.56541 93.43463
000080 4f ca ba 42 03 fb bb 42 4d 5b bc 42 c3 be bb 42
       93.395134 93.99026 94.17832 93.87258
000090 05 00 bb 42 1c f1 bb 42 0d d2 bb 42 95 a8 ba 42
       93.50004 93.97092 93.910255 93.32926
0000a0 8a 96 ba 42 2b ad ba c2 f8 4c bb 42 65 30 bc 42
       93.29402 -93.33822 93.65033 94.09452
0000b0 14 2e bb 42 c2 e3 ba 42 3d 59 bc 42 3a c7 ba 42
       93.59 93.44484 94.17429 93.389114
0000c0 68 b8 ba 42 67 ea ba 42 df b2 bb 42 51 db ba 42
       93.36017 93.45782 93.84936 93.42835
0000d0 5d b7 bc c2 49 a1 bc c2 eb e1 bb c2 75 74 bc c2
       -94.35813 -94.31501 -93.941246 -94.227455
0000e0 6e 80 bc c2 83 3c bc 42 62 a3 bb c2 0c fd bc c2
       -94.25084 94.11819 -93.81911 -94.49423
0000f0 ce 30 bd c2 4f c6 bc c2 c4 35 be c2 55 1a bd c2
       -94.59532 -94.38732 -95.10501 -94.55143
000100 4a b5 bc c2 a9 21 bc c2 b4 97 bd c2 58 df ba c2
       -94.35408 -94.06574 -94.796295 -93.43622
000110 e7 fd bc c2 1d e8 bc c2 7e 92 bc c2 da 78 bc 42
       -94.4959 -94.45335 -94.28612 94.23604
000120 64 00 bd c2 15 40 bb 42 32 3e b7 c2 f5 bb bb 42
       -94.50076 93.62516 -91.621475 93.8671
000130 7c b6 bc c2 cd d6 bc c2 4a 6a bb 42 8c 2e bc 42
       -94.356415 -94.41953 93.707596 94.09091
000140 82 9c bb 42 71 67 bb 42 67 18 bb 42 66 ec bb 42
       93.80568 93.702034 93.54766 93.961716
000150 b2 c7 bb 42 1a e7 bc 42 33 b6 be 42 49 68 bd 42
       93.89003 94.45137 95.35586 94.70368
000160 06 4d bb 42 a4 85 bd 42 8e 0d bd 42 b7 97 bb 42
       93.65044 94.76102 94.526474 93.79632
000170 fd ff ba 42 69 b5 ba 42 6e 14 bc 42 c1 b2 bd 42
       93.49998 93.35432 94.0399 94.84913
000180 f1 c3 bb 42 98 38 bc 42 f8 ea bd 42 0d 55 bb 42
       93.8827 94.110535 94.95892 93.666115
000190 be 65 bb 42 05 ce bb 42 2c 31 bd 42 15 03 bb 42
       93.698715 93.90238 94.59604 93.50602

key_encoder.encoder.bias_hh_l0 f4 [104]
000000 96 63 bb 42 2c 23 bc 42 6a 4a bb 42 16 3d bb 42
       93.6945 94.068695 93.64534 93.61931
000010 73 0d bb 42 d3 e5 bb 42 15 43 bb 42 d8 65 bc 42
       93.52627 93.948875 93.63102 94.19891
000020 40 07 bd 42 07 e9 bc 42 88 18 bc 42 e0 66 bd 42
       94.51416 94.45513 94.04791 94.70093
000030 82 93 bc 42 3c 74 bb 42 21 07 bc 42 0b 36 ba 42
       94.2881 93.72702 94.01392 93.10555
000040 79 87 bc 42 af 45 bc 42 9c 3c bc 42 ad 2b bc 42
       94.264595 94.1361 94.11838 94.085304
000050 43 7b bc 42 8f d0 bb 42 92 2c bb 42 df b1 bb 42
       94.240746 93.90734 93.58705 93.847404
000060 34 6f bc 42 e1 92 bb 42 ae ef ba 42 aa 06 bb 42
       94.21719 93.78687 93.468124 93.513016
000070 ec e1 ba 42 25 80 ba 42 d3 9c ba 42 2d fd ba 42
       93.44125 93.25028 93.3063 93.494484
000080 8a aa ba 42 fa c3 bb 42 71 60 bc 42 bc 0d bc 42
       93.333084 93.88277 94.18836 94.026825
000090 27 0a bb 42 83 5e bc 42 f1 ab bb 42 bf a2 ba 42
       93.51983 94.18459 93.83582 93.31786
0000a0 d4 19 bb 42 2b e2 ba c2 01 b6 bb 42 36 23 bc 42
       93.550446 -93.441734 93.85548 94.06877
0000b0 c9 ab ba 42 f1 63 bb 42 43 e3 bb 42 0f e1 ba 42
       93.33552 93.6952 93.94387 93.43957
0000c0 74 c6 ba 42 6c 07 bb 42 19 3c bc 42 00 8b ba 42
       93.3876 93.514496 94.11738 93.271484
0000d0 bd a7 bc c2 d7 08 bd c2 d3 40 bc c2 e0 2a bd c2
       -94.327614 -94.517265 -94.12661 -94.58374
0000e0 34 ff bb c2 90 13 bc 42 65 2c bb c2 7c ce bc c2
       -93.99844 94.03821 -93.58671 -94.40329
0000f0 f8 01 bd c2 34 63 bc c2 ce a1 bd c2 c9 1b bd c2
       -94.503845 -94.193756 -94.816025 -94.55427
000100 2c e2 bc c2 f2 7b bb c2 7c ed bc c2 23 bf ba c2
       -94.44174 -93.74208 -94.46384 -93.373314
000110 ee f0 bc c2 1c 8c bc c2 20 f5 bc c2 13 89 bc 42
       -94.470566 -94.27365 -94.47876 94.26772
000120 6a ec bc c2 f5 90 bb 42 8e 99 b6 c2 dc b6 bb 42
       -94.46175 93.78312 -91.29991 93.85715
000130 69 e7 bc c2 fc c4 bc c2 3e 0f bb 42 f5 82 bb 42
       -94.45197 -94.384735 93.52977 93.755775
000140 21 46 bb 42 bf 76 bb 42 bf 2a bb 42 9d c7 bb 42
       93.63697 93.731926 93.58349 93.88987
000150 74 50 bb 42 63 94 bc 42 f8 67 be 42 0b 47 bd 42
       93.657135 94.28982 95.203064 94.638756
000160 a2 f4 ba 42 81 a4 bd 42 b6 ca bc 42 71 83 bb 42
       93.4778 94.8213 94.39592 93.75672
000170 df ac bb 42 85 7e ba 42 5d 18 bc 42 7a ec bd 42
       93.83764 93.24711 94.047585 94.96187
000180 19 32 bb 42 1b 31 bc 42 19 10 be 42 7b 85 bb 42
       93.59785 94.09591 95.03144 93.760704
000190 44 58 bb 42 36 61 bb 42 76 7c bd 42 d9 f7 ba 42
       93.67239 93.689865 94.74309 93.48408

atten_layer.0.weight f4 [56, 168]
000000 1c af fa 3c c3 4e 97 3d 81 3a 9b 3d 1a 16 3a 3d
       0.030601077 0.073880695 0.07579518 0.045431234
000010 a0 2d be 3b 00 99 ca 3c b6 81 16 bd 04 37 91 3c
       0.005803779 0.02473116 -0.036744796 0.017726429
000020 58 5c fa 3c ec d4 1c bd 88 94 61 3c a0 6f 6c 3b
       0.030561611 -0.038288996 0.013768323 0.0036077276
000030 75 5f 8d bd c2 3f 68 3d fa e5 67 3d 60 72 08 3c
       -0.069029726 0.05670143 0.056615807 0.00832805
000040 20 1d 14 bb 54 bf 8d bc 0b 72 92 3d 6a 80 49 bd
       -0.0022600368 -0.017303146 0.07150658 -0.04919473
000050 a8 03 1b 3c eb cd 17 bd d0 56 79 3c 20 85 01 3b
       0.009461321 -0.037061613 0.015218452 0.0019763187
000060 a4 3b 90 bd 62 14 01 3d e4 0b 71 bd c0 8a e9 3a
       -0.070426255 0.03151358 -0.05884923 0.001781784
000070 08 f5 bd 3c a4 b1 b7 3c 90 45 cc 3c 40 fc ba bb
       0.023188129 0.022423573 0.024935514 -0.00570634
000080 e9 fd 83 3d b6 5c 1c bd ca 0e 08 bd 1a fc 48 3d
       0.06444914 -0.038174354 -0.03321723 0.049068548
000090 fb 83 8e 3d 84 fc b4 3c 6c 9d 3f bd 72 3a 7a 3d
       0.06958767 0.022093065 -0.04678099 0.061090894
0000a0 b9 cd 85 3d 34 a3 56 bd 59 6d 91 3d d4 97 bd 3c
       0.06533379 -0.052401736 0.071009345 0.023143686
0000b0 00 80 5b b9 58 d2 cc 3c 58 9b 2f 3d 83 9d 81 3d
       -0.00020933151 0.025002643 0.042872757 0.06328871
0000c0 18 6f 74 3c a0 00 42 3c 2c 1a 6a bd f6 9c 13 3d
       0.014919065 0.011840969 -0.057153866 0.03603836
0000d0 66 94 07 bd a0 7c 8b 3b 24 e7 3d bd d0 92 db 3b
       -0.03310051 0.0042568 -0.04636301 0.006700851
0000e0 f2 7b 7d 3d e0 0c f0 bc c0 60 95 3a 90 e8 09 3d
       0.06188578 -0.029303014 0.0011396632 0.033669055
0000f0 eb 62 79 bd 87 3f 80 3d 27 50 8e 3d 36 ec ad bc
       -0.06088535 0.06262117 0.069488816 -0.021230798
000100 35 1d 9c 3d 87 eb 1c bd 80 69 11 3c f7 17 85 3d
       0.07622758 -0.038310554 0.008875251 0.064987116
000110 db 77 39 bd 22 c0 83 bc c5 bf 9a 3d fc a1 db bc
       -0.04528032 -0.016082827 0.075561084 -0.026810639
000120 24 b9 51 bd d0 4e aa 3b 2c 8a 75 bd ea c1 cf bc
       -0.051201954 0.0051973835 -0.059946224 -0.02536102
000130 40 d0 c3 3a 08 47 73 bd e0 2a a7 bc 52 ea 3b 3d
       0.0014939383 -0.059393913 -0.020406187 0.045877762
000140 d6 01 7f 3d 0b a0 6f bd 20 ac 3b 3d e6 03 28 3d
       0.06225761 -0.05850224 0.045818448 0.041019343
000150 60 55 5e bc e8 95 75 bc cb e8 98 3d e4 e7 33 3d
       -0.01357016 -0.014989354 0.07466277 0.04392232
000160 9e d4 4d 3d 00 14 bb 3a 26 16 62 bd 00 b4 02 3d
       0.050251596 0.0014272928 -0.055196904 0.031909943
000170 60 0b f5 3c e0 f3 d3 bb d0 c1 4f bc d0 50 45 3c
       0.02991265 -0.006468281 -0.012680486 0.012043193
000180 1c 92 37 bd c6 a4 23 bd fe 80 33 3d 66 49 2b bd
       -0.044817075 -0.039952062 0.04382419 -0.041818045
000190 64 d8 30 3d 4e 3b 6a 3d 06 51 14 3d 00 07 a6 3b
       0.043175116 0.057185464 0.036210082 0.0050667524
0001a0 c8 76 b7 bc 36 6f 7e 3d 65 a1 8d 3d 2e 5a 4a 3d
       -0.022395507 0.062117778 0.06915549 0.04940241
0001b0 00 d5 3a 3c b6 c9 da bc 84 16 f6 3c 88 e2 ee bc
       0.011403322 -0.026707511 0.030040033 -0.029160753
0001c0 33 a8 ba 42 1e bd ba c2 b5 d2 ba 42 d9 ab ba c2
       93.328514 -93.36937 93.41154 -93.33564
0001d0 fb b3 ba c2 a5 d0 ba 42 08 bd ba c2 bb de ba c2
       -93.351524 93.40751 -93.3692 -93.43502
0001e0 fe b1 ba 42 03 d9 ba 42 fb b8 ba 42 e6 d4 ba 42
       93.34764 93.42385 93.36129 93.41582
0001f0 f7 ca ba c2 ef b7 ba 42 35 93 ba 42 02 c3 ba c2
       -93.396416 93.359245 93.28751 -93.380875
000200 d2 d3 ba 42 24 94 ba 42 eb a8 ba c2 97 8e ba 42
       93.41371 93.28934 -93.32992 93.278496
000210 fa d1 ba 42 aa c6 ba c2 e2 a9 ba c2 27 c1 ba 42
       93.41011 -93.388016 -93.3318 93.37725
000220 27 a7 ba 42 ec aa ba 42 6a c3 ba 42 e2 bb ba 42
       93.32647 93.33383 93.38167 93.36696
000230 2f 91 ba 42 31 c0 ba 42 b4 e1 ba c2 b0 f2 ba c2
       93.28356 93.375374 -93.44083 -93.474
000240 11 d8 ba c2 55 de ba c2 6b d9 ba c2 a3 bb ba 42
       -93.422005 -93.43424 -93.424644 93.36648
000250 7c c0 ba c2 f9 d2 ba c2 f9 31 bb c2 b9 11 bb c2
       -93.375946 -93.412056 -93.5976 -93.534615
000260 8b f3 ba c2 e3 e8 ba c2 c8 f7 ba c2 5a d8 ba c2
       -93.47567 -93.45486 -93.48395 -93.42256
000270 1b e6 ba c2 20 a2 ba c2 d9 ca ba c2 3a db ba c2
       -93.449425 -93.31665 -93.39619 -93.42818
000280 17 e2 ba c2 bf b3 ba 42 f4 02 bb c2 46 bc ba 42
       -93.44158 93.35107 -93.50577 93.36772
000290 9d a8 ba c2 96 bc ba 42 67 d2 ba c2 f4 ad ba c2
       -93.32932 93.36833 -93.41094 -93.33975
0002a0 08 70 d5 bc 86 ff 7e 3d ba 31 74 3d 20 05 6e 3b
       -0.026054397 0.062255405 0.059617735 0.0036318973
0002b0 30 a6 bb 3b 6c 28 bd bc 00 fe a7 3a 73 af 9a 3d
       0.005726598 -0.023090564 0.0012816787 0.075529955
0002c0 c0 5d 7b bb 7f 00 81 3d 25 6e 38 bd f0 47 0c bd
       -0.003835544 0.06298923 -0.045026917 -0.034248292
0002d0 b4 7b 0d 3d 96 20 41 3d 44 94 30 3d 8a 49 53 3d
       0.0345418 0.047150217 0.043110147 0.051583804
0002e0 30 be 99 bb 5f b2 36 bd 58 0a 13 bc e2 90 e5 bc
       -0.0046918616 -0.0446037 -0.008974634 -0.028023187
0002f0 fe db 57 3d 5c d0 89 3c 08 77 ce bc 4a d2 3e 3d
       0.052700035 0.016822986 -0.025203243 0.046587266
000300 10 a5 a3 bb de ad 3d 3d cd 4a 81 3d 82 99 71 3d
       -0.004994042 0.04630839 0.06313095 0.058984287
000310 90 45 77 bc 5e 4b 0f bd 8e 7d 0f 3d 33 fd 84 3d
       -0.015092269 -0.034983985 0.035031848 0.064936064
000320 f8 68 d7 3c 9f 92 8e bd 60 ff 29 bb d6 f2 1e 3d
       0.02629517 -0.069615595 -0.002593957 0.038805805
000330 30 be d8 3b aa eb 24 3d dc 50 d9 bc bb a4 94 3d
       0.006614469 0.04026381 -0.026527815 0.07257982
000340 72 5c 8b bd 4c 2a d4 3c 98 8c 93 bd b4 82 80 bd
       -0.06804742 0.025899075 -0.072045505 -0.0627493
000350 90 7d 18 3c 40 98 99 ba d4 fd f3 bc 6e ea d2 bc
       0.00930728 -0.0011718348 -0.02978412 -0.02574655
000360 fa 23 45 3d 80 ca 8a 3a 32 e6 47 3d 6b 86 81 bd
       0.048130013 0.0010588914 0.048803516 -0.06324466
000370 82 75 95 bd da 20 7c bd 06 64 ca bc fc 7f 89 bd
       -0.072978035 -0.061554767 -0.024705898 -0.06713864
000380 9e 46 3e 3d 88 a6 fd 3c ac b6 8e bd ea a6 56 3d
       0.046454065 0.030963197 -0.06968436 0.052405275
000390 04 26 20 bd 80 75 32 3d 0a 4e 1f 3d 4c 27 e0 bc
       -0.039098755 0.043569088 0.038892783 -0.027362488
0003a0 a0 f9 41 3d d6 dd a7 bc 58 44 6a bd 5b ae 84 3d
       0.0473572 -0.020491522 -0.057194084 0.06478568
0003b0 a0 76 c0 3b 1c 81 e3 3c ba 32 76 3d 98 28 0e 3c
       0.005873516 0.027771525 0.06010697 0.0086766705
0003c0 18 b4 bf 3c 84 33 47 bd 15 78 6b bd a0 21 47 3c
       0.023401305 -0.048633114 -0.057487566 0.012154013
0003d0 ce f3 fb bc ba 14 6a 3d 70 64 37 bd 29 07 8d 3d
       -0.030755904 0.057148673 -0.04477352 0.06886131
0003e0 23 5c 9c bd 3f 62 9b 3d 7e aa 5d 3d 4c 91 27 3d
       -0.07634761 0.07587098 0.054117672 0.04091005
0003f0 b1 5e 97 3d 44 1f bd 3c 40 86 54 3c aa 88 4c 3d
       0.07391108 0.023086198 0.012971461 0.04993502
