Final project/competition/savemodel/best_993.pth (torch_old, 668674 bytes, 63 tensors)

price_encoder.attention.weight f4 [1, 90]
92.95164 -93.01961 92.99022 92.645195 93.00039 92.878395 -92.90757 -92.88515
92.90314 93.04438 -93.1567 92.87873 -92.975044 93.00945 92.91107 -92.99763
92.87493 93.056366 93.0135 -93.08592 93.06773 -93.05575 -93.012146 92.94368
93.060844 92.859215 92.880066 92.92599 92.882256 -92.99493 92.864784 -92.894356
92.88087 -92.637344 93.0817 92.92738 -92.86684 -92.9001 92.921364 92.994225
-93.04167 92.91024 -92.855545 92.89143 92.91259 -92.80376 92.96047 92.878624
93.11987 -93.08289 92.83391 -92.82991 -92.93513 92.98331 92.85847 92.97155
92.961555 92.9166 92.990005 -92.97473 -92.94085 -93.082436 -93.05613 -92.97403
-92.98263 -92.89359 -92.92405 -92.820816 -92.86423 -92.9351 -93.0006 -92.933754
-93.011444 -92.86579 -92.92691 -92.99828 -93.04764 -92.95097 -92.81362 -93.12242
-93.203606 -93.0733 -92.91944 -92.996796 -92.91627 -92.948166 -93.06862 -93.077324
-92.90898 -92.91116
00000000: 3de7 b942 0a0a bac2 fefa b942 574a b942
00000010: 3300 ba42 bdc1 b942 add0 b9c2 32c5 b9c2
00000020: 68ce b942 b916 ba42 3b50 bac2 e9c1 b942
00000030: 39f3 b9c2 d704 ba42 78d2 b942 c9fe b9c2
00000040: f7bf b942 dc1c ba42 e906 ba42 fe2b bac2
00000050: ae22 ba42 8b1c bac2 3806 bac2 2ae3 b942
00000060: 271f ba42 ebb7 b942 98c2 b942 1bda b942
00000070: b7c3 b942 67fd b9c2 c5ba b942 e9c9 b9c2
00000080: 01c3 b942 5246 b9c2 d529 ba42 d2da b942
00000090: d2bb b9c2 dacc b9c2 bdd7 b942 0bfd b942
000000a0: 5615 bac2 0bd2 b942 0ab6 b9c2 6ac8 b942
000000b0: 3fd3 b942 869b b9c2 c3eb b942 dbc1 b942
000000c0: 603d ba42 712a bac2 f6aa b942 eaa8 b9c2
000000d0: c9de b9c2 74f7 b942 89b7 b942 6ff1 b942
000000e0: 51ec b942 4dd5 b942 e2fa b942 10f3 b9c2
000000f0: b7e1 b9c2 352a bac2 bd1c bac2 b4f2 b9c2
00000100: 1bf7 b9c2 85c9 b9c2 1dd9 b9c2 42a4 b9c2
00000110: 7cba b9c2 c5de b9c2 4f00 bac2 15de b9c2
00000120: dc05 bac2 49bb b9c2 94da b9c2 1fff b9c2
00000130: 6418 bac2 e6e6 b9c2 93a0 b9c2 ae3e bac2
00000140: 3f68 bac2 8825 bac2 c1d6 b9c2 5cfe b9c2
00000150: 21d5 b9c2 76e5 b9c2 2223 bac2 9727 bac2
00000160: 66d1 b9c2 84d2 b9c2

price_encoder.encoder.weight_ih_l0 f4 [120, 45]
-0.02793178 0.1659053 0.089111865 -0.10533601 0.039936095 0.12055233 -0.041761532 0.06366204
-0.011075169 0.069458574 -0.13266143 -0.03441298 0.0019231737 -0.117390715 -0.10916938 -0.08162318
0.17701969 -0.097250424 -0.11704612 0.1715846 -0.11743466 -0.090703584 -0.023374781 0.053907037
-0.1259009 0.11685911 -0.002341494 -0.1447586 -0.13288452 -0.07936543 -0.10408088 0.024621636
-0.15256993 6.5318365 93.02303 92.92019 93.04557 93.2463 -0.16858862 92.78255
92.74913 92.93586 92.85668 -0.07702953 0.14633876 -0.087639265 0.14713901 0.098106176
0.016076818 0.08180472 0.17378917 -0.00849463 0.12793487 -0.16095623 0.07286188 -0.13692565
0.17495844 -0.0057578087 0.12833688 -0.0067935437 0.1780172 -0.022323564 -0.1799866 0.12036848
-0.06767259 -0.17381896 0.086512804 -0.1499305 -0.0030415654 -0.080220304 0.0018644184 0.045352727
0.07877207 0.057161212 -0.027959242 -0.043069318 -0.05252628 0.04787472 11.353406 93.22403
93.18057 93.13179 93.19852 0.049079835 92.85129 92.88612 92.82667 92.7968
-0.12076433 -0.052312136 -0.04911323 -0.074447714 -0.09788899 -0.12207773 -0.16502465 -0.075807564
0.14258617 -0.09083863 -0.10512807 -0.040507615 -0.00748387 -0.14982599 0.09543118 0.13661915
0.056603387 -0.13499823 0.14127922 0.10218549 0.14161563 -0.0530577 0.06770086 0.0012703985
-0.160405 0.07557231 -0.06442967 -0.012323514 0.026938453 0.16269457 0.13730204 0.16942424
0.0987131 0.16908619 -0.021376714 1.5913811 93.12289 93.00943 92.95267 92.974236
0.050925076 -92.89806 -92.8272 -92.75632 -92.62585 -0.15714212 0.1776132 0.17508787
-0.09002762 -0.16769372 0.13094664 0.03586474 0.082597524 0.051597625 -0.15537903 -0.14529344
-0.016515613 0.122695655 -0.12479582 0.11078784 0.17374763 -0.0021284223 0.046351746 0.08735749
-0.12531884 0.1775131 -0.120550424 -0.06450698 0.0355293 0.053161576 -0.02132681 0.14098316
0.11206645 -0.15580924 -0.12004362 0.07446739 -0.16503657 -0.16748399 -0.09458407 -0.06176097
-54.800915 -93.22657 -93.32941 -93.35157 -93.355804 0.14568758 -92.68829 -92.656075
-92.741104 -92.83847 -0.07349676 0.030572727 0.15248236 0.10972297 0.05698718 0.04875289
0.10734862 -0.16393048 -0.15306395 0.12068209 -0.056950524 -0.17460313 -0.14710304 0.18235013
-0.12058912 0.007890016 -0.031610355 0.01650323 -0.17160596 -0.035647318 -0.088063784 -0.13107723
-0.18182483 0.033290148 -0.04843411 -0.12368278 0.06135094 0.109292656 -0.054469913 -0.07591993
0.17163575 -0.15462951 -0.13256735 -0.105674624 -0.058312796 -14.209348 92.958885 92.63314
92.9152 92.64135 -0.032874897 -92.70802 -92.808716 -92.78048 -92.714226 0.13303456
0.0070085227 0.13146299 0.13633779 -0.1325457 -0.07732 -0.10483149 -0.10166873 0.063666284
-0.114520386 0.034959048 0.04285772 -0.09563743 0.15928802 -0.08301964 -0.021774992 0.048963293
0.025104672 -0.052761078 0.006186411 -0.09697678 0.13118163 0.08848438 0.06826976 0.17775333
-0.103305146 -0.12755477 0.09963223 -0.17355406 0.08659232 0.13889086 -0.07877074 0.058019727
00000000: 30d1 e4bc 14e3 293e 4880 b63d 68ba d7bd
00000010: 0894 233d 24e4 f63d 240e 2bbd 3e61 823d
00000020: a074 35bc 4c40 8e3d 66d8 07be a0f4 0cbd
00000030: 0013 fc3a 8b6a f0bd 3294 dfbd 0e2a a7bd
00000040: a644 353e 3b2b c7bd e0b5 efbd e0b3 2f3e
00000050: 9581 f0bd cdc2 b9bd 787c bfbc a0cd 5c3d
00000060: 2aec 00be d453 ef3d c073 19bb 993b 14be
00000070: e112 08be 588a a2bd 5b28 d5bd 50b3 c93c
00000080: 4b3b 1cbe ce04 d140 cb0b ba42 23d7 b942
00000090: 5517 ba42 1b7e ba42 7fa2 2cbe aa90 b942
000000a0: 8e7f b942 29df b942 9fb6 b942 a9c1 9dbd
000000b0: d4d9 153e 377c b3bd 9cab 163e e4eb c83d
000000c0: 88b3 833c 3c89 a73d caf5 313e 102d 0bbc
000000d0: 5c01 033e b6d1 24be 9c38 953d 3d36 0cbe
000000e0: 4e28 333e 00ac bcbb be6a 033e 609c debb
000000f0: 244a 363e e8df b6bc 684e 38be c083 f63d
00000100: ed97 8abd 99fd 31be a02d b13d 6287 19be
00000110: 0055 47bb 8b4a a4bd 805f f43a c8c3 393d
00000120: 4053 a13d e021 6a3d c80a e5bc 7469 30bd
00000130: cc25 57bd 4818 443d 8da7 3541 b472 ba42
00000140: 745c ba42 7a43 ba42 a465 ba42 f007 493d
00000150: dcb3 b942 b2c5 b942 41a7 b942 f697 b942
00000160: 4a53 f7bd 4045 56bd f42a 49bd 0b78 98bd
00000170: 067a c8bd e403 fabd 39fc 28be ff40 9bbd
00000180: 1c02 123e 9b09 babd 634d d7bd 50eb 25bd
00000190: 403b f5bb fc6b 19be 6c71 c33d e4e5 0b3e
000001a0: f4d8 673d fa3c 0abe 80ab 103e a046 d13d
000001b0: b003 113e 0853 59bd c0a6 8a3d 8083 a63a
000001c0: 3541 24be a8c5 9a3d b4f3 83bd 90e8 49bc
000001d0: 08ae dc3c 6899 263e e898 0c3e 8c7d 2d3e
000001e0: 182a ca3d ee24 2d3e 381e afbc 60b2 cb3f
000001f0: eb3e ba42 d404 ba42 c4e7 b942 cff2 b942
00000200: d096 503d cfcb b9c2 87a7 b9c2 3c83 b9c2
00000210: 6f40 b9c2 dde9 20be 3ce0 353e 3c4a 333e
00000220: 6760 b8bd e7b7 2bbe e016 063e e8e6 123d
00000230: e428 a93d 0858 533d ae1b 1fbe cec7 14be
00000240: c04b 87bc dc47 fb3d f394 ffbd bce4 e23d
00000250: e6ea 313e 007d 0bbb 54db 3d3d 7ce8 b23d
00000260: 9553 00be fec5 353e 24e3 f6bd 3c1c 84bd
00000270: 2c87 113d f4bf 593d 90b5 aebc e45d 103e
00000280: 1883 e53d 758c 1fbe 6ed9 f5bd 5c82 983d
00000290: 59ff 28be ec80 2bbe 4bb5 c1bd 12f9 7cbd
000002a0: 2334 5bc2 0174 bac2 a8a8 bac2 01b4 bac2
000002b0: 2cb6 bac2 202f 153e 6860 b9c2 e94f b9c2
000002c0: 727b b9c2 4cad b9c2 7885 96bd a873 fa3c
000002d0: 5624 1c3e 70b6 e03d 646b 693d 1cb1 473d
000002e0: 98d9 db3d 64dd 27be ccbc 1cbe 2c28 f73d
000002f0: f444 69bd 2acb 32be 2ea2 16be feb9 3a3e
00000300: 6ef7 f6bd 2045 013c dc79 01bd c831 873c
00000310: 79b9 2fbe ec02 12bd c95a b4bd 1c39 06be
00000320: 4a30 3abe 405b 083d d862 46bd 664d fdbd
00000330: 204b 7b3d d4d4 df3d d81b 5fbd e97b 9bbd
00000340: 48c1 2f3e 3357 1ebe bcbf 07be f06b d8bd
00000350: 66d9 6ebd 7d59 63c1 f3ea b942 2b44 b942
00000360: 95d4 b942 5f48 b942 d4a7 06bd 826a b9c2
00000370: 109e b9c2 9b8f b9c2 af6d b9c2 363a 083e
00000380: c0a7 e53b 3c9e 063e 229c 0b3e 0fba 07be
00000390: f359 9ebd e4b1 d6bd b237 d0bd 7863 823d
000003a0: aa89 eabd 3831 0f3d 948b 2f3d 8fdd c3bd
000003b0: 661c 233e 3306 aabd 7861 b2bc bc8d 483d
000003c0: 50a8 cd3c 001c 58bd 60b7 ca3b c39b c6bd
000003d0: 7a54 063e 4c37 b53d 04d1 8b3d f804 363e
000003e0: a691 d3bd b89d 02be fc0b cc3d 28b8 31be
000003f0: 5057 b13d 6839 0e3e 8e52 a1bd 18a6 6d3d

price_encoder.encoder.weight_hh_l0 f4 [120, 30]
-92.89419 92.81743 -92.80754 -92.87428 -92.92226 -92.895744 92.786354 92.978065
-92.95051 -93.04743 92.79337 -93.023544 92.8942 -93.04161 -93.04616 92.9141
-92.84665 -92.94377 -92.88596 93.03242 -92.74253 92.92802 92.9306 -92.90514
-92.93202 -92.925835 -93.0577 -92.86583 -92.779434 92.969696 -93.00171 92.90244
-92.73771 -92.71995 -92.76331 -92.91548 92.95831 93.15748 -92.84928 -93.020874
92.67604 -92.866875 92.83022 -93.09311 -92.978714 92.96408 -93.0357 -92.997665
-93.028305 92.97757 -92.75626 92.75385 92.8191 -93.02599 -92.90274 -93.12373
-92.75412 -92.81262 -92.85417 -92.88686 -93.097244 92.777885 -92.79232 92.66844
-93.00959 -92.84577 93.10852 92.91639 -92.816864 -92.965836 92.92601 -92.90438
92.800446 -93.04263 -92.98326 92.91951 -93.136444 -92.7635 -93.046165 92.76918
-92.74858 92.82625 92.98242 -92.98496 -93.08204 -92.90253 -93.0922 -93.11526
-92.69882 92.92286 92.81275 -93.02456 -92.979546 92.984985 92.94285 93.14518
-93.03957 -92.955696 93.0258 -91.843735 -92.81646 92.808105 -92.89739 92.929726
-92.897194 -92.94159 92.91266 93.02783 -92.79989 -92.940796 92.6669 -93.0386
-92.88397 92.70747 92.977356 92.763214 92.93027 92.95661 -92.63456 92.75774
-93.01911 92.902405 -92.78619 92.76978 -92.65805 -92.85989 93.00584 92.99339
-93.03694 -92.71239 92.86566 -93.02581 92.988625 -92.760254 -92.71549 92.85914
-92.99296 -92.78695 -93.00938 92.83376 -92.762405 92.81417 92.867645 -92.695045
-92.81282 -92.960106 -93.008545 -92.77315 -92.700035 92.85601 -92.95896 93.07819
-92.86846 -92.74934 -92.860146 -93.02044 93.011925 93.22745 -93.09054 -92.839386
92.78172 -93.1903 92.87405 -92.97612 -92.738785 92.88974 -92.88124 -93.05213
-92.70837 93.02801 -92.72494 92.787506 92.99503 -92.87245 -93.1055 -92.848465
-92.829056 -93.07424 -92.834724 -92.70693 -92.99816 92.819756 -93.046234 -92.80535
-92.89287 -92.952644 92.929245 92.90672 -92.78168 -92.93194 92.96893 -92.86134
92.76651 -92.89565 -92.71272 92.875786 -93.08205 -92.93573 92.686195 92.92484
-93.0631 92.89727 93.08065 -93.03597 -92.9605 -93.0185 -92.99446 -92.878265
-92.65349 -92.71621 -92.82053 92.88804 -92.82614 -92.8738 -92.91353 -93.0864
93.048836 92.8829 -92.819664 -92.91227 92.88935 -92.956345 92.71758 -93.01829
-93.02456 93.04517 -92.966446 -93.004875 92.73181 92.78841 -92.719246 93.06522
92.99194 -92.943016 -92.9281 -93.052444 -93.06011 -92.87215 -92.36397 -92.75701
-92.81617 92.819 -92.773384 -92.882355 -92.833275 -93.037224 92.9974 93.08038
-92.83879 -92.89534 92.86579 -93.18257 92.96428 -93.01447 -92.95778 93.09654
00000000: d3c9 b9c2 86a2 b942 769d b9c2 a2bf b9c2
00000010: 32d8 b9c2 9fca b9c2 9d92 b942 c5f4 b942
00000020: a9e6 b9c2 4918 bac2 3596 b942 0e0c bac2
00000030: d5c9 b942 4e15 bac2 a217 bac2 05d4 b942
00000040: 7cb1 b9c2 36e3 b9c2 9dc5 b9c2 9910 ba42
00000050: 2d7c b9c2 25db b942 78dc b942 6fcf b9c2
00000060: 32dd b9c2 07da b9c2 8b1d bac2 4ebb b9c2
00000070: 128f b9c2 7cf0 b942 e000 bac2 0dce b942
00000080: b579 b9c2 9d70 b9c2 d186 b9c2 bad4 b9c2
00000090: a8ea b942 a150 ba42 d5b2 b9c2 b00a bac2
000000a0: 225a b942 d7bb b9c2 13a9 b942 ac2f bac2
000000b0: 1af5 b9c2 9ced b942 4712 bac2 cefe b9c2
000000c0: 7e0e bac2 84f4 b942 3583 b9c2 f981 b942
000000d0: 61a3 b942 4f0d bac2 34ce b9c2 5a3f bac2
000000e0: 1c82 b9c2 10a0 b9c2 56b5 b9c2 13c6 b9c2
000000f0: ca31 bac2 478e b942 ab95 b9c2 3e56 b942
00000100: e904 bac2 09b1 b9c2 9037 ba42 31d5 b942
00000110: 3ca2 b9c2 82ee b9c2 1eda b942 0bcf b9c2
00000120: d499 b942 d415 bac2 6ef7 b9c2 cad6 b942
00000130: dc45 bac2 e986 b9c2 a317 bac2 d289 b942
00000140: 467f b9c2 0aa7 b942 00f7 b942 4df8 b9c2
00000150: 012a bac2 18ce b9c2 352f bac2 033b bac2
00000160: cc65 b9c2 81d8 b942 21a0 b942 930c bac2
00000170: 87f5 b9c2 50f8 b942 bde2 b942 554a ba42
00000180: 4314 bac2 51e9 b9c2 360d ba42 feaf b7c2
00000190: 07a2 b9c2 c09d b942 77cb b9c2 05dc b942
000001a0: 5dcb b9c2 18e2 b9c2 48d3 b942 400e ba42
000001b0: 8b99 b9c2 b0e1 b9c2 7455 b942 c313 bac2
000001c0: 98c4 b9c2 3a6a b942 68f4 b942 c486 b942
000001d0: 4cdc b942 c9e9 b942 e544 b9c2 f683 b942
000001e0: c909 bac2 08ce b942 8792 b9c2 218a b942
000001f0: ec50 b9c2 44b8 b9c2 fd02 ba42 9efc b942
00000200: ea12 bac2 be6c b9c2 38bb b942 370d bac2
00000210: 2dfa b942 4085 b9c2 556e b9c2 e1b7 b942
00000220: 65fc b9c2 eb92 b9c2 cd04 bac2 e3aa b942
00000230: 5a86 b9c2 dba0 b942 3cbc b942 dd63 b9c2
00000240: 2aa0 b9c2 93eb b9c2 6004 bac2 da8b b9c2
00000250: 6b66 b9c2 47b6 b942 fdea b9c2 0928 ba42
00000260: a7bc b9c2 a97f b9c2 65b8 b9c2 770a bac2
00000270: 1b06 ba42 7474 ba42 5b2e bac2 c4ad b9c2
00000280: 3e90 b942 6f61 bac2 83bf b942 c6f3 b9c2
00000290: 427a b9c2 8cc7 b942 32c3 b9c2 b11a bac2
000002a0: af6a b9c2 570e ba42 2b73 b9c2 3493 b942
000002b0: 75fd b942 b2be b9c2 0436 bac2 6ab2 b9c2
000002c0: 7aa8 b9c2 0326 bac2 61ab b9c2 f369 b9c2
000002d0: 0fff b9c2 b7a3 b942 ac17 bac2 579c b9c2
000002e0: 26c9 b9c2 c1e7 b9c2 c6db b942 3ed0 b942
000002f0: 3890 b9c2 27dd b9c2 18f0 b942 02b9 b9c2
00000300: 7488 b942 93ca b9c2 ea6c b9c2 67c0 b942
00000310: 022a bac2 18df b9c2 555f b942 85d9 b942
00000320: 4f20 bac2 67cb b942 4b29 ba42 6b12 bac2
00000330: c7eb b9c2 7909 bac2 2afd b9c2 acc1 b9c2
00000340: 964e b9c2 b36e b9c2 1da4 b9c2 adc6 b942
00000350: fca6 b9c2 63bf b9c2 bad3 b9c2 3d2c bac2
00000360: 0119 ba42 0bc4 b942 aba3 b9c2 15d3 b9c2
00000370: 59c7 b942 a6e9 b9c2 676f b942 5d09 bac2
00000380: 930c bac2 2117 ba42 d2ee b9c2 7f02 bac2
00000390: b076 b942 aa93 b942 4170 b9c2 6521 ba42
000003a0: e0fb b942 d3e2 b9c2 30db b9c2 da1a bac2
000003b0: c71e bac2 8abe b9c2 5aba b8c2 9783 b9c2
000003c0: e1a1 b9c2 54a3 b942 f98b b9c2 c4c3 b9c2
000003d0: a3aa b9c2 0f13 bac2 abfe b942 2829 ba42
000003e0: 76ad b9c2 6aca b9c2 49bb b942 7a5d bac2
000003f0: b6ed b942 6907 bac2 62ea b9c2 6e31 ba42

price_encoder.encoder.bias_ih_l0 f4 [120]
93.20399 93.39049 93.08095 -93.54448 92.79827 93.27005 93.48503 93.47981
93.14246 93.41483 92.43894 93.45925 93.01537 93.35978 93.04516 93.174446
93.52954 93.056526 92.63626 92.5395 92.852135 93.31855 93.32097 93.21517
93.32792 93.548584 93.08449 93.38584 92.77295 92.43229 93.14087 93.22488
92.9465 -93.26449 92.67201 93.30216 93.12061 93.2757 93.19169 93.00306
92.50533 93.273766 92.82343 93.38096 92.904305 93.2263 93.33277 93.0865
92.77972 92.63771 92.81942 93.01046 92.994 93.007164 93.37599 93.08903
93.121284 93.271515 92.64527 92.512 -93.51398 93.58807 -93.35234 92.92886
-93.016335 -93.60896 93.67942 93.941696 -93.57152 -94.84199 93.33751 -94.26556
93.427574 -93.35697 -94.29126 94.555756 -95.15772 -94.53436 -93.99218 93.22275
-93.12762 93.42496 93.92477 -94.87983 -93.68154 -94.49819 -94.0359 -93.95844
-97.60768 93.38736 93.75053 93.982346 93.23779 -93.60467 92.74222 94.08328
93.99143 93.89723 93.6406 93.51129 92.237595 94.26537 93.1999 93.65956
93.531235 93.983315 93.98069 93.416855 92.55272 92.67024 92.846634 93.86512
93.43781 93.21133 93.83974 93.77915 93.271034 93.64322 92.877716 92.56359
00000000: 7168 ba42 eec7 ba42 7229 ba42 c616 bbc2
00000010: b798 b942 448a ba42 56f8 ba42 aaf5 ba42
00000020: f148 ba42 65d4 ba42 bde0 b842 23eb ba42
00000030: df07 ba42 35b8 ba42 1f17 ba42 5159 ba42
00000040: 200f bb42 f11c ba42 c445 b942 3914 b942
00000050: 4bb4 b942 19a3 ba42 56a4 ba42 2b6e ba42
00000060: e5a7 ba42 e018 bb42 422b ba42 8dc5 ba42
00000070: c08b b942 55dd b842 2048 ba42 2373 ba42
00000080: 9ce4 b942 6b87 bac2 1258 b942 b59a ba42
00000090: c13d ba42 298d ba42 2562 ba42 9101 ba42
000000a0: bb02 b942 2b8c ba42 99a5 b942 0dc3 ba42
000000b0: 01cf b942 de73 ba42 61aa ba42 4a2c ba42
000000c0: 378f b942 8246 b942 8ba3 b942 5b05 ba42
000000d0: eefc b942 ab03 ba42 82c0 ba42 952d ba42
000000e0: 193e ba42 048b ba42 614a b942 2506 b942
000000f0: 2807 bbc2 182d bb42 66b4 bac2 94db b942
00000100: 5d08 bac2 ca37 bbc2 dd5b bb42 26e2 bb42
00000110: 9e24 bbc2 19af bdc2 ceac ba42 f787 bcc2
00000120: ebda ba42 c5b6 bac2 2095 bcc2 8c1c bd42
00000130: c150 bec2 9811 bdc2 fffb bbc2 0c72 ba42
00000140: 5741 bac2 94d9 ba42 7bd9 bb42 79c2 bdc2
00000150: f35c bbc2 13ff bcc2 6112 bcc2 b9ea bbc2
00000160: 2237 c3c2 54c6 ba42 4580 bb42 f6f6 bb42
00000170: c079 ba42 9735 bbc2 047c b942 a42a bc42
00000180: 9dfb bb42 62cb bb42 fd47 bb42 c805 bb42
00000190: a679 b842 df87 bc42 5966 ba42 b251 bb42
000001a0: fe0f bb42 75f7 bb42 1df6 bb42 6ed5 ba42
000001b0: fe1a b942 2a57 b942 7ab1 b942 f1ba bb42
000001c0: 29e0 ba42 336c ba42 f2ad bb42 ed8e bb42
000001d0: c58a ba42 5449 bb42 64c1 b942 8f20 b942

price_encoder.encoder.bias_hh_l0 f4 [120]
93.26349 93.20263 93.08268 -93.346504 92.93515 93.39916 93.24695 93.24808
93.35344 93.375725 92.50346 93.50445 93.12569 93.391174 93.17692 93.40507
93.310104 93.06094 92.878426 92.49877 93.10956 93.1166 93.24669 93.14202
93.37801 93.49523 93.02352 93.345055 92.54582 92.57184 93.22089 93.259674
92.92964 -93.43215 92.87499 93.25951 93.10184 93.24812 93.108475 93.20156
92.43364 93.3205 93.143425 93.31085 92.93375 93.2886 93.29314 93.17571
92.61411 92.646385 92.79843 93.2719 93.03054 93.05165 93.27847 93.309
93.024345 93.07401 92.6269 92.48186 -93.5369 93.69688 -93.14132 92.7797
-92.99967 -93.60757 93.52964 93.96558 -93.509415 -94.67046 93.32222 -94.38423
93.34859 -93.48833 -94.27551 94.54219 -95.05888 -94.441826 -94.08256 93.15725
-93.11236 93.33656 93.66622 -95.059685 -93.69371 -94.37225 -94.25824 -93.90143
-97.62111 93.59481 93.78106 93.99514 93.12528 -93.61552 92.76652 94.208206
93.71133 94.02582 93.65043 93.46524 92.31104 93.982994 92.99008 93.63605
93.46995 93.79806 93.720665 93.499 92.534775 92.712715 92.8525 93.68052
93.30872 93.47654 94.03758 93.89166 93.31299 93.585945 92.8392 92.43453
00000000: e886 ba42 bf67 ba42 552a ba42 69b1 bac2
00000010: ccde b942 5fcc ba42 707e ba42 047f ba42
00000020: f6b4 ba42 5fc0 ba42 c601 b942 4702 bb42
00000030: 5a40 ba42 48c8 ba42 955a ba42 65cf ba42
00000040: c69e ba42 341f ba42 c1c1 b942 5fff b842
00000050: 1838 ba42 b33b ba42 4e7e ba42 b748 ba42
00000060: 8bc1 ba42 8ffd ba42 0b0c ba42 abb0 ba42
00000070: 7617 b942 c824 b942 1871 ba42 f484 ba42
00000080: fadb b942 43dd bac2 ffbf b942 de84 ba42
00000090: 2434 ba42 0a7f ba42 8a37 ba42 3367 ba42
000000a0: 06de b842 19a4 ba42 6f49 ba42 289f ba42
000000b0: 14de b942 c393 ba42 1696 ba42 f759 ba42
000000c0: 6d3a b942 f34a b942 cc98 b942 368b ba42
000000d0: a30f ba42 721a ba42 948e ba42 359e ba42
000000e0: 770c ba42 e525 ba42 f940 b942 b6f6 b842
000000f0: e512 bbc2 cd64 bb42 5b48 bac2 358f b942
00000100: d5ff b9c2 1337 bbc2 2d0f bb42 61ee bb42
00000110: d204 bbc2 4757 bdc2 faa4 ba42 bac4 bcc2
00000120: 7ab2 ba42 06fa bac2 108d bcc2 9a15 bd42
00000130: 261e bec2 37e2 bcc2 452a bcc2 8350 ba42
00000140: 8739 bac2 52ac ba42 1b55 bb42 8f1e bec2
00000150: 2e63 bbc2 98be bcc2 3884 bcc2 88cd bbc2
00000160: 023e c3c2 8b30 bb42 e78f bb42 83fd bb42
00000170: 2540 ba42 253b bbc2 7588 b942 9a6a bc42
00000180: 336c bb42 380d bc42 054d bb42 34ee ba42
00000190: 419f b842 4bf7 bb42 ecfa b942 a845 bb42
000001a0: 9df0 ba42 9b98 bb42 fb70 bb42 7dff ba42
000001b0: ce11 b942 e96c b942 7bb4 b942 6d5c bb42
000001c0: 119e ba42 fdf3 ba42 3e13 bc42 88c8 bb42
000001d0: 40a0 ba42 012c bb42 acad b942 7bde b842

key_encoder.attention.weight f4 [1, 83]
92.52194 92.6695 92.66968 92.70547 92.568405 -92.62585 92.71784 92.61257
92.65284 92.52474 92.61067 92.58284 92.55725 92.64099 92.5524 92.89194
92.536446 92.54344 92.71411 -92.641914 92.69613 -92.68721 92.90158 -92.60398
92.55932 92.65275 92.59969 92.76108 92.61413 92.79957 92.61225 -92.670296
92.795105 92.53856 92.63972 92.69305 92.63546 92.629745 92.71581 92.761154
92.77348 92.68052 92.60085 92.749176 92.60612 -92.62453 92.70361 -92.6343
92.817024 -92.63101 92.64684 92.70089 26.765186 -71.50994 -84.62231 -54.479294
-55.11023 -84.54537 -92.86827 53.105293 -89.91334 -90.91811 89.02778 52.21716
-92.77142 -86.1596 -92.058525 -10.117267 37.27709 -89.66162 -60.381676 -91.63989
-85.64506 -92.546364 -92.80119 -92.66031 -80.6308 -79.82011 -92.18057 -89.44616
94.00596 -36.178886 36.08349
00000000: 3c0b b942 c956 b942 e056 b942 3369 b942
00000010: 0623 b942 6f40 b9c2 896f b942 a339 b942
00000020: 414e b942 ab0c b942 aa38 b942 6a2a b942
00000030: 501d b942 3048 b942 d41a b942 acc8 b942
00000040: a912 b942 3e16 b942 a06d b942 a948 b9c2
00000050: 6b64 b942 da5f b9c2 9ccd b942 3d35 b9c2
00000060: 5f1e b942 354e b942 0b33 b942 ac85 b942
00000070: 6f3a b942 6199 b942 7939 b942 3157 b9c2
00000080: 1897 b942 be13 b942 8947 b942 d762 b942
00000090: 5b45 b942 6e42 b942 7f6e b942 b685 b942
000000a0: 068c b942 6d5c b942 a333 b942 947f b942
000000b0: 5536 b942 c23f b9c2 4068 b942 c344 b9c2
000000c0: 51a2 b942 1443 b9c2 2f4b b942 db66 b942
000000d0: 1a1f d641 1705 8fc2 9f3e a9c2 ccea 59c2
000000e0: e070 5cc2 3b17 a9c2 8ebc b9c2 d26b 5442
000000f0: a1d3 b3c2 13d6 b5c2 390e b242 5fde 5042
00000100: f88a b9c2 b751 acc2 f71d b8c2 53e0 21c1
00000110: bd1b 1542 c052 b3c2 d686 71c2 a047 b7c2
00000120: 454a abc2 bd17 b9c2 369a b9c2 1452 b9c2
00000130: f842 a1c2 e5a3 9fc2 745c b8c2 6fe4 b2c2
00000140: 0d03 bc42 2eb7 10c2 7e55 1042

key_encoder.encoder.weight_ih_l0 f4 [104, 38]
93.088135 92.786865 92.718925 92.87132 92.734825 92.80232 92.868614 92.68759
92.905495 92.742 92.76878 93.05319 92.865425 92.67552 92.74253 92.90803
92.97288 92.87492 92.676674 93.27629 92.80966 93.02654 92.93353 92.753944
92.679405 92.9966 92.866135 93.00933 93.320335 92.89516 92.71325 92.76143
92.876564 92.76089 92.99077 92.64945 92.95675 92.85221 93.377014 92.989204
92.92947 93.053154 92.89486 92.73846 92.76242 92.93514 93.07943 92.7888
92.843666 93.04958 93.091576 92.73003 92.96853 92.97301 92.74071 92.86964
92.73154 93.31948 92.86109 92.95039 92.943924 92.84827 92.762794 93.00115
93.01856 92.9925 93.23625 92.89026 92.84374 92.92324 93.01974 92.81911
92.84776 92.90976 92.688515 93.05054 93.00236 92.77577 92.7921 92.75682
92.95349 92.98989 92.90801 93.02572 92.652855 92.95464 92.79161 92.83258
92.8644 92.98163 92.66294 92.849236 92.778534 92.924034 92.67119 93.30536
92.64994 92.79721 92.71095 92.7058 92.70135 92.80906 92.739136 92.92313
93.12572 92.71359 92.6655 93.02221 92.98448 92.888374 92.877365 92.87317
92.89385 92.913 93.10564 93.04263 92.86343 92.92051 92.70842 92.89998
92.94922 92.79211 92.927635 92.978806 92.83987 92.72616 92.94636 92.77308
92.893875 92.90313 92.70049 92.89102 92.78763 93.356316 92.86957 92.69616
92.83046 92.83594 92.70748 92.851845 93.0299 92.89463 93.15673 92.977325
93.02635 92.837395 92.879425 93.04341 92.69082 92.758255 92.68843 92.70599
93.228096 92.95779 92.80597 93.00267 92.7419 92.76474 93.0508 92.943474
92.75394 92.801285 93.02851 92.758484 92.79999 92.68628 92.96225 92.75664
92.91989 93.00273 92.92292 93.252075 92.82341 93.036064 92.85954 92.96897
92.94375 93.03578 93.03131 92.7411 93.29679 92.69333 92.941154 92.7361
92.73501 92.83432 92.86281 92.84335 93.04036 92.77936 93.19772 93.00476
93.00625 92.96249 92.88551 92.71249 92.96816 92.84989 92.86388 92.98729
92.95055 92.76799 93.00324 92.645874 92.890945 92.64674 92.58821 92.91405
92.81539 93.364586 -93.02857 92.65843 92.83716 92.10644 92.92734 -93.578926
92.8324 92.62073 93.46991 -92.87255 92.667404 92.86235 93.01056 92.98585
92.97496 92.91185 54.21511 93.017715 93.11083 92.870605 92.77274 92.940704
92.84315 92.86103 92.68472 92.81122 92.84939 93.01838 92.79543 92.92757
93.03933 92.95181 92.74769 92.937195 92.7338 92.96426 93.06879 93.45648
92.969406 92.92066 92.92895 92.79711 92.89032 92.94543 92.67451 92.69054
00000000: 202d ba42 e092 b942 1770 b942 1ebe b942
00000010: 3b78 b942 ca9a b942 bbbc b942 0c60 b942
00000020: 9dcf b942 e77b b942 9e89 b942 3c1b ba42
00000030: 19bb b942 de59 b942 2d7c b942 e9d0 b942
00000040: 1df2 b942 f6bf b942 755a b942 768d ba42
00000050: 8c9e b942 970d ba42 f8dd b942 0582 b942
00000060: db5b b942 42fe b942 76bb b942 c704 ba42
00000070: 03a4 ba42 52ca b942 2f6d b942 da85 b942
00000080: cdc0 b942 9385 b942 46fb b942 854c b942
00000090: dbe9 b942 55b4 b942 08c1 ba42 79fa b942
000000a0: e3db b942 371b ba42 2bca b942 177a b942
000000b0: 5c86 b942 cbde b942 ab28 ba42 de93 b942
000000c0: f5af b942 6319 ba42 e32e ba42 c675 b942
000000d0: e3ef b942 2ef2 b942 3e7b b942 41bd b942
000000e0: 8c76 b942 93a3 ba42 e1b8 b942 9ae6 b942
000000f0: 4ae3 b942 50b2 b942 8d86 b942 9700 ba42
00000100: 8109 ba42 29fc b942 f678 ba42 d0c7 b942
00000110: ffaf b942 b3d8 b942 1b0a ba42 62a3 b942
00000120: 0eb2 b942 ccd1 b942 8560 b942 e019 ba42
00000130: 3501 ba42 328d b942 8e95 b942 7e83 b942
00000140: 30e8 b942 d3fa b942 e7d0 b942 2b0d ba42
00000150: 434e b942 c7e8 b942 4e95 b942 48aa b942
00000160: 93ba b942 98f6 b942 6d53 b942 cfb2 b942
00000170: 9c8e b942 1bd9 b942 a657 b942 589c ba42
00000180: c54c b942 2c98 b942 026c b942 5f69 b942
00000190: 1767 b942 3d9e b942 707a b942 a4d8 b942
000001a0: 5e40 ba42 5c6d b942 bc54 b942 5f0b ba42
000001b0: 0ef8 b942 d9c6 b942 36c1 b942 10bf b942
000001c0: a7c9 b942 75d3 b942 1636 ba42 d415 ba42
000001d0: 13ba b942 4dd7 b942 b66a b942 cacc b942
000001e0: 00e6 b942 8f95 b942 f3da b942 26f5 b942
000001f0: 03ae b942 cb73 b942 89e4 b942 d18b b942
00000200: aac9 b942 67ce b942 a766 b942 34c8 b942
00000210: 4493 b942 6fb6 ba42 38bd b942 6f64 b942
00000220: 32a9 b942 00ac b942 3b6a b942 25b4 b942
00000230: 4f0f ba42 0dca b942 3f50 ba42 64f4 b942
00000240: 7e0d ba42 bfac b942 44c2 b942 3a16 ba42
00000250: b361 b942 3a84 b942 7a60 b942 7869 b942
00000260: c974 ba42 63ea b942 a89c b942 5e01 ba42
00000270: da7b b942 8c87 b942 021a ba42 0fe3 b942
00000280: 0482 b942 429a b942 990e ba42 5884 b942
00000290: 9899 b942 605f b942 acec b942 6683 b942
000002a0: fcd6 b942 6601 ba42 89d8 b942 1081 ba42
000002b0: 96a5 b942 7712 ba42 16b8 b942 1df0 b942
000002c0: 33e3 b942 5212 ba42 0810 ba42 717b b942
000002d0: f597 ba42 fc62 b942 dfe1 b942 e278 b942
000002e0: 5378 b942 2cab b942 c2b9 b942 ccaf b942
000002f0: aa14 ba42 088f b942 3c65 ba42 7002 ba42
00000300: 3303 ba42 cbec b942 62c5 b942 cb6c b942
00000310: b3ef b942 25b3 b942 4eba b942 7ef9 b942
00000320: aee6 b942 3689 b942 a901 ba42 b04a b942
00000330: 2ac8 b942 224b b942 2a2d b942 fed3 b942
00000340: 7ba1 b942 abba ba42 a10e bac2 1e51 b942
00000350: a0ac b942 7f36 b842 ccda b942 6928 bbc2
00000360: 30aa b942 d03d b942 98f0 ba42 bfbe b9c2
00000370: b655 b942 86b9 b942 6805 ba42 c1f8 b942
00000380: 2ef3 b942 ded2 b942 46dc 5842 1209 ba42
00000390: bf38 ba42 c0bd b942 a58b b942 a4e1 b942
000003a0: b1af b942 d9b8 b942 945e b942 589f b942
000003b0: e3b2 b942 6909 ba42 4397 b942 eada b942
000003c0: 2314 ba42 54e7 b942 d17e b942 d8df b942
000003d0: b577 b942 b3ed b942 3823 ba42 b8e9 ba42
000003e0: 56f0 b942 61d7 b942 9fdb b942 1f98 b942
000003f0: d8c7 b942 0fe4 b942 5959 b942 8e61 b942

key_encoder.encoder.weight_hh_l0 f4 [104, 26]
-92.747444 -92.87502 -92.74491 -92.83662 -92.87282 92.73625 -92.76886 -92.69291
-92.68155 -92.81307 -92.99596 -93.03091 -92.99058 -92.87418 -92.868774 92.870445
-92.88708 -92.75466 -92.983986 92.744865 -92.69972 92.99027 -92.95248 92.87853
-92.99942 -92.83278 -93.01935 -93.05865 -92.74238 -92.74308 -93.00962 93.01114
-92.82511 -92.996216 -93.20063 -93.04953 -92.79617 -93.10316 -92.845436 -93.07734
-93.0284 93.040596 -93.06807 -92.946495 -92.76406 92.8973 -92.96016 93.057945
92.82914 92.810356 -92.8987 -92.86542 -92.706726 -92.78082 -92.885216 -92.73534
-92.723816 92.713745 -92.76925 -93.02568 -92.89551 -92.87341 -92.84553 -92.70892
-92.90751 -92.9047 -92.76551 92.78851 -92.73799 -92.73331 -92.688866 92.9532
-92.75749 92.723305 -92.739365 92.84999 -92.99741 -92.73614 -93.02697 -92.87352
-92.80526 -92.728 -93.042114 93.05113 -92.74268 -92.88345 -92.740585 -92.79615
-92.8342 -92.84452 -92.98728 -92.74593 -92.91651 92.69061 -92.67656 -92.845276
-92.95256 92.74548 -93.02908 92.92271 -92.959274 92.87607 -92.78495 -92.70057
-92.868546 -92.77399 -92.68948 -92.99617 -92.92655 92.85496 -93.02719 -92.75045
-92.79317 -92.728134 -92.84291 -92.892784 -92.86211 -92.79347 -92.856544 92.84257
-92.759155 -92.72339 -93.00474 92.77402 -92.6616 93.010216 -92.6363 92.8346
-92.7038 -92.75446 -93.06081 -92.74429 -92.85261 -92.71561 -92.86065 92.75299
-92.86296 -92.822716 -93.04467 -92.906845 -92.782364 -92.87153 -92.98111 -92.68531
-92.73109 92.76438 -92.925224 -92.77912 -93.01202 92.836136 -92.77992 93.049164
-92.83717 93.0557 -92.80698 -92.819466 -93.05128 -92.69469 -92.70149 -92.76587
-92.7746 92.96364 -93.06667 -93.049324 -92.92706 -92.76004 -92.92507 -92.741905
-92.76506 -92.76403 -92.93254 92.94891 -93.04842 -92.864494 -93.00262 92.877556
-92.858986 93.03189 -92.9405 92.89936 -92.67632 -92.73049 -92.71676 -92.96893
-92.95527 -93.095764 -93.093796 92.96359 -92.801384 -92.865875 -93.3082 -93.12499
-92.77637 -92.90813 -93.1715 -93.05544 -93.11171 92.886955 -92.83302 -93.119965
-92.77091 93.16948 -93.108406 92.88949 92.74455 93.09038 -92.93904 -92.869865
-92.74496 -92.93822 -93.036835 -92.88657 -93.03499 92.918144 -92.79534 -93.056656
-93.280815 -92.85131 -92.79743 -92.91566 -93.17986 -92.765915 -92.77721 92.99762
-92.88666 -92.96944 -93.04538 93.17127 -93.02862 93.091805 92.68071 92.83493
-93.17909 -92.98223 -92.95284 -93.09698 -92.98775 -92.90031 -93.0119 93.15642
-92.99419 -93.14433 -93.071014 -92.95105 -92.74988 -92.97435 -92.97053 -92.95642
-93.01002 92.92603 -93.14029 -93.00678 -93.00325 92.90954 -93.0159 93.03345
00000000: b17e b9c2 03c0 b9c2 657d b9c2 59ac b9c2
00000010: e2be b9c2 f678 b942 a889 b9c2 c562 b9c2
00000020: f45c b9c2 4ba0 b9c2 eefd b9c2 d30f bac2
00000030: 2dfb b9c2 95bf b9c2 d0bc b9c2 abbd b942
00000040: 2fc6 b9c2 6382 b9c2 cdf7 b9c2 5f7d b942
00000050: 4266 b9c2 05fb b942 abe7 b9c2 cfc1 b942
00000060: b4ff b9c2 62aa b9c2 e809 bac2 071e bac2
00000070: 197c b9c2 757c b9c2 ed04 bac2 b405 ba42
00000080: 75a6 b9c2 10fe b9c2 b966 bac2 5c19 bac2
00000090: a497 b9c2 d134 bac2 ddb0 b9c2 9927 bac2
000000a0: 8a0e bac2 c914 ba42 da22 bac2 9be4 b9c2
000000b0: 3387 b9c2 6bcb b942 9aeb b9c2 ab1d ba42
000000c0: 85a8 b942 e79e b942 22cc b9c2 18bb b9c2
000000d0: d869 b9c2 c88f b9c2 3bc5 b9c2 7e78 b9c2
000000e0: 9872 b9c2 706d b942 db89 b9c2 260d bac2
000000f0: 80ca b9c2 30bf b9c2 e9b0 b9c2 f86a b9c2
00000100: a5d0 b9c2 35cf b9c2 f187 b9c2 b893 b942
00000110: da79 b9c2 7477 b9c2 b360 b9c2 0ae8 b942
00000120: d683 b9c2 5572 b942 8e7a b9c2 32b3 b942
00000130: adfe b9c2 e778 b9c2 cf0d bac2 3ebf b9c2
00000140: 4b9c b9c2 bc74 b9c2 9015 bac2 2e1a ba42
00000150: 417c b9c2 54c4 b9c2 2e7b b9c2 a197 b9c2
00000160: 1cab b9c2 65b0 b9c2 7df9 b9c2 eb7d b9c2
00000170: 41d5 b9c2 9861 b942 665a b9c2 c8b0 b9c2
00000180: b6e7 b9c2 b07d b942 e40e bac2 6dd8 b942
00000190: 26eb b9c2 8cc0 b942 e591 b9c2 b166 b9c2
000001a0: b2bc b9c2 488c b9c2 0461 b9c2 0afe b9c2
000001b0: 65da b9c2 bdb5 b942 ec0d bac2 3b80 b9c2
000001c0: 1a96 b9c2 ce74 b9c2 92af b9c2 1bc9 b9c2
000001d0: 66b9 b9c2 4296 b9c2 8db6 b9c2 65af b942
000001e0: b084 b9c2 6072 b9c2 6d02 bac2 4c8c b942
000001f0: bd52 b9c2 3b05 ba42 c945 b9c2 51ab b942
00000200: 5868 b9c2 4982 b9c2 221f bac2 147d b9c2
00000210: 89b4 b9c2 646e b9c2 a7b8 b9c2 8881 b942
00000220: d6b9 b9c2 3ba5 b9c2 df16 bac2 4ed0 b9c2
00000230: 9290 b9c2 39be b9c2 54f6 b9c2 e15e b9c2
00000240: 5176 b9c2 5d87 b942 b7d9 b9c2 e98e b9c2
00000250: 2706 bac2 1aac b942 528f b9c2 2c19 ba42
00000260: a2ac b9c2 851c ba42 2c9d b9c2 91a3 b9c2
00000270: 411a bac2 ae63 b9c2 2a67 b9c2 2088 b9c2
00000280: 988c b9c2 62ed b942 2322 bac2 4119 bac2
00000290: a8da b9c2 2485 b9c2 a3d9 b9c2 db7b b9c2
000002a0: b687 b9c2 2f87 b9c2 76dd b9c2 d8e5 b942
000002b0: cb18 bac2 9fba b9c2 5701 bac2 4fc1 b942
000002c0: cdb7 b9c2 5410 ba42 89e1 b9c2 79cc b942
000002d0: 475a b9c2 0376 b9c2 fb6e b9c2 18f0 b9c2
000002e0: 19e9 b9c2 0831 bac2 0630 bac2 5ced b942
000002f0: 4f9a b9c2 54bb b9c2 cc9d bac2 ff3f bac2
00000300: 808d b9c2 f6d0 b9c2 cf57 bac2 631c bac2
00000310: 3239 bac2 1fc6 b942 82aa b9c2 6c3d bac2
00000320: b58a b9c2 c656 ba42 8137 bac2 6bc7 b942
00000330: 367d b942 462e ba42 cae0 b9c2 5fbd b9c2
00000340: 6b7d b9c2 5ee0 b9c2 dc12 bac2 edc5 b9c2
00000350: ea11 bac2 17d6 b942 3797 b9c2 021d bac2
00000360: c78f bac2 dfb3 b9c2 4998 b9c2 d1d4 b9c2
00000370: 175c bac2 2688 b9c2 ee8d b9c2 c8fe b942
00000380: f8c5 b9c2 5af0 b9c2 3c17 bac2 b157 ba42
00000390: a70e bac2 012f ba42 865c b942 7cab b942
000003a0: b25b bac2 e7f6 b9c2 dbe7 b9c2 a731 bac2
000003b0: baf9 b9c2 f5cc b9c2 1806 bac2 1650 ba42
000003c0: 06fd b9c2 e649 bac2 5c24 bac2 f0e6 b9c2
000003d0: f07f b9c2 def2 b9c2 e9f0 b9c2 b0e9 b9c2
000003e0: 2105 bac2 21da b942 d447 bac2 7903 bac2
000003f0: aa01 bac2 afd1 b942 2408 bac2 2011 ba42

key_encoder.encoder.bias_ih_l0 f4 [104]
93.03287 93.47725 93.11278 92.964325 92.95333 93.33911 93.07231 93.81242
93.916595 93.833954 93.53846 93.85124 93.75027 93.34623 93.106636 92.59847
93.505264 93.65465 93.47903 93.639534 93.919785 93.29154 93.01785 93.067116
93.82999 93.099464 92.73364 93.06187 92.84751 92.72919 93.00172 92.87094
92.83144 93.42657 93.61463 93.30889 92.93635 93.40723 93.346565 92.76557
92.73033 -92.77453 93.08664 93.53083 93.026306 92.88115 93.6106 92.825424
92.79648 92.89413 93.28567 92.86466 -93.79444 -93.75132 -93.377556 -93.663765
-93.68715 93.5545 -93.25542 -93.93054 -94.03163 -93.82363 -94.54132 -93.98774
-93.79039 -93.50205 -94.232605 -92.87253 -93.93221 -93.889656 -93.72243 93.67235
-93.93707 93.06147 -91.057785 93.30341 -93.792725 -93.85584 93.143906 93.52722
93.24199 93.13834 92.98397 93.398026 93.32634 93.88768 94.79217 94.13999
93.08675 94.19733 93.96278 93.23263 92.93629 92.79063 93.47621 94.28544
93.31901 93.546844 94.39523 93.102425 93.135025 93.33869 94.03235 92.94233
00000000: d410 ba42 5af4 ba42 be39 ba42 bced b942
00000010: 1be8 b942 a0ad ba42 0625 ba42 f69f bb42
00000020: 4cd5 bb42 fcaa bb42 b113 bb42 d6b3 bb42
00000030: 2380 bb42 45b1 ba42 9936 ba42 6b32 b942
00000040: b202 bb42 2e4f bb42 43f5 ba42 7147 bb42
00000050: eed6 bb42 4595 ba42 2409 ba42 5d22 ba42
00000060: f4a8 bb42 ed32 ba42 a077 b942 ad1f ba42
00000070: edb1 b942 5875 b942 e100 ba42 ecbd b942
00000080: b3a9 b942 67da ba42 b13a bb42 279e ba42
00000090: 69df b942 80d0 ba42 71b1 ba42 f987 b942
000000a0: ee75 b942 8f8c b9c2 5c2c ba42 c90f bb42
000000b0: 780d ba42 26c3 b942 a138 bb42 9ea6 b942
000000c0: cc97 b942 cbc9 b942 4392 ba42 b5ba b942
000000d0: c196 bbc2 ad80 bbc2 4fc1 bac2 d953 bbc2
000000e0: d25f bbc2 e71b bb42 c682 bac2 70dc bbc2
000000f0: 3210 bcc2 b3a5 bbc2 2815 bdc2 b9f9 bbc2
00000100: ae94 bbc2 0d01 bbc2 1877 bcc2 bcbe b9c2
00000110: 4bdd bbc2 81c7 bbc2 e271 bbc2 3e58 bb42
00000120: c8df bbc2 791f ba42 961d b6c2 599b ba42
00000130: e095 bbc2 31b6 bbc2 ae49 ba42 f00d bb42
00000140: e67b ba42 d546 ba42 cbf7 b942 cacb ba42
00000150: 16a7 ba42 7ec6 bb42 9795 bd42 ad47 bc42
00000160: 6a2c ba42 0865 bc42 f2ec bb42 1b77 ba42
00000170: 61df b942 cd94 b942 d2f3 ba42 2592 bc42
00000180: 55a3 ba42 fc17 bb42 5cca bc42 7134 ba42
00000190: 2245 ba42 69ad ba42 9010 bc42 79e2 b942

key_encoder.encoder.bias_hh_l0 f4 [104]
93.13081 93.505005 93.08165 93.05562 92.96258 93.385185 93.06733 93.63522
93.95047 93.89144 93.48422 94.13724 93.72441 93.16333 93.45023 92.54186
93.700905 93.57241 93.55469 93.521614 93.677055 93.34365 93.02336 93.283714
93.6535 93.22318 92.904434 92.949326 92.87756 92.68659 92.74261 92.93079
92.769394 93.31908 93.62467 93.463135 92.95614 93.6209 93.27213 92.75417
92.986755 -92.878044 93.29179 93.50508 92.77183 93.13151 93.38018 92.87588
92.82391 92.950806 93.55369 92.707794 -93.76392 -93.953575 -93.56292 -94.02005
-93.43475 93.47452 -93.02302 -93.8396 -93.940155 -93.630066 -94.252335 -93.99058
-93.87805 -93.17839 -93.90015 -92.80962 -93.906876 -93.70996 -93.91507 93.70403
-93.898056 93.21943 -90.73622 93.29346 -93.88828 -93.821045 92.96608 93.192085
93.07328 93.168236 93.0198 93.32618 93.093445 93.72613 94.63937 94.075066
92.91411 94.25761 93.83223 93.19303 93.27395 92.68342 93.483894 94.39818
93.03416 93.53222 94.46775 93.197014 93.1087 93.126175 94.1794 92.92039
00000000: fa42 ba42 9002 bb42 ce29 ba42 7a1c ba42
00000010: d7ec b942 37c5 ba42 7922 ba42 3c45 bb42
00000020: a4e6 bb42 6bc8 bb42 ecf7 ba42 4446 bc42
00000030: e672 bb42 a053 ba42 85e6 ba42 6f15 b942
00000040: dd66 bb42 1325 bb42 001c bb42 110b bb42
00000050: a75a bb42 f3af ba42 f60b ba42 4391 ba42
00000060: 984e bb42 4572 ba42 12cf b942 0ee6 b942
00000070: 50c1 b942 895f b942 377c b942 91dc b942
00000080: ee89 b942 5ea3 ba42 d53f bb42 20ed ba42
00000090: 8be9 b942 e73d bb42 558b ba42 2382 b942
000000a0: 38f9 b942 8fc1 b9c2 6595 ba42 9a02 bb42
000000b0: 2d8b b942 5543 ba42 a7c2 ba42 73c0 b942
000000c0: d8a5 b942 d0e6 b942 7d1b bb42 646a b942
000000d0: 2187 bbc2 3be8 bbc2 3720 bbc2 440a bcc2
000000e0: 98de bac2 f4f2 ba42 c90b bac2 e0ad bbc2
000000f0: 5ce1 bbc2 9842 bbc2 3281 bcc2 2dfb bbc2
00000100: 90c1 bbc2 565b bac2 e0cc bbc2 879e b9c2
00000110: 52d0 bbc2 806b bbc2 84d4 bbc2 7768 bb42
00000120: cecb bbc2 5970 ba42 f278 b5c2 4096 ba42
00000130: cdc6 bbc2 60a4 bbc2 a2ee b942 5962 ba42
00000140: 8525 ba42 2356 ba42 230a ba42 01a7 ba42
00000150: d82f ba42 c773 bb42 5c47 bd42 6f26 bc42
00000160: 06d4 b942 e583 bc42 1aaa bb42 d562 ba42
00000170: 438c ba42 e95d b942 c1f7 ba42 decb bc42
00000180: 7d11 ba42 7f10 bb42 7def bc42 df64 ba42
00000190: a837 ba42 9a40 ba42 da5b bc42 3dd7 b942

atten_layer.0.weight f4 [56, 168]
0.030601077 0.073880695 0.07579518 0.045431234 0.005803779 0.02473116 -0.036744796 0.017726429
0.030561611 -0.038288996 0.013768323 0.0036077276 -0.069029726 0.05670143 0.056615807 0.00832805
-0.0022600368 -0.017303146 0.07150658 -0.04919473 0.009461321 -0.037061613 0.015218452 0.0019763187
-0.070426255 0.03151358 -0.05884923 0.001781784 0.023188129 0.022423573 0.024935514 -0.00570634
0.06444914 -0.038174354 -0.03321723 0.049068548 0.06958767 0.022093065 -0.04678099 0.061090894
0.06533379 -0.052401736 0.071009345 0.023143686 -0.00020933151 0.025002643 0.042872757 0.06328871
0.014919065 0.011840969 -0.057153866 0.03603836 -0.03310051 0.0042568 -0.04636301 0.006700851
0.06188578 -0.029303014 0.0011396632 0.033669055 -0.06088535 0.06262117 0.069488816 -0.021230798
0.07622758 -0.038310554 0.008875251 0.064987116 -0.04528032 -0.016082827 0.075561084 -0.026810639
-0.051201954 0.0051973835 -0.059946224 -0.02536102 0.0014939383 -0.059393913 -0.020406187 0.045877762
0.06225761 -0.05850224 0.045818448 0.041019343 -0.01357016 -0.014989354 0.07466277 0.04392232
0.050251596 0.0014272928 -0.055196904 0.031909943 0.02991265 -0.006468281 -0.012680486 0.012043193
-0.044817075 -0.039952062 0.04382419 -0.041818045 0.043175116 0.057185464 0.036210082 0.0050667524
-0.022395507 0.062117778 0.06915549 0.04940241 0.011403322 -0.026707511 0.030040033 -0.029160753
92.764824 -92.80568 92.84785 -92.77195 -92.787834 92.84382 -92.80551 -92.87133
92.78395 92.86016 92.7976 92.85213 -92.832726 92.795555 92.72382 -92.817184
92.85002 92.72565 -92.76623 92.714806 92.84642 -92.824326 -92.76811 92.81356
92.76278 92.77014 92.81798 92.80327 92.71987 92.81168 -92.87714 -92.91031
-92.858315 -92.87055 -92.860954 92.80279 -92.812256 -92.848366 -93.03391 -92.970924
-92.91198 -92.89117 -92.92026 -92.85887 -92.885735 -92.75296 -92.8325 -92.86449
-92.87789 92.78738 -92.94208 92.80403 -92.76563 92.80464 -92.84725 -92.77606
-0.026054397 0.062255405 0.059617735 0.0036318973 0.005726598 -0.023090564 0.0012816787 0.075529955
-0.003835544 0.06298923 -0.045026917 -0.034248292 0.0345418 0.047150217 0.043110147 0.051583804
-0.0046918616 -0.0446037 -0.008974634 -0.028023187 0.052700035 0.016822986 -0.025203243 0.046587266
-0.004994042 0.04630839 0.06313095 0.058984287 -0.015092269 -0.034983985 0.035031848 0.064936064
0.02629517 -0.069615595 -0.002593957 0.038805805 0.006614469 0.04026381 -0.026527815 0.07257982
-0.06804742 0.025899075 -0.072045505 -0.0627493 0.00930728 -0.0011718348 -0.02978412 -0.02574655
0.048130013 0.0010588914 0.048803516 -0.06324466 -0.072978035 -0.061554767 -0.024705898 -0.06713864
0.046454065 0.030963197 -0.06968436 0.052405275 -0.039098755 0.043569088 0.038892783 -0.027362488
0.0473572 -0.020491522 -0.057194084 0.06478568 0.005873516 0.027771525 0.06010697 0.0086766705
0.023401305 -0.048633114 -0.057487566 0.012154013 -0.030755904 0.057148673 -0.04477352 0.06886131
-0.07634761 0.07587098 0.054117672 0.04091005 0.07391108 0.023086198 0.012971461 0.04993502
00000000: 1caf fa3c c34e 973d 813a 9b3d 1a16 3a3d
00000010: a02d be3b 0099 ca3c b681 16bd 0437 913c
00000020: 585c fa3c ecd4 1cbd 8894 613c a06f 6c3b
00000030: 755f 8dbd c23f 683d fae5 673d 6072 083c
00000040: 201d 14bb 54bf 8dbc 0b72 923d 6a80 49bd
00000050: a803 1b3c ebcd 17bd d056 793c 2085 013b
00000060: a43b 90bd 6214 013d e40b 71bd c08a e93a
00000070: 08f5 bd3c a4b1 b73c 9045 cc3c 40fc babb
00000080: e9fd 833d b65c 1cbd ca0e 08bd 1afc 483d
00000090: fb83 8e3d 84fc b43c 6c9d 3fbd 723a 7a3d
000000a0: b9cd 853d 34a3 56bd 596d 913d d497 bd3c
000000b0: 0080 5bb9 58d2 cc3c 589b 2f3d 839d 813d
000000c0: 186f 743c a000 423c 2c1a 6abd f69c 133d
000000d0: 6694 07bd a07c 8b3b 24e7 3dbd d092 db3b
000000e0: f27b 7d3d e00c f0bc c060 953a 90e8 093d
000000f0: eb62 79bd 873f 803d 2750 8e3d 36ec adbc
00000100: 351d 9c3d 87eb 1cbd 8069 113c f717 853d
00000110: db77 39bd 22c0 83bc c5bf 9a3d fca1 dbbc
00000120: 24b9 51bd d04e aa3b 2c8a 75bd eac1 cfbc
00000130: 40d0 c33a 0847 73bd e02a a7bc 52ea 3b3d
00000140: d601 7f3d 0ba0 6fbd 20ac 3b3d e603 283d
00000150: 6055 5ebc e895 75bc cbe8 983d e4e7 333d
00000160: 9ed4 4d3d 0014 bb3a 2616 62bd 00b4 023d
00000170: 600b f53c e0f3 d3bb d0c1 4fbc d050 453c
00000180: 1c92 37bd c6a4 23bd fe80 333d 6649 2bbd
00000190: 64d8 303d 4e3b 6a3d 0651 143d 0007 a63b
000001a0: c876 b7bc 366f 7e3d 65a1 8d3d 2e5a 4a3d
000001b0: 00d5 3a3c b6c9 dabc 8416 f63c 88e2 eebc
000001c0: 9787 b942 829c b9c2 19b2 b942 3d8b b9c2
000001d0: 5f93 b9c2 09b0 b942 6c9c b9c2 1fbe b9c2
000001e0: 6291 b942 67b8 b942 5f98 b942 4ab4 b942
000001f0: 5baa b9c2 5397 b942 9972 b942 66a2 b9c2
00000200: 36b3 b942 8873 b942 4f88 b9c2 fb6d b942
00000210: 5eb1 b942 0ea6 b9c2 4689 b9c2 8ba0 b942
00000220: 8b86 b942 508a b942 cea2 b942 469b b942
00000230: 9370 b942 959f b942 18c1 b9c2 14d2 b9c2
00000240: 75b7 b9c2 b9bd b9c2 cfb8 b9c2 079b b942
00000250: e09f b9c2 5db2 b9c2 5d11 bac2 1df1 b9c2
00000260: efd2 b9c2 47c8 b9c2 2cd7 b9c2 beb7 b9c2
00000270: 7fc5 b9c2 8481 b9c2 3daa b9c2 9eba b9c2
00000280: 7bc1 b9c2 2393 b942 58e2 b9c2 aa9b b942
00000290: 0188 b9c2 fa9b b942 cbb1 b9c2 588d b9c2
000002a0: 0870 d5bc 86ff 7e3d ba31 743d 2005 6e3b
000002b0: 30a6 bb3b 6c28 bdbc 00fe a73a 73af 9a3d
000002c0: c05d 7bbb 7f00 813d 256e 38bd f047 0cbd
000002d0: b47b 0d3d 9620 413d 4494 303d 8a49 533d
000002e0: 30be 99bb 5fb2 36bd 580a 13bc e290 e5bc
000002f0: fedb 573d 5cd0 893c 0877 cebc 4ad2 3e3d
00000300: 10a5 a3bb dead 3d3d cd4a 813d 8299 713d
00000310: 9045 77bc 5e4b 0fbd 8e7d 0f3d 33fd 843d
00000320: f868 d73c 9f92 8ebd 60ff 29bb d6f2 1e3d
00000330: 30be d83b aaeb 243d dc50 d9bc bba4 943d
00000340: 725c 8bbd 4c2a d43c 988c 93bd b482 80bd
00000350: 907d 183c 4098 99ba d4fd f3bc 6eea d2bc
00000360: fa23 453d 80ca 8a3a 32e6 473d 6b86 81bd
00000370: 8275 95bd da20 7cbd 0664 cabc fc7f 89bd
00000380: 9e46 3e3d 88a6 fd3c acb6 8ebd eaa6 563d
00000390: 0426 20bd 8075 323d 0a4e 1f3d 4c27 e0bc
000003a0: a0f9 413d d6dd a7bc 5844 6abd 5bae 843d
000003b0: a076 c03b 1c81 e33c ba32 763d 9828 0e3c
000003c0: 18b4 bf3c 8433 47bd 1578 6bbd a021 473c
000003d0: cef3 fbbc ba14 6a3d 7064 37bd 2907 8d3d
000003e0: 235c 9cbd 3f62 9b3d 7eaa 5d3d 4c91 273d
000003f0: b15e 973d 441f bd3c 4086 543c aa88 4c3d

atten_layer.0.bias f4 [56]
-92.78659 92.89402 -92.94664 -93.01963 93.08584 92.96124 -92.99506 92.7646
-92.811134 -92.79149 92.97321 93.031364 -92.71072 92.88709 92.98936 -92.85849
-92.8813 92.94818 92.867134 92.92991 92.836105 -92.96236 92.791275 92.89186
-92.96962 -92.86014 92.98973 92.88902 -93.0902 -92.8428 -92.85726 -92.77363
92.92894 -92.77979 92.84731 92.93058 93.03885 -92.902176 92.9525 92.768684
92.74063 -92.85453 92.99171 -92.86918 -93.023125 92.82266 -92.84695 -92.95843
92.79359 -92.960045 92.97557 92.89036 92.84365 92.88635 92.73791 93.04166
00000000: bc92 b9c2 bdc9 b942 aee4 b9c2 0d0a bac2
00000010: f32b ba42 28ec b942 79fd b9c2 7a87 b942
00000020: 4d9f b9c2 3e95 b9c2 49f2 b942 0f10 ba42
00000030: e36b b9c2 31c6 b942 8dfa b942 8cb7 b9c2
00000040: 3ac3 b9c2 78e5 b942 f9bb b942 1ddc b942
00000050: 16ac b942 baec b9c2 2295 b942 a2c8 b942
00000060: 72f0 b9c2 64b8 b9c2 befa b942 2ec7 b942
00000070: 2f2e bac2 83af b9c2 ebb6 b9c2 198c b9c2
00000080: 9edb b942 418f b9c2 d3b1 b942 75dc b942
00000090: e413 ba42 eacd b9c2 aee7 b942 9189 b942
000000a0: 347b b942 85b5 b9c2 c1fb b942 05bd b9c2
000000b0: d70b bac2 34a5 b942 a3b1 b9c2 b7ea b9c2
000000c0: 5196 b942 8beb b9c2 7ef3 b942 ddc7 b942
000000d0: f3af b942 d0c5 b942 cf79 b942 5415 ba42

atten_layer.2.weight f4 [1, 56]
-92.971405 -92.93841 93.11772 93.36631 -93.47131 -93.35917 93.25985 92.576004
-92.535805 93.50783 -93.342865 -93.442116 -92.65162 -93.49396 -93.43503 -92.77099
93.45132 -93.3963 92.5652 -93.10021 92.61043 93.50752 -93.2309 -93.29211
93.47907 93.23806 -93.42464 -93.23848 93.72379 -92.89674 93.45788 92.08734
-93.261795 93.3375 92.93067 92.4344 -93.54219 93.2434 -93.4064 -93.28063
-93.39229 -92.2986 -93.33245 93.15911 93.51427 -93.27227 93.21793 -92.328545
-93.350624 93.404915 -93.36109 92.50358 -93.06153 92.6217 -93.45816 -93.34746
00000000: 5cf1 b9c2 77e0 b9c2 463c ba42 8dbb ba42
00000010: 50f1 bac2 e5b7 bac2 0b85 ba42 ea26 b942
00000020: 5512 b9c2 0204 bb42 8caf bac2 5de2 bac2
00000030: a14d b9c2 e8fc bac2 bcde bac2 bf8a b9c2
00000040: 13e7 ba42 e8ca bac2 6221 b942 4f33 bac2
00000050: 8a38 b942 da03 bb42 3976 bac2 8f95 bac2
00000060: 49f5 ba42 e379 ba42 6ad9 bac2 1a7a bac2
00000070: 9572 bb42 22cb b9c2 6fea ba42 b82c b842
00000080: 0a86 bac2 cdac ba42 81dc b942 6ade b842
00000090: 9a15 bbc2 9f7c ba42 14d0 bac2 af8f bac2
000000a0: dac8 bac2 e298 b8c2 37aa bac2 7751 ba42
000000b0: 4e07 bb42 678b bac2 956f ba42 37a8 b8c2
000000c0: 85b3 bac2 51cf ba42 e1b8 bac2 d501 b942
000000d0: 811f bac2 4f3e b942 94ea bac2 e6b1 bac2
