Final project/competition/savemodel/best_997.pth (torch_old, 668674 bytes, 63 tensors)

price_encoder.attention.weight f4 [1, 90]
93.32843 -93.3964 93.36701 93.02199 93.37718 93.25519 -93.28436 -93.26194
93.27993 93.42117 -93.53349 93.25552 -93.35184 93.386246 93.287865 -93.37442
93.251724 93.43316 93.39029 -93.462715 93.44453 -93.43254 -93.38894 93.32047
93.43764 93.23601 93.25686 93.30278 93.25905 -93.37172 93.24158 -93.27115
93.25766 -93.01414 93.458496 93.30418 -93.24363 -93.27689 93.29816 93.37102
-93.418465 93.28703 -93.23234 93.26823 93.28938 -93.18055 93.337265 93.25542
93.496666 -93.45969 93.2107 -93.2067 -93.31192 93.3601 93.23526 93.34834
93.33835 93.293396 93.3668 -93.351524 -93.31764 -93.45923 -93.43292 -93.35082
-93.35942 -93.270386 -93.30084 -93.19761 -93.24102 -93.31189 -93.377396 -93.31055
-93.38824 -93.242584 -93.3037 -93.37508 -93.42443 -93.32777 -93.190414 -93.499214
-93.5804 -93.450096 -93.296234 -93.37359 -93.29306 -93.32496 -93.44541 -93.45412
-93.285774 -93.28796
00000000: 28a8 ba42 f5ca bac2 e9bb ba42 420b ba42
00000010: 1ec1 ba42 a882 ba42 9891 bac2 1d86 bac2
00000020: 538f ba42 a4d7 ba42 2611 bbc2 d482 ba42
00000030: 24b4 bac2 c2c5 ba42 6393 ba42 b4bf bac2
00000040: e280 ba42 c7dd ba42 d4c7 ba42 e9ec bac2
00000050: 99e3 ba42 76dd bac2 23c7 bac2 15a4 ba42
00000060: 12e0 ba42 d678 ba42 8383 ba42 069b ba42
00000070: a284 ba42 52be bac2 b07b ba42 d48a bac2
00000080: ec83 ba42 3d07 bac2 c0ea ba42 bd9b ba42
00000090: bd7c bac2 c58d bac2 a898 ba42 f6bd ba42
000000a0: 41d6 bac2 f692 ba42 f576 bac2 5589 ba42
000000b0: 2a94 ba42 715c bac2 aeac ba42 c682 ba42
000000c0: 4bfe ba42 5ceb bac2 e16b ba42 d569 bac2
000000d0: b49f bac2 5fb8 ba42 7478 ba42 5ab2 ba42
000000e0: 3cad ba42 3896 ba42 cdbb ba42 fbb3 bac2
000000f0: a2a2 bac2 20eb bac2 a8dd bac2 9fb3 bac2
00000100: 06b8 bac2 708a bac2 089a bac2 2d65 bac2
00000110: 677b bac2 b09f bac2 3ac1 bac2 009f bac2
00000120: c7c6 bac2 347c bac2 7f9b bac2 0ac0 bac2
00000130: 4fd9 bac2 d1a7 bac2 7e61 bac2 99ff bac2
00000140: 2a29 bbc2 73e6 bac2 ac97 bac2 47bf bac2
00000150: 0c96 bac2 61a6 bac2 0de4 bac2 82e8 bac2
00000160: 5192 bac2 6f93 bac2

price_encoder.encoder.weight_ih_l0 f4 [120, 45]
-0.02793178 0.1659053 0.089111865 -0.10533601 0.039936095 0.12055233 -0.041761532 0.06366204
-0.011075169 0.069458574 -0.13266143 -0.03441298 0.0019231737 -0.117390715 -0.10916938 -0.08162318
0.17701969 -0.097250424 -0.11704612 0.1715846 -0.11743466 -0.090703584 -0.023374781 0.053907037
-0.1259009 0.11685911 -0.002341494 -0.1447586 -0.13288452 -0.07936543 -0.10408088 0.024621636
-0.15256993 6.5582623 93.399826 93.29698 93.42236 93.62309 -0.16858862 93.15934
93.12592 93.31265 93.233475 -0.07702953 0.14633876 -0.087639265 0.14713901 0.098106176
0.016076818 0.08180472 0.17378917 -0.00849463 0.12793487 -0.16095623 0.07286188 -0.13692565
0.17495844 -0.0057578087 0.12833688 -0.0067935437 0.1780172 -0.022323564 -0.1799866 0.12036848
-0.06767259 -0.17381896 0.086512804 -0.1499305 -0.0030415654 -0.080220304 0.0018644184 0.045352727
0.07877207 0.057161212 -0.027959242 -0.043069318 -0.05252628 0.04787472 11.400146 93.60082
93.557365 93.50858 93.57531 0.049079835 93.22808 93.26292 93.20346 93.17359
-0.12076433 -0.052312136 -0.04911323 -0.074447714 -0.09788899 -0.12207773 -0.16502465 -0.075807564
0.14258617 -0.09083863 -0.10512807 -0.040507615 -0.00748387 -0.14982599 0.09543118 0.13661915
0.056603387 -0.13499823 0.14127922 0.10218549 0.14161563 -0.0530577 0.06770086 0.0012703985
-0.160405 0.07557231 -0.06442967 -0.012323514 0.026938453 0.16269457 0.13730204 0.16942424
0.0987131 0.16908619 -0.021376714 1.5973134 93.49968 93.38622 93.32946 93.35103
0.050925076 -93.27486 -93.203995 -93.13311 -93.00264 -0.15714212 0.1776132 0.17508787
-0.09002762 -0.16769372 0.13094664 0.03586474 0.082597524 0.051597625 -0.15537903 -0.14529344
-0.016515613 0.122695655 -0.12479582 0.11078784 0.17374763 -0.0021284223 0.046351746 0.08735749
-0.12531884 0.1775131 -0.120550424 -0.06450698 0.0355293 0.053161576 -0.02132681 0.14098316
0.11206645 -0.15580924 -0.12004362 0.07446739 -0.16503657 -0.16748399 -0.09458407 -0.06176097
-55.023827 -93.60336 -93.7062 -93.72836 -93.7326 0.14568758 -93.06509 -93.03287
-93.1179 -93.21526 -0.07349676 0.030572727 0.15248236 0.10972297 0.05698718 0.04875289
0.10734862 -0.16393048 -0.15306395 0.12068209 -0.056950524 -0.17460313 -0.14710304 0.18235013
-0.12058912 0.007890016 -0.031610355 0.01650323 -0.17160596 -0.035647318 -0.088063784 -0.13107723
-0.18182483 0.033290148 -0.04843411 -0.12368278 0.06135094 0.109292656 -0.054469913 -0.07591993
0.17163575 -0.15462951 -0.13256735 -0.105674624 -0.058312796 -14.266514 93.33568 93.00993
93.29199 93.01814 -0.032874897 -93.084816 -93.18551 -93.15727 -93.09102 0.13303456
0.0070085227 0.13146299 0.13633779 -0.1325457 -0.07732 -0.10483149 -0.10166873 0.063666284
-0.114520386 0.034959048 0.04285772 -0.09563743 0.15928802 -0.08301964 -0.021774992 0.048963293
0.025104672 -0.052761078 0.006186411 -0.09697678 0.13118163 0.08848438 0.06826976 0.17775333
-0.103305146 -0.12755477 0.09963223 -0.17355406 0.08659232 0.13889086 -0.07877074 0.058019727
00000000: 30d1 e4bc 14e3 293e 4880 b63d 68ba d7bd
00000010: 0894 233d 24e4 f63d 240e 2bbd 3e61 823d
00000020: a074 35bc 4c40 8e3d 66d8 07be a0f4 0cbd
00000030: 0013 fc3a 8b6a f0bd 3294 dfbd 0e2a a7bd
00000040: a644 353e 3b2b c7bd e0b5 efbd e0b3 2f3e
00000050: 9581 f0bd cdc2 b9bd 787c bfbc a0cd 5c3d
00000060: 2aec 00be d453 ef3d c073 19bb 993b 14be
00000070: e112 08be 588a a2bd 5b28 d5bd 50b3 c93c
00000080: 4b3b 1cbe 49dd d140 b6cc ba42 0e98 ba42
00000090: 40d8 ba42 063f bb42 7fa2 2cbe 9551 ba42
000000a0: 7940 ba42 14a0 ba42 8a77 ba42 a9c1 9dbd
000000b0: d4d9 153e 377c b3bd 9cab 163e e4eb c83d
000000c0: 88b3 833c 3c89 a73d caf5 313e 102d 0bbc
000000d0: 5c01 033e b6d1 24be 9c38 953d 3d36 0cbe
000000e0: 4e28 333e 00ac bcbb be6a 033e 609c debb
000000f0: 244a 363e e8df b6bc 684e 38be c083 f63d
00000100: ed97 8abd 99fd 31be a02d b13d 6287 19be
00000110: 0055 47bb 8b4a a4bd 805f f43a c8c3 393d
00000120: 4053 a13d e021 6a3d c80a e5bc 7469 30bd
00000130: cc25 57bd 4818 443d ff66 3641 9f33 bb42
00000140: 5f1d bb42 6504 bb42 8f26 bb42 f007 493d
00000150: c774 ba42 9d86 ba42 2c68 ba42 e158 ba42
00000160: 4a53 f7bd 4045 56bd f42a 49bd 0b78 98bd
00000170: 067a c8bd e403 fabd 39fc 28be ff40 9bbd
00000180: 1c02 123e 9b09 babd 634d d7bd 50eb 25bd
00000190: 403b f5bb fc6b 19be 6c71 c33d e4e5 0b3e
000001a0: f4d8 673d fa3c 0abe 80ab 103e a046 d13d
000001b0: b003 113e 0853 59bd c0a6 8a3d 8083 a63a
000001c0: 3541 24be a8c5 9a3d b4f3 83bd 90e8 49bc
000001d0: 08ae dc3c 6899 263e e898 0c3e 8c7d 2d3e
000001e0: 182a ca3d ee24 2d3e 381e afbc c474 cc3f
000001f0: d6ff ba42 bfc5 ba42 afa8 ba42 bab3 ba42
00000200: d096 503d ba8c bac2 7268 bac2 2744 bac2
00000210: 5a01 bac2 dde9 20be 3ce0 353e 3c4a 333e
00000220: 6760 b8bd e7b7 2bbe e016 063e e8e6 123d
00000230: e428 a93d 0858 533d ae1b 1fbe cec7 14be
00000240: c04b 87bc dc47 fb3d f394 ffbd bce4 e23d
00000250: e6ea 313e 007d 0bbb 54db 3d3d 7ce8 b23d
00000260: 9553 00be fec5 353e 24e3 f6bd 3c1c 84bd
00000270: 2c87 113d f4bf 593d 90b5 aebc e45d 103e
00000280: 1883 e53d 758c 1fbe 6ed9 f5bd 5c82 983d
00000290: 59ff 28be ec80 2bbe 4bb5 c1bd 12f9 7cbd
000002a0: 6618 5cc2 ec34 bbc2 9369 bbc2 ec74 bbc2
000002b0: 1777 bbc2 202f 153e 5321 bac2 d410 bac2
000002c0: 5d3c bac2 376e bac2 7885 96bd a873 fa3c
000002d0: 5624 1c3e 70b6 e03d 646b 693d 1cb1 473d
000002e0: 98d9 db3d 64dd 27be ccbc 1cbe 2c28 f73d
000002f0: f444 69bd 2acb 32be 2ea2 16be feb9 3a3e
00000300: 6ef7 f6bd 2045 013c dc79 01bd c831 873c
00000310: 79b9 2fbe ec02 12bd c95a b4bd 1c39 06be
00000320: 4a30 3abe 405b 083d d862 46bd 664d fdbd
00000330: 204b 7b3d d4d4 df3d d81b 5fbd e97b 9bbd
00000340: 48c1 2f3e 3357 1ebe bcbf 07be f06b d8bd
00000350: 66d9 6ebd a443 64c1 deab ba42 1605 ba42
00000360: 8095 ba42 4a09 ba42 d4a7 06bd 6d2b bac2
00000370: fb5e bac2 8650 bac2 9a2e bac2 363a 083e
00000380: c0a7 e53b 3c9e 063e 229c 0b3e 0fba 07be
00000390: f359 9ebd e4b1 d6bd b237 d0bd 7863 823d
000003a0: aa89 eabd 3831 0f3d 948b 2f3d 8fdd c3bd
000003b0: 661c 233e 3306 aabd 7861 b2bc bc8d 483d
000003c0: 50a8 cd3c 001c 58bd 60b7 ca3b c39b c6bd
000003d0: 7a54 063e 4c37 b53d 04d1 8b3d f804 363e
000003e0: a691 d3bd b89d 02be fc0b cc3d 28b8 31be
000003f0: 5057 b13d 6839 0e3e 8e52 a1bd 18a6 6d3d

price_encoder.encoder.weight_hh_l0 f4 [120, 30]
-93.27098 93.19422 -93.18433 -93.251076 -93.29905 -93.27254 93.16315 93.35486
-93.3273 -93.424225 93.170166 -93.40034 93.270996 -93.4184 -93.42295 93.29089
-93.22344 -93.320564 -93.26276 93.40921 -93.11932 93.30481 93.307396 -93.28194
-93.308815 -93.30263 -93.434494 -93.24262 -93.15623 93.34649 -93.3785 93.279236
-93.1145 -93.09674 -93.14011 -93.292274 93.335106 93.53427 -93.226074 -93.39767
93.05283 -93.24367 93.207016 -93.4699 -93.35551 93.34087 -93.41249 -93.37446
-93.4051 93.35436 -93.13306 93.130646 93.19589 -93.40279 -93.27953 -93.50053
-93.13091 -93.189415 -93.230965 -93.26366 -93.47404 93.15468 -93.16911 93.045235
-93.38638 -93.222565 93.48531 93.29318 -93.19366 -93.34263 93.3028 -93.28117
93.17724 -93.419426 -93.360054 93.2963 -93.51324 -93.14029 -93.42296 93.14597
-93.125374 93.20304 93.359215 -93.361755 -93.45883 -93.27932 -93.468994 -93.49205
-93.075615 93.29965 93.189545 -93.40135 -93.35634 93.36178 93.31964 93.52197
-93.41637 -93.33249 93.402596 -92.22053 -93.19325 93.1849 -93.274185 93.30652
-93.27399 -93.31838 93.28945 93.404625 -93.17668 -93.31759 93.04369 -93.41539
-93.260765 93.08427 93.35415 93.14001 93.30706 93.333405 -93.01135 93.13453
-93.395905 93.2792 -93.16298 93.146576 -93.03484 -93.23669 93.38263 93.370186
-93.413734 -93.08918 93.242455 -93.4026 93.36542 -93.13705 -93.092285 93.23593
-93.36975 -93.16374 -93.38617 93.210556 -93.1392 93.19096 93.24444 -93.07184
-93.18961 -93.3369 -93.38534 -93.14994 -93.07683 93.2328 -93.335754 93.45499
-93.245255 -93.12613 -93.23694 -93.39723 93.38872 93.60424 -93.46733 -93.21618
93.158516 -93.56709 93.25084 -93.35291 -93.11558 93.26653 -93.25803 -93.428925
-93.08516 93.4048 -93.10173 93.1643 93.371826 -93.249245 -93.48229 -93.22526
-93.20585 -93.451035 -93.21152 -93.083725 -93.374954 93.19655 -93.42303 -93.182144
-93.26966 -93.32944 93.30604 93.283516 -93.15847 -93.30873 93.345726 -93.23814
93.1433 -93.272446 -93.089516 93.25258 -93.45884 -93.31252 93.06299 93.301636
-93.439896 93.27406 93.45744 -93.412766 -93.337296 -93.395294 -93.371254 -93.25506
-93.03028 -93.093 -93.19733 93.26483 -93.202934 -93.250595 -93.29032 -93.463196
93.42563 93.25969 -93.19646 -93.28906 93.26614 -93.33314 93.094376 -93.39508
-93.40135 93.42197 -93.34324 -93.38167 93.108604 93.1652 -93.09604 93.44202
93.36874 -93.31981 -93.30489 -93.42924 -93.436905 -93.24894 -92.74076 -93.133804
-93.19296 93.19579 -93.15018 -93.25915 -93.21007 -93.41402 93.37419 93.45718
-93.21558 -93.27213 93.242584 -93.559364 93.34107 -93.391266 -93.33457 93.473335
00000000: be8a bac2 7163 ba42 615e bac2 8d80 bac2
00000010: 1d99 bac2 8a8b bac2 8853 ba42 b0b5 ba42
00000020: 94a7 bac2 34d9 bac2 2057 ba42 f9cc bac2
00000030: c08a ba42 39d6 bac2 8dd8 bac2 f094 ba42
00000040: 6772 bac2 21a4 bac2 8886 bac2 84d1 ba42
00000050: 183d bac2 109c ba42 639d ba42 5a90 bac2
00000060: 1d9e bac2 f29a bac2 76de bac2 397c bac2
00000070: fd4f bac2 67b1 ba42 cbc1 bac2 f88e ba42
00000080: a03a bac2 8831 bac2 bc47 bac2 a595 bac2
00000090: 93ab ba42 8c11 bb42 c073 bac2 9bcb bac2
000000a0: 0d1b ba42 c27c bac2 fe69 ba42 97f0 bac2
000000b0: 05b6 bac2 87ae ba42 32d3 bac2 b9bf bac2
000000c0: 69cf bac2 6fb5 ba42 2044 bac2 e442 ba42
000000d0: 4c64 ba42 3ace bac2 1f8f bac2 4500 bbc2
000000e0: 0743 bac2 fb60 bac2 4176 bac2 fe86 bac2
000000f0: b5f2 bac2 324f ba42 9656 bac2 2917 ba42
00000100: d4c5 bac2 f471 bac2 7bf8 ba42 1c96 ba42
00000110: 2763 bac2 6daf bac2 099b ba42 f68f bac2
00000120: bf5a ba42 bfd6 bac2 59b8 bac2 b597 ba42
00000130: c706 bbc2 d447 bac2 8ed8 bac2 bd4a ba42
00000140: 3140 bac2 f567 ba42 ebb7 ba42 38b9 bac2
00000150: ecea bac2 038f bac2 20f0 bac2 eefb bac2
00000160: b726 bac2 6c99 ba42 0c61 ba42 7ecd bac2
00000170: 72b6 bac2 3bb9 ba42 a8a3 ba42 400b bb42
00000180: 2ed5 bac2 3caa bac2 21ce ba42 e970 b8c2
00000190: f262 bac2 ab5e ba42 628c bac2 f09c ba42
000001a0: 488c bac2 03a3 bac2 3394 ba42 2bcf ba42
000001b0: 765a bac2 9ba2 bac2 5f16 ba42 aed4 bac2
000001c0: 8385 bac2 252b ba42 53b5 ba42 af47 ba42
000001d0: 379d ba42 b4aa ba42 d005 bac2 e144 ba42
000001e0: b4ca bac2 f38e ba42 7253 bac2 0c4b ba42
000001f0: d711 bac2 2f79 bac2 e8c3 ba42 89bd ba42
00000200: d5d3 bac2 a92d bac2 237c ba42 22ce bac2
00000210: 18bb ba42 2b46 bac2 402f bac2 cc78 ba42
00000220: 50bd bac2 d653 bac2 b8c5 bac2 ce6b ba42
00000230: 4547 bac2 c661 ba42 277d ba42 c824 bac2
00000240: 1561 bac2 7eac bac2 4bc5 bac2 c54c bac2
00000250: 5627 bac2 3277 ba42 e8ab bac2 f4e8 ba42
00000260: 927d bac2 9440 bac2 5079 bac2 62cb bac2
00000270: 06c7 ba42 5f35 bb42 46ef bac2 af6e bac2
00000280: 2951 ba42 5a22 bbc2 6e80 ba42 b1b4 bac2
00000290: 2d3b bac2 7788 ba42 1d84 bac2 9cdb bac2
000002a0: 9a2b bac2 42cf ba42 1634 bac2 1f54 ba42
000002b0: 60be ba42 9d7f bac2 eff6 bac2 5573 bac2
000002c0: 6569 bac2 eee6 bac2 4c6c bac2 de2a bac2
000002d0: fabf bac2 a264 ba42 97d8 bac2 425d bac2
000002e0: 118a bac2 aca8 bac2 b19c ba42 2991 ba42
000002f0: 2351 bac2 129e bac2 03b1 ba42 ed79 bac2
00000300: 5f49 ba42 7e8b bac2 d52d bac2 5281 ba42
00000310: edea bac2 03a0 bac2 4020 ba42 709a ba42
00000320: 3ae1 bac2 528c ba42 36ea ba42 56d3 bac2
00000330: b2ac bac2 64ca bac2 15be bac2 9782 bac2
00000340: 810f bac2 9e2f bac2 0865 bac2 9887 ba42
00000350: e767 bac2 4e80 bac2 a594 bac2 28ed bac2
00000360: ecd9 ba42 f684 ba42 9664 bac2 0094 bac2
00000370: 4488 ba42 91aa bac2 5230 ba42 48ca bac2
00000380: 7ecd bac2 0cd8 ba42 bdaf bac2 6ac3 bac2
00000390: 9b37 ba42 9554 ba42 2c31 bac2 50e2 ba42
000003a0: cbbc ba42 bea3 bac2 1b9c bac2 c5db bac2
000003b0: b2df bac2 757f bac2 457b b9c2 8244 bac2
000003c0: cc62 bac2 3f64 ba42 e44c bac2 af84 bac2
000003d0: 8e6b bac2 fad3 bac2 96bf ba42 13ea ba42
000003e0: 616e bac2 558b bac2 347c ba42 651e bbc2
000003f0: a1ae ba42 54c8 bac2 4dab bac2 59f2 ba42

price_encoder.encoder.bias_ih_l0 f4 [120]
93.58078 93.76728 93.45774 -93.92127 93.175064 93.64684 93.861824 93.856606
93.51926 93.791626 92.815735 93.836044 93.392166 93.73657 93.42195 93.55124
93.906334 93.43332 93.013054 92.91629 93.22893 93.69534 93.69776 93.591965
93.70471 93.92538 93.46128 93.762634 93.14974 92.80908 93.51766 93.60167
93.323296 -93.64128 93.048805 93.678955 93.497406 93.6525 93.56848 93.37985
92.882126 93.65056 93.200226 93.75775 93.2811 93.603096 93.709564 93.463295
93.15651 93.0145 93.19621 93.38725 93.3708 93.38396 93.752785 93.46582
93.49808 93.64831 93.022064 92.888794 -93.89077 93.96487 -93.72913 93.30566
-93.39313 -93.985756 94.05621 94.31849 -93.94831 -95.21878 93.7143 -94.64235
93.80437 -93.733765 -94.66805 94.93255 -95.534515 -94.911156 -94.36897 93.59954
-93.50441 93.80175 94.30156 -95.25662 -94.058334 -94.874985 -94.41269 -94.335236
-97.984474 93.76415 94.12732 94.35914 93.614586 -93.98146 93.11901 94.460075
94.368225 94.274025 94.017395 93.888084 92.61439 94.642166 93.57669 94.036354
93.90803 94.36011 94.35748 93.79365 92.92951 93.047035 93.22343 94.24191
93.814606 93.58812 94.21653 94.155945 93.64783 94.02001 93.25451 92.940384
00000000: 5c29 bb42 d988 bb42 5dea ba42 b1d7 bbc2
00000010: a259 ba42 2f4b bb42 41b9 bb42 95b6 bb42
00000020: dc09 bb42 5095 bb42 a8a1 b942 0eac bb42
00000030: cac8 ba42 2079 bb42 0ad8 ba42 3c1a bb42
00000040: 0bd0 bb42 dcdd ba42 af06 ba42 24d5 b942
00000050: 3675 ba42 0464 bb42 4165 bb42 162f bb42
00000060: d068 bb42 cbd9 bb42 2dec ba42 7886 bb42
00000070: ab4c ba42 409e b942 0b09 bb42 0e34 bb42
00000080: 87a5 ba42 5648 bbc2 fd18 ba42 a05b bb42
00000090: acfe ba42 144e bb42 1023 bb42 7cc2 ba42
000000a0: a6c3 b942 164d bb42 8466 ba42 f883 bb42
000000b0: ec8f ba42 c934 bb42 4c6b bb42 35ed ba42
000000c0: 2250 ba42 6d07 ba42 7664 ba42 46c6 ba42
000000d0: d9bd ba42 96c4 ba42 6d81 bb42 80ee ba42
000000e0: 04ff ba42 ef4b bb42 4c0b ba42 10c7 b942
000000f0: 13c8 bbc2 03ee bb42 5175 bbc2 7f9c ba42
00000100: 48c9 bac2 b5f8 bbc2 c81c bc42 11a3 bc42
00000110: 89e5 bbc2 0470 bec2 b96d bb42 e248 bdc2
00000120: d69b bb42 b077 bbc2 0b56 bdc2 77dd bd42
00000130: ac11 bfc2 83d2 bdc2 eabc bcc2 f732 bb42
00000140: 4202 bbc2 7f9a bb42 669a bc42 6483 bec2
00000150: de1d bcc2 febf bdc2 4cd3 bcc2 a4ab bcc2
00000160: 0df8 c3c2 3f87 bb42 3041 bc42 e1b7 bc42
00000170: ab3a bb42 82f6 bbc2 ef3c ba42 8feb bc42
00000180: 88bc bc42 4d8c bc42 e808 bc42 b3c6 bb42
00000190: 913a b942 ca48 bd42 4427 bb42 9d12 bc42
000001a0: e9d0 bb42 60b8 bc42 08b7 bc42 5996 bb42
000001b0: e9db b942 1518 ba42 6572 ba42 dc7b bc42
000001c0: 14a1 bb42 1e2d bb42 dd6e bc42 d84f bc42
000001d0: b04b bb42 3f0a bc42 4f82 ba42 7ae1 b942

price_encoder.encoder.bias_hh_l0 f4 [120]
93.64028 93.57942 93.45947 -93.7233 93.31194 93.775955 93.62374 93.62487
93.73023 93.75252 92.88026 93.88124 93.50248 93.76797 93.55371 93.78186
93.6869 93.43774 93.25522 92.875565 93.48635 93.49339 93.62348 93.518814
93.75481 93.872025 93.400314 93.72185 92.922615 92.94863 93.59768 93.63647
93.306435 -93.808945 93.251785 93.6363 93.47863 93.624916 93.48527 93.578354
92.81043 93.697296 93.52022 93.687645 93.31054 93.66539 93.66993 93.552505
92.990906 93.02318 93.175224 93.64869 93.40733 93.428444 93.655266 93.68579
93.40114 93.450806 93.00369 92.85865 -93.9137 94.07367 -93.51811 93.156494
-93.376465 -93.98436 93.90643 94.34238 -93.88621 -95.04726 93.69901 -94.761024
93.72538 -93.86512 -94.652306 94.91898 -95.43568 -94.81862 -94.45935 93.53404
-93.48915 93.713356 94.043015 -95.43648 -94.0705 -94.74905 -94.63503 -94.27822
-97.9979 93.9716 94.15785 94.37193 93.502075 -93.99231 93.14331 94.585
94.08812 94.40261 94.02722 93.84203 92.687836 94.35979 93.366875 94.01284
93.84674 94.17485 94.09746 93.87579 92.91157 93.08951 93.229294 94.05731
93.68552 93.85333 94.414375 94.268456 93.68978 93.96274 93.215996 92.811325
00000000: d347 bb42 aa28 bb42 40eb ba42 5472 bbc2
00000010: b79f ba42 4a8d bb42 5b3f bb42 ef3f bb42
00000020: e175 bb42 4a81 bb42 b1c2 b942 32c3 bb42
00000030: 4501 bb42 3389 bb42 801b bb42 5090 bb42
00000040: b15f bb42 1fe0 ba42 ac82 ba42 4ac0 b942
00000050: 03f9 ba42 9efc ba42 393f bb42 a209 bb42
00000060: 7682 bb42 7abe bb42 f6cc ba42 9671 bb42
00000070: 61d8 b942 b3e5 b942 0332 bb42 df45 bb42
00000080: e59c ba42 2e9e bbc2 ea80 ba42 c945 bb42
00000090: 0ff5 ba42 f53f bb42 75f8 ba42 1e28 bb42
000000a0: f19e b942 0465 bb42 5a0a bb42 1360 bb42
000000b0: ff9e ba42 ae54 bb42 0157 bb42 e21a bb42
000000c0: 58fb b942 de0b ba42 b759 ba42 214c bb42
000000d0: 8ed0 ba42 5ddb ba42 7f4f bb42 205f bb42
000000e0: 62cd ba42 d0e6 ba42 e401 ba42 a1b7 b942
000000f0: d0d3 bbc2 b825 bc42 4609 bbc2 2050 ba42
00000100: c0c0 bac2 fef7 bbc2 18d0 bb42 4caf bc42
00000110: bdc5 bbc2 3218 bec2 e565 bb42 a585 bdc2
00000120: 6573 bb42 f1ba bbc2 fb4d bdc2 85d6 bd42
00000130: 11df bec2 22a3 bdc2 30eb bcc2 6e11 bb42
00000140: 72fa bac2 3d6d bb42 0616 bc42 7adf bec2
00000150: 1924 bcc2 837f bdc2 2345 bdc2 738e bcc2
00000160: edfe c3c2 76f1 bb42 d250 bc42 6ebe bc42
00000170: 1001 bb42 10fc bbc2 6049 ba42 852b bd42
00000180: 1e2d bc42 23ce bc42 f00d bc42 1faf bb42
00000190: 2c60 b942 36b8 bc42 d7bb ba42 9306 bc42
000001a0: 88b1 bb42 8659 bc42 e631 bc42 68c0 bb42
000001b0: b9d2 b942 d42d ba42 6675 ba42 581d bc42
000001c0: fc5e bb42 e8b4 bb42 29d4 bc42 7389 bc42
000001d0: 2b61 bb42 ecec bb42 976e ba42 669f b942

key_encoder.attention.weight f4 [1, 83]
92.898735 93.046295 93.04647 93.08226 92.9452 -93.00264 93.094635 92.989365
93.02963 92.901535 92.987465 92.95963 92.934044 93.017784 92.92919 93.26873
92.91324 92.920235 93.090904 -93.01871 93.07292 -93.064 93.27837 -92.980774
92.93611 93.02954 92.97649 93.13787 92.99092 93.17636 92.989044 -93.04709
93.1719 92.91535 93.01651 93.06984 93.01225 93.00654 93.092606 93.13795
93.150276 93.05731 92.977646 93.12597 92.98291 -93.00132 93.08041 -93.01109
93.19382 -93.007805 93.023636 93.07768 26.388393 -71.886734 -84.9991 -54.856087
-55.487022 -84.922165 -93.24506 53.481453 -90.29013 -91.29491 89.32209 52.593952
-93.14822 -86.53639 -92.43532 -10.494419 36.900295 -90.038414 -60.75847 -92.016685
-86.02185 -92.92316 -93.177986 -93.0371 -81.00759 -80.1969 -92.557365 -89.82295
94.38275 -36.55568 36.46028
00000000: 27cc b942 b417 ba42 cb17 ba42 1e2a ba42
00000010: f1e3 b942 5a01 bac2 7430 ba42 8efa b942
00000020: 2c0f ba42 96cd b942 95f9 b942 55eb b942
00000030: 3bde b942 1b09 ba42 bfdb b942 9789 ba42
00000040: 94d3 b942 29d7 b942 8b2e ba42 9409 bac2
00000050: 5625 ba42 c520 bac2 878e ba42 28f6 b9c2
00000060: 4adf b942 200f ba42 f6f3 b942 9746 ba42
00000070: 5afb b942 4c5a ba42 64fa b942 1c18 bac2
00000080: 0358 ba42 a9d4 b942 7408 ba42 c223 ba42
00000090: 4606 ba42 5903 ba42 6a2f ba42 a146 ba42
000000a0: f14c ba42 581d ba42 8ef4 b942 7f40 ba42
000000b0: 40f7 b942 ad00 bac2 2b29 ba42 ae05 bac2
000000c0: 3c63 ba42 ff03 bac2 1a0c ba42 c627 ba42
000000d0: 6e1b d341 02c6 8fc2 8aff a9c2 a26c 5bc2
000000e0: b6f2 5dc2 26d8 a9c2 797d bac2 02ed 5542
000000f0: 8c94 b4c2 fe96 b6c2 e9a4 b242 3560 5242
00000100: e34b bac2 a212 adc2 e2de b8c2 24e9 27c1
00000110: e799 1342 ab13 b4c2 ac08 73c2 8b08 b8c2
00000120: 300b acc2 a8d8 b9c2 215b bac2 ff12 bac2
00000130: e303 a2c2 d064 a0c2 5f1d b9c2 5aa5 b3c2
00000140: f8c3 bc42 0439 12c2 54d7 1142

key_encoder.encoder.weight_ih_l0 f4 [104, 38]
93.46493 93.16366 93.09572 93.248116 93.11162 93.179115 93.24541 93.064384
93.28229 93.11879 93.14558 93.429985 93.24222 93.052315 93.11932 93.28482
93.34967 93.25172 93.05347 93.65308 93.186455 93.403336 93.310326 93.13074
93.0562 93.37339 93.24293 93.38612 93.69713 93.27195 93.09004 93.13822
93.25336 93.13768 93.36756 93.026245 93.33354 93.229004 93.75381 93.366
93.30626 93.42995 93.27165 93.11525 93.13921 93.311935 93.45622 93.165596
93.22046 93.42638 93.46837 93.10682 93.34532 93.3498 93.1175 93.24643
93.10833 93.69627 93.237885 93.32719 93.32072 93.22506 93.13959 93.377945
93.395355 93.36929 93.613045 93.26705 93.220535 93.30003 93.39653 93.1959
93.224556 93.28655 93.06531 93.42733 93.37915 93.152565 93.16889 93.13361
93.330284 93.366684 93.284805 93.40251 93.02965 93.331436 93.1684 93.20937
93.241196 93.35842 93.039734 93.22603 93.15533 93.30083 93.04798 93.68215
93.02673 93.174 93.087746 93.082596 93.07814 93.18585 93.11593 93.29992
93.50251 93.090385 93.04229 93.399 93.361275 93.26517 93.25416 93.24996
93.270645 93.289795 93.48243 93.419426 93.24022 93.2973 93.08521 93.27677
93.32601 93.1689 93.30443 93.3556 93.21666 93.10295 93.32315 93.14987
93.27067 93.27992 93.077286 93.267815 93.16442 93.73311 93.24636 93.07295
93.20725 93.21273 93.084274 93.22864 93.40669 93.27142 93.53352 93.35412
93.403145 93.21419 93.25622 93.420204 93.06761 93.13505 93.06522 93.08279
93.60489 93.33458 93.18276 93.37946 93.11869 93.14153 93.42759 93.32027
93.13073 93.17808 93.405304 93.13528 93.17678 93.06307 93.33904 93.13343
93.296684 93.379524 93.29971 93.62887 93.2002 93.41286 93.236336 93.345764
93.32054 93.412575 93.408104 93.11789 93.673584 93.07012 93.31795 93.11289
93.1118 93.21111 93.2396 93.220146 93.41715 93.15615 93.57452 93.38155
93.38304 93.33928 93.26231 93.08928 93.344955 93.226685 93.24067 93.36408
93.32734 93.14478 93.380035 93.02267 93.26774 93.02354 92.965004 93.29084
93.192184 93.74138 -93.405365 93.035225 93.21395 92.48323 93.30413 -93.95572
93.20919 92.99752 93.8467 -93.249344 93.0442 93.23914 93.38735 93.36264
93.35175 93.28864 54.591904 93.39451 93.487625 93.2474 93.149536 93.3175
93.21994 93.23782 93.061516 93.18801 93.22618 93.39517 93.172226 93.30436
93.41612 93.328606 93.12448 93.31399 93.110596 93.34105 93.44558 93.833275
93.3462 93.297455 93.30574 93.173904 93.26711 93.32222 93.0513 93.06733
00000000: 0bee ba42 cb53 ba42 0231 ba42 097f ba42
00000010: 2639 ba42 b55b ba42 a67d ba42 f720 ba42
00000020: 8890 ba42 d23c ba42 894a ba42 27dc ba42
00000030: 047c ba42 c91a ba42 183d ba42 d491 ba42
00000040: 08b3 ba42 e180 ba42 601b ba42 614e bb42
00000050: 775f ba42 82ce ba42 e39e ba42 f042 ba42
00000060: c61c ba42 2dbf ba42 617c ba42 b2c5 ba42
00000070: ee64 bb42 3d8b ba42 1a2e ba42 c546 ba42
00000080: b881 ba42 7e46 ba42 31bc ba42 700d ba42
00000090: c6aa ba42 4075 ba42 f381 bb42 64bb ba42
000000a0: ce9c ba42 22dc ba42 168b ba42 023b ba42
000000b0: 4747 ba42 b69f ba42 96e9 ba42 c954 ba42
000000c0: e070 ba42 4eda ba42 ceef ba42 b136 ba42
000000d0: ceb0 ba42 19b3 ba42 293c ba42 2c7e ba42
000000e0: 7737 ba42 7e64 bb42 cc79 ba42 85a7 ba42
000000f0: 35a4 ba42 3b73 ba42 7847 ba42 82c1 ba42
00000100: 6cca ba42 14bd ba42 e139 bb42 bb88 ba42
00000110: ea70 ba42 9e99 ba42 06cb ba42 4d64 ba42
00000120: f972 ba42 b792 ba42 7021 ba42 cbda ba42
00000130: 20c2 ba42 1d4e ba42 7956 ba42 6944 ba42
00000140: 1ba9 ba42 bebb ba42 d291 ba42 16ce ba42
00000150: 2e0f ba42 b2a9 ba42 3956 ba42 336b ba42
00000160: 7e7b ba42 83b7 ba42 5814 ba42 ba73 ba42
00000170: 874f ba42 069a ba42 9118 ba42 435d bb42
00000180: b00d ba42 1759 ba42 ed2c ba42 4a2a ba42
00000190: 0228 ba42 285f ba42 5b3b ba42 8f99 ba42
000001a0: 4901 bb42 472e ba42 a715 ba42 4acc ba42
000001b0: f9b8 ba42 c487 ba42 2182 ba42 fb7f ba42
000001c0: 928a ba42 6094 ba42 01f7 ba42 bfd6 ba42
000001d0: fe7a ba42 3898 ba42 a12b ba42 b58d ba42
000001e0: eba6 ba42 7a56 ba42 de9b ba42 11b6 ba42
000001f0: ee6e ba42 b634 ba42 74a5 ba42 bc4c ba42
00000200: 958a ba42 528f ba42 9227 ba42 1f89 ba42
00000210: 2f54 ba42 5a77 bb42 237e ba42 5a25 ba42
00000220: 1d6a ba42 eb6c ba42 262b ba42 1075 ba42
00000230: 3ad0 ba42 f88a ba42 2a11 bb42 4fb5 ba42
00000240: 69ce ba42 aa6d ba42 2f83 ba42 25d7 ba42
00000250: 9e22 ba42 2545 ba42 6521 ba42 632a ba42
00000260: b435 bb42 4eab ba42 935d ba42 49c2 ba42
00000270: c53c ba42 7748 ba42 edda ba42 faa3 ba42
00000280: ef42 ba42 2d5b ba42 84cf ba42 4345 ba42
00000290: 835a ba42 4b20 ba42 97ad ba42 5144 ba42
000002a0: e797 ba42 51c2 ba42 7499 ba42 fb41 bb42
000002b0: 8166 ba42 62d3 ba42 0179 ba42 08b1 ba42
000002c0: 1ea4 ba42 3dd3 ba42 f3d0 ba42 5c3c ba42
000002d0: e058 bb42 e723 ba42 caa2 ba42 cd39 ba42
000002e0: 3e39 ba42 176c ba42 ad7a ba42 b770 ba42
000002f0: 95d5 ba42 f34f ba42 2726 bb42 5bc3 ba42
00000300: 1ec4 ba42 b6ad ba42 4d86 ba42 b62d ba42
00000310: 9eb0 ba42 1074 ba42 397b ba42 69ba ba42
00000320: 99a7 ba42 214a ba42 94c2 ba42 9b0b ba42
00000330: 1589 ba42 0d0c ba42 15ee b942 e994 ba42
00000340: 6662 ba42 967b bb42 8ccf bac2 0912 ba42
00000350: 8b6d ba42 6af7 b842 b79b ba42 54e9 bbc2
00000360: 1b6b ba42 bbfe b942 83b1 bb42 aa7f bac2
00000370: a116 ba42 717a ba42 53c6 ba42 acb9 ba42
00000380: 19b4 ba42 c993 ba42 1c5e 5a42 fdc9 ba42
00000390: aaf9 ba42 ab7e ba42 904c ba42 8fa2 ba42
000003a0: 9c70 ba42 c479 ba42 7f1f ba42 4360 ba42
000003b0: ce73 ba42 54ca ba42 2e58 ba42 d59b ba42
000003c0: 0ed5 ba42 3fa8 ba42 bc3f ba42 c3a0 ba42
000003d0: a038 ba42 9eae ba42 23e4 ba42 a3aa bb42
000003e0: 41b1 ba42 4c98 ba42 8a9c ba42 0a59 ba42
000003f0: c388 ba42 faa4 ba42 441a ba42 7922 ba42

key_encoder.encoder.weight_hh_l0 f4 [104, 26]
-93.12424 -93.251816 -93.121704 -93.21341 -93.24961 93.113045 -93.14565 -93.0697
-93.05834 -93.189865 -93.37275 -93.4077 -93.36737 -93.25098 -93.24557 93.24724
-93.26387 -93.131454 -93.36078 93.12166 -93.076515 93.367065 -93.32927 93.255325
-93.37621 -93.20957 -93.39614 -93.43544 -93.11917 -93.11987 -93.38641 93.38793
-93.201904 -93.37301 -93.57742 -93.42632 -93.172966 -93.47995 -93.22223 -93.45413
-93.40519 93.41739 -93.44486 -93.32329 -93.140854 93.27409 -93.33695 93.43474
93.20593 93.18715 -93.27549 -93.24221 -93.08352 -93.157616 -93.26201 -93.11213
-93.10061 93.09054 -93.14604 -93.40247 -93.2723 -93.250206 -93.22232 -93.08572
-93.2843 -93.281494 -93.1423 93.165306 -93.114784 -93.1101 -93.06566 93.329994
-93.134285 93.1001 -93.11616 93.22678 -93.37421 -93.11293 -93.40376 -93.25031
-93.18205 -93.10479 -93.41891 93.427925 -93.11948 -93.26025 -93.11738 -93.17294
-93.21099 -93.22131 -93.364075 -93.12273 -93.293304 93.067406 -93.05335 -93.22207
-93.32935 93.12228 -93.405876 93.2995 -93.33607 93.25286 -93.16174 -93.07736
-93.24534 -93.15078 -93.06628 -93.37296 -93.303345 93.23175 -93.403984 -93.12724
-93.16996 -93.10493 -93.2197 -93.26958 -93.2389 -93.170265 -93.23334 93.21936
-93.13595 -93.10018 -93.38153 93.15081 -93.03839 93.38701 -93.01309 93.211395
-93.08059 -93.131256 -93.4376 -93.121086 -93.2294 -93.0924 -93.23744 93.12978
-93.23975 -93.19951 -93.42146 -93.28364 -93.15916 -93.24832 -93.3579 -93.0621
-93.10788 93.141174 -93.30202 -93.155914 -93.38881 93.21293 -93.156715 93.42596
-93.21397 93.432495 -93.18377 -93.19626 -93.42807 -93.07148 -93.078285 -93.14266
-93.15139 93.34043 -93.44347 -93.42612 -93.303856 -93.13683 -93.301865 -93.1187
-93.14185 -93.14082 -93.30933 93.32571 -93.42522 -93.24129 -93.37941 93.25435
-93.23578 93.40868 -93.31729 93.27615 -93.053116 -93.107285 -93.09355 -93.345726
-93.33206 -93.47256 -93.47059 93.340385 -93.17818 -93.24267 -93.68499 -93.501785
-93.15316 -93.28492 -93.548294 -93.432236 -93.4885 93.26375 -93.209816 -93.49676
-93.147705 93.54627 -93.4852 93.26628 93.121346 93.46717 -93.315834 -93.24666
-93.12175 -93.31501 -93.41363 -93.26337 -93.41178 93.29494 -93.172134 -93.43345
-93.65761 -93.2281 -93.174225 -93.29245 -93.556656 -93.14271 -93.154 93.37441
-93.26345 -93.34623 -93.42217 93.548065 -93.40541 93.4686 93.0575 93.21172
-93.555885 -93.359024 -93.329636 -93.47377 -93.36454 -93.2771 -93.388695 93.53321
-93.37098 -93.521126 -93.44781 -93.32784 -93.12667 -93.35114 -93.34732 -93.33321
-93.38681 93.302826 -93.51708 -93.383575 -93.38004 93.28633 -93.39269 93.41024
00000000: 9c3f bac2 ee80 bac2 503e bac2 446d bac2
00000010: cd7f bac2 e139 ba42 934a bac2 b023 bac2
00000020: df1d bac2 3661 bac2 d9be bac2 bed0 bac2
00000030: 18bc bac2 8080 bac2 bb7d bac2 967e ba42
00000040: 1a87 bac2 4e43 bac2 b8b8 bac2 4a3e ba42
00000050: 2d27 bac2 f0bb ba42 96a8 bac2 ba82 ba42
00000060: 9fc0 bac2 4d6b bac2 d3ca bac2 f2de bac2
00000070: 043d bac2 603d bac2 d8c5 bac2 9fc6 ba42
00000080: 6067 bac2 fbbe bac2 a427 bbc2 47da bac2
00000090: 8f58 bac2 bcf5 bac2 c871 bac2 84e8 bac2
000000a0: 75cf bac2 b4d5 ba42 c5e3 bac2 86a5 bac2
000000b0: 1e48 bac2 568c ba42 85ac bac2 96de ba42
000000c0: 7069 ba42 d25f ba42 0d8d bac2 037c bac2
000000d0: c32a bac2 b350 bac2 2686 bac2 6939 bac2
000000e0: 8333 bac2 5b2e ba42 c64a bac2 11ce bac2
000000f0: 6b8b bac2 1b80 bac2 d471 bac2 e32b bac2
00000100: 9091 bac2 2090 bac2 dc48 bac2 a354 ba42
00000110: c53a bac2 5f38 bac2 9e21 bac2 f5a8 ba42
00000120: c144 bac2 4033 ba42 793b bac2 1d74 ba42
00000130: 98bf bac2 d239 bac2 bace bac2 2980 bac2
00000140: 365d bac2 a735 bac2 7bd6 bac2 19db ba42
00000150: 2c3d bac2 3f85 bac2 193c bac2 8c58 bac2
00000160: 076c bac2 5071 bac2 68ba bac2 d63e bac2
00000170: 2c96 bac2 8322 ba42 511b bac2 b371 bac2
00000180: a1a8 bac2 9b3e ba42 cfcf bac2 5899 ba42
00000190: 11ac bac2 7781 ba42 d052 bac2 9c27 bac2
000001a0: 9d7d bac2 334d bac2 ef21 bac2 f5be bac2
000001b0: 509b bac2 a876 ba42 d7ce bac2 2641 bac2
000001c0: 0557 bac2 b935 bac2 7d70 bac2 068a bac2
000001d0: 517a bac2 2d57 bac2 7877 bac2 5070 ba42
000001e0: 9b45 bac2 4b33 bac2 58c3 bac2 374d ba42
000001f0: a813 bac2 26c6 ba42 b406 bac2 3c6c ba42
00000200: 4329 bac2 3443 bac2 0de0 bac2 ff3d bac2
00000210: 7475 bac2 4f2f bac2 9279 bac2 7342 ba42
00000220: c17a bac2 2666 bac2 cad7 bac2 3991 bac2
00000230: 7d51 bac2 247f bac2 3fb7 bac2 cc1f bac2
00000240: 3c37 bac2 4848 ba42 a29a bac2 d44f bac2
00000250: 12c7 bac2 056d ba42 3d50 bac2 17da ba42
00000260: 8d6d bac2 70dd ba42 175e bac2 7c64 bac2
00000270: 2cdb bac2 9924 bac2 1528 bac2 0b49 bac2
00000280: 834d bac2 4dae ba42 0ee3 bac2 2cda bac2
00000290: 939b bac2 0f46 bac2 8e9a bac2 c63c bac2
000002a0: a148 bac2 1a48 bac2 619e bac2 c3a6 ba42
000002b0: b6d9 bac2 8a7b bac2 42c2 bac2 3a82 ba42
000002c0: b878 bac2 3fd1 ba42 74a2 bac2 648d ba42
000002d0: 321b bac2 ee36 bac2 e62f bac2 03b1 bac2
000002e0: 04aa bac2 f3f1 bac2 f1f0 bac2 47ae ba42
000002f0: 3a5b bac2 3f7c bac2 b75e bbc2 ea00 bbc2
00000300: 6b4e bac2 e191 bac2 ba18 bbc2 4edd bac2
00000310: 1dfa bac2 0a87 ba42 6d6b bac2 57fe bac2
00000320: a04b bac2 b117 bb42 6cf8 bac2 5688 ba42
00000330: 213e ba42 31ef ba42 b5a1 bac2 4a7e bac2
00000340: 563e bac2 49a1 bac2 c7d3 bac2 d886 bac2
00000350: d5d2 bac2 0297 ba42 2258 bac2 eddd bac2
00000360: b250 bbc2 ca74 bac2 3459 bac2 bc95 bac2
00000370: 021d bbc2 1149 bac2 d94e bac2 b3bf ba42
00000380: e386 bac2 45b1 bac2 27d8 bac2 9c18 bb42
00000390: 92cf bac2 ecef ba42 711d ba42 676c ba42
000003a0: 9d1c bbc2 d2b7 bac2 c6a8 bac2 92f2 bac2
000003b0: a5ba bac2 e08d bac2 03c7 bac2 0111 bb42
000003c0: f1bd bac2 d10a bbc2 47e5 bac2 dba7 bac2
000003d0: db40 bac2 c9b3 bac2 d4b1 bac2 9baa bac2
000003e0: 0cc6 bac2 0c9b ba42 bf08 bbc2 64c4 bac2
000003f0: 95c2 bac2 9a92 ba42 0fc9 bac2 0bd2 ba42

key_encoder.encoder.bias_ih_l0 f4 [104]
93.40966 93.85404 93.48957 93.34112 93.330124 93.715904 93.449104 94.18922
94.29339 94.21075 93.91525 94.228035 94.12706 93.72302 93.48343 92.975266
93.88206 94.03144 93.85582 94.01633 94.29658 93.668335 93.394646 93.44391
94.20678 93.47626 93.110435 93.43866 93.224304 93.10598 93.37851 93.247734
93.20824 93.80336 93.991425 93.685684 93.31314 93.78402 93.72336 93.142365
93.107124 -93.15132 93.46343 93.90762 93.4031 93.25794 93.9874 93.20222
93.17327 93.27092 93.66246 93.241455 -94.171234 -94.12811 -93.75435 -94.04056
-94.06394 93.93129 -93.63221 -94.307335 -94.408424 -94.200424 -94.91811 -94.36453
-94.16718 -93.878845 -94.6094 -93.24932 -94.309006 -94.26645 -94.09922 94.04914
-94.313866 93.43826 -91.43458 93.68021 -94.16952 -94.232635 93.5207 93.904015
93.61878 93.51514 93.36076 93.77482 93.70313 94.26447 95.16896 94.516785
93.46354 94.57412 94.33958 93.60942 93.31308 93.16742 93.853004 94.66223
93.6958 93.92364 94.772026 93.47922 93.51182 93.715485 94.40914 93.31912
00000000: bfd1 ba42 45b5 bb42 a9fa ba42 a7ae ba42
00000010: 06a9 ba42 8b6e bb42 f1e5 ba42 e160 bc42
00000020: 3796 bc42 e76b bc42 9cd4 bb42 c174 bc42
00000030: 0e41 bc42 3072 bb42 84f7 ba42 56f3 b942
00000040: 9dc3 bb42 1910 bc42 2eb6 bb42 5c08 bc42
00000050: d997 bc42 3056 bb42 0fca ba42 48e3 ba42
00000060: df69 bc42 d8f3 ba42 8b38 ba42 98e0 ba42
00000070: d872 ba42 4336 ba42 ccc1 ba42 d77e ba42
00000080: 9e6a ba42 529b bb42 9cfb bb42 125f bb42
00000090: 54a0 ba42 6b91 bb42 5c72 bb42 e448 ba42
000000a0: d936 ba42 7a4d bac2 47ed ba42 b4d0 bb42
000000b0: 63ce ba42 1184 ba42 8cf9 bb42 8967 ba42
000000c0: b758 ba42 b68a ba42 2e53 bb42 a07b ba42
000000d0: ac57 bcc2 9841 bcc2 3a82 bbc2 c414 bcc2
000000e0: bd20 bcc2 d2dc bb42 b143 bbc2 5b9d bcc2
000000f0: 1dd1 bcc2 9e66 bcc2 13d6 bdc2 a4ba bcc2
00000100: 9955 bcc2 f8c1 bbc2 0338 bdc2 a77f bac2
00000110: 369e bcc2 6c88 bcc2 cd32 bcc2 2919 bc42
00000120: b3a0 bcc2 64e0 ba42 81de b6c2 445c bb42
00000130: cb56 bcc2 1c77 bcc2 990a bb42 dbce bb42
00000140: d13c bb42 c007 bb42 b6b8 ba42 b58c bb42
00000150: 0168 bb42 6987 bc42 8256 be42 9808 bd42
00000160: 55ed ba42 f325 bd42 ddad bc42 0638 bb42
00000170: 4ca0 ba42 b855 ba42 bdb4 bb42 1053 bd42
00000180: 4064 bb42 e7d8 bb42 478b bd42 5cf5 ba42
00000190: 0d06 bb42 546e bb42 7bd1 bc42 64a3 ba42

key_encoder.encoder.bias_hh_l0 f4 [104]
93.50761 93.8818 93.45844 93.43241 93.33937 93.76198 93.44412 94.01202
94.32726 94.268234 93.861015 94.51403 94.101204 93.54012 93.82703 92.918655
94.0777 93.9492 93.93148 93.89841 94.05385 93.72044 93.400154 93.66051
94.0303 93.599976 93.28123 93.32612 93.25436 93.063385 93.1194 93.30759
93.14619 93.69587 94.001465 93.83993 93.33293 93.997696 93.648926 93.13097
93.36355 -93.25484 93.66858 93.881874 93.14862 93.5083 93.75697 93.25267
93.20071 93.3276 93.93048 93.08459 -94.14072 -94.33037 -93.93971 -94.39684
-93.81155 93.85131 -93.39981 -94.21639 -94.31695 -94.00686 -94.62913 -94.36737
-94.254845 -93.55518 -94.27694 -93.18642 -94.28367 -94.086754 -94.29186 94.080826
-94.27485 93.59622 -91.113014 93.67025 -94.265076 -94.19784 93.34287 93.56888
93.45007 93.54503 93.39659 93.70297 93.47024 94.10292 95.01617 94.45186
93.2909 94.6344 94.20902 93.569824 93.65074 93.06021 93.86069 94.77497
93.41095 93.90901 94.84454 93.57381 93.4855 93.50297 94.55619 93.29718
00000000: e503 bb42 7bc3 bb42 b9ea ba42 65dd ba42
00000010: c2ad ba42 2286 bb42 64e3 ba42 2706 bc42
00000020: 8fa7 bc42 5689 bc42 d7b8 bb42 2f07 bd42
00000030: d133 bc42 8b14 bb42 70a7 bb42 5ad6 b942
00000040: c827 bc42 fee5 bb42 ebdc bb42 fccb bb42
00000050: 921b bc42 de70 bb42 e1cc ba42 2e52 bb42
00000060: 830f bc42 3033 bb42 fd8f ba42 f9a6 ba42
00000070: 3b82 ba42 7420 ba42 223d ba42 7c9d ba42
00000080: d94a ba42 4964 bb42 c000 bc42 0bae bb42
00000090: 76aa ba42 d2fe bb42 404c bb42 0e43 ba42
000000a0: 23ba ba42 7a82 bac2 5056 bb42 85c3 bb42
000000b0: 184c ba42 4004 bb42 9283 bb42 5e81 ba42
000000c0: c366 ba42 bba7 ba42 68dc bb42 4f2b ba42
000000d0: 0c48 bcc2 26a9 bcc2 22e1 bbc2 2fcb bcc2
000000e0: 839f bbc2 dfb3 bb42 b4cc bac2 cb6e bcc2
000000f0: 47a2 bcc2 8303 bcc2 1d42 bdc2 18bc bcc2
00000100: 7b82 bcc2 411c bbc2 cb8d bcc2 725f bac2
00000110: 3d91 bcc2 6b2c bcc2 6f95 bcc2 6229 bc42
00000120: b98c bcc2 4431 bb42 dd39 b6c2 2b57 bb42
00000130: b887 bcc2 4b65 bcc2 8daf ba42 4423 bb42
00000140: 70e6 ba42 0e17 bb42 0ecb ba42 ec67 bb42
00000150: c3f0 ba42 b234 bc42 4708 be42 5ae7 bc42
00000160: f194 ba42 d044 bd42 056b bc42 c023 bb42
00000170: 2e4d bb42 d41e ba42 acb8 bb42 c98c bd42
00000180: 68d2 ba42 6ad1 bb42 68b0 bd42 ca25 bb42
00000190: 93f8 ba42 8501 bb42 c51c bd42 2898 ba42

atten_layer.0.weight f4 [56, 168]
0.030601077 0.073880695 0.07579518 0.045431234 0.005803779 0.02473116 -0.036744796 0.017726429
0.030561611 -0.038288996 0.013768323 0.0036077276 -0.069029726 0.05670143 0.056615807 0.00832805
-0.0022600368 -0.017303146 0.07150658 -0.04919473 0.009461321 -0.037061613 0.015218452 0.0019763187
-0.070426255 0.03151358 -0.05884923 0.001781784 0.023188129 0.022423573 0.024935514 -0.00570634
0.06444914 -0.038174354 -0.03321723 0.049068548 0.06958767 0.022093065 -0.04678099 0.061090894
0.06533379 -0.052401736 0.071009345 0.023143686 -0.00020933151 0.025002643 0.042872757 0.06328871
0.014919065 0.011840969 -0.057153866 0.03603836 -0.03310051 0.0042568 -0.04636301 0.006700851
0.06188578 -0.029303014 0.0011396632 0.033669055 -0.06088535 0.06262117 0.069488816 -0.021230798
0.07622758 -0.038310554 0.008875251 0.064987116 -0.04528032 -0.016082827 0.075561084 -0.026810639
-0.051201954 0.0051973835 -0.059946224 -0.02536102 0.0014939383 -0.059393913 -0.020406187 0.045877762
0.06225761 -0.05850224 0.045818448 0.041019343 -0.01357016 -0.014989354 0.07466277 0.04392232
0.050251596 0.0014272928 -0.055196904 0.031909943 0.02991265 -0.006468281 -0.012680486 0.012043193
-0.044817075 -0.039952062 0.04382419 -0.041818045 0.043175116 0.057185464 0.036210082 0.0050667524
-0.022395507 0.062117778 0.06915549 0.04940241 0.011403322 -0.026707511 0.030040033 -0.029160753
93.14162 -93.18247 93.22464 -93.14874 -93.16463 93.22061 -93.182304 -93.24812
93.16074 93.23695 93.17439 93.22892 -93.20952 93.17235 93.10062 -93.19398
93.226814 93.10244 -93.14302 93.0916 93.22321 -93.20112 -93.144905 93.19035
93.13957 93.146935 93.19477 93.18006 93.096664 93.18848 -93.25393 -93.2871
-93.23511 -93.247345 -93.23775 93.17958 -93.18905 -93.22516 -93.410706 -93.34772
-93.28877 -93.26796 -93.29705 -93.235664 -93.26253 -93.12975 -93.20929 -93.24128
-93.254684 93.16417 -93.31887 93.180824 -93.142426 93.181435 -93.224045 -93.152855
-0.026054397 0.062255405 0.059617735 0.0036318973 0.005726598 -0.023090564 0.0012816787 0.075529955
-0.003835544 0.06298923 -0.045026917 -0.034248292 0.0345418 0.047150217 0.043110147 0.051583804
-0.0046918616 -0.0446037 -0.008974634 -0.028023187 0.052700035 0.016822986 -0.025203243 0.046587266
-0.004994042 0.04630839 0.06313095 0.058984287 -0.015092269 -0.034983985 0.035031848 0.064936064
0.02629517 -0.069615595 -0.002593957 0.038805805 0.006614469 0.04026381 -0.026527815 0.07257982
-0.06804742 0.025899075 -0.072045505 -0.0627493 0.00930728 -0.0011718348 -0.02978412 -0.02574655
0.048130013 0.0010588914 0.048803516 -0.06324466 -0.072978035 -0.061554767 -0.024705898 -0.06713864
0.046454065 0.030963197 -0.06968436 0.052405275 -0.039098755 0.043569088 0.038892783 -0.027362488
0.0473572 -0.020491522 -0.057194084 0.06478568 0.005873516 0.027771525 0.06010697 0.0086766705
0.023401305 -0.048633114 -0.057487566 0.012154013 -0.030755904 0.057148673 -0.04477352 0.06886131
-0.07634761 0.07587098 0.054117672 0.04091005 0.07391108 0.023086198 0.012971461 0.04993502
00000000: 1caf fa3c c34e 973d 813a 9b3d 1a16 3a3d
00000010: a02d be3b 0099 ca3c b681 16bd 0437 913c
00000020: 585c fa3c ecd4 1cbd 8894 613c a06f 6c3b
00000030: 755f 8dbd c23f 683d fae5 673d 6072 083c
00000040: 201d 14bb 54bf 8dbc 0b72 923d 6a80 49bd
00000050: a803 1b3c ebcd 17bd d056 793c 2085 013b
00000060: a43b 90bd 6214 013d e40b 71bd c08a e93a
00000070: 08f5 bd3c a4b1 b73c 9045 cc3c 40fc babb
00000080: e9fd 833d b65c 1cbd ca0e 08bd 1afc 483d
00000090: fb83 8e3d 84fc b43c 6c9d 3fbd 723a 7a3d
000000a0: b9cd 853d 34a3 56bd 596d 913d d497 bd3c
000000b0: 0080 5bb9 58d2 cc3c 589b 2f3d 839d 813d
000000c0: 186f 743c a000 423c 2c1a 6abd f69c 133d
000000d0: 6694 07bd a07c 8b3b 24e7 3dbd d092 db3b
000000e0: f27b 7d3d e00c f0bc c060 953a 90e8 093d
000000f0: eb62 79bd 873f 803d 2750 8e3d 36ec adbc
00000100: 351d 9c3d 87eb 1cbd 8069 113c f717 853d
00000110: db77 39bd 22c0 83bc c5bf 9a3d fca1 dbbc
00000120: 24b9 51bd d04e aa3b 2c8a 75bd eac1 cfbc
00000130: 40d0 c33a 0847 73bd e02a a7bc 52ea 3b3d
00000140: d601 7f3d 0ba0 6fbd 20ac 3b3d e603 283d
00000150: 6055 5ebc e895 75bc cbe8 983d e4e7 333d
00000160: 9ed4 4d3d 0014 bb3a 2616 62bd 00b4 023d
00000170: 600b f53c e0f3 d3bb d0c1 4fbc d050 453c
00000180: 1c92 37bd c6a4 23bd fe80 333d 6649 2bbd
00000190: 64d8 303d 4e3b 6a3d 0651 143d 0007 a63b
000001a0: c876 b7bc 366f 7e3d 65a1 8d3d 2e5a 4a3d
000001b0: 00d5 3a3c b6c9 dabc 8416 f63c 88e2 eebc
000001c0: 8248 ba42 6d5d bac2 0473 ba42 284c bac2
000001d0: 4a54 bac2 f470 ba42 575d bac2 0a7f bac2
000001e0: 4d52 ba42 5279 ba42 4a59 ba42 3575 ba42
000001f0: 466b bac2 3e58 ba42 8433 ba42 5163 bac2
00000200: 2174 ba42 7334 ba42 3a49 bac2 e62e ba42
00000210: 4972 ba42 f966 bac2 314a bac2 7661 ba42
00000220: 7647 ba42 3b4b ba42 b963 ba42 315c ba42
00000230: 7e31 ba42 8060 ba42 0382 bac2 ff92 bac2
00000240: 6078 bac2 a47e bac2 ba79 bac2 f25b ba42
00000250: cb60 bac2 4873 bac2 48d2 bac2 08b2 bac2
00000260: da93 bac2 3289 bac2 1798 bac2 a978 bac2
00000270: 6a86 bac2 6f42 bac2 286b bac2 897b bac2
00000280: 6682 bac2 0e54 ba42 43a3 bac2 955c ba42
00000290: ec48 bac2 e55c ba42 b672 bac2 434e bac2
000002a0: 0870 d5bc 86ff 7e3d ba31 743d 2005 6e3b
000002b0: 30a6 bb3b 6c28 bdbc 00fe a73a 73af 9a3d
000002c0: c05d 7bbb 7f00 813d 256e 38bd f047 0cbd
000002d0: b47b 0d3d 9620 413d 4494 303d 8a49 533d
000002e0: 30be 99bb 5fb2 36bd 580a 13bc e290 e5bc
000002f0: fedb 573d 5cd0 893c 0877 cebc 4ad2 3e3d
00000300: 10a5 a3bb dead 3d3d cd4a 813d 8299 713d
00000310: 9045 77bc 5e4b 0fbd 8e7d 0f3d 33fd 843d
00000320: f868 d73c 9f92 8ebd 60ff 29bb d6f2 1e3d
00000330: 30be d83b aaeb 243d dc50 d9bc bba4 943d
00000340: 725c 8bbd 4c2a d43c 988c 93bd b482 80bd
00000350: 907d 183c 4098 99ba d4fd f3bc 6eea d2bc
00000360: fa23 453d 80ca 8a3a 32e6 473d 6b86 81bd
00000370: 8275 95bd da20 7cbd 0664 cabc fc7f 89bd
00000380: 9e46 3e3d 88a6 fd3c acb6 8ebd eaa6 563d
00000390: 0426 20bd 8075 323d 0a4e 1f3d 4c27 e0bc
000003a0: a0f9 413d d6dd a7bc 5844 6abd 5bae 843d
000003b0: a076 c03b 1c81 e33c ba32 763d 9828 0e3c
000003c0: 18b4 bf3c 8433 47bd 1578 6bbd a021 473c
000003d0: cef3 fbbc ba14 6a3d 7064 37bd 2907 8d3d
000003e0: 235c 9cbd 3f62 9b3d 7eaa 5d3d 4c91 273d
000003f0: b15e 973d 441f bd3c 4086 543c aa88 4c3d

atten_layer.0.bias f4 [56]
-93.16338 93.27081 -93.32343 -93.39642 93.46263 93.338036 -93.37186 93.141396
-93.18793 -93.16828 93.350006 93.40816 -93.08751 93.263885 93.36615 -93.23528
-93.258095 93.324974 93.24393 93.3067 93.2129 -93.33915 93.16807 93.268654
-93.34641 -93.23693 93.36652 93.265816 -93.466995 -93.21959 -93.234055 -93.15042
93.30573 -93.156586 93.224106 93.30737 93.41564 -93.27897 93.32929 93.14548
93.117424 -93.23132 93.3685 -93.24597 -93.39992 93.199455 -93.22374 -93.33522
93.17038 -93.33684 93.35236 93.26715 93.22044 93.263145 93.1147 93.41845
00000000: a753 bac2 a88a ba42 99a5 bac2 f8ca bac2
00000010: deec ba42 13ad ba42 64be bac2 6548 ba42
00000020: 3860 bac2 2956 bac2 34b3 ba42 fad0 ba42
00000030: ce2c bac2 1c87 ba42 78bb ba42 7778 bac2
00000040: 2584 bac2 63a6 ba42 e47c ba42 089d ba42
00000050: 016d ba42 a5ad bac2 0d56 ba42 8d89 ba42
00000060: 5db1 bac2 4f79 bac2 a9bb ba42 1988 ba42
00000070: 1aef bac2 6e70 bac2 d677 bac2 044d bac2
00000080: 899c ba42 2c50 bac2 be72 ba42 609d ba42
00000090: cfd4 ba42 d58e bac2 99a8 ba42 7c4a ba42
000000a0: 1f3c ba42 7076 bac2 acbc ba42 f07d bac2
000000b0: c2cc bac2 1f66 ba42 8e72 bac2 a2ab bac2
000000c0: 3c57 ba42 76ac bac2 69b4 ba42 c888 ba42
000000d0: de70 ba42 bb86 ba42 ba3a ba42 3fd6 ba42

atten_layer.2.weight f4 [1, 56]
-93.3482 -93.3152 93.494514 93.7431 -93.84811 -93.73596 93.63664 92.9528
-92.9126 93.88462 -93.71966 -93.81891 -93.02841 -93.87075 -93.81182 -93.14778
93.82811 -93.773094 92.94199 -93.477005 92.98722 93.884315 -93.6077 -93.6689
93.855865 93.61485 -93.80143 -93.61527 94.100586 -93.27354 93.83467 92.464134
-93.63859 93.714294 93.307465 92.811195 -93.91898 93.62019 -93.783195 -93.657425
-93.76908 -92.67539 -93.70924 93.535904 93.89106 -93.64906 93.59473 -92.70534
-93.72742 93.78171 -93.737885 92.88037 -93.438324 92.99849 -93.83495 -93.72425
00000000: 47b2 bac2 62a1 bac2 31fd ba42 787c bb42
00000010: 3bb2 bbc2 d078 bbc2 f645 bb42 d5e7 b942
00000020: 40d3 b9c2 edc4 bb42 7770 bbc2 48a3 bbc2
00000030: 8c0e bac2 d3bd bbc2 a79f bbc2 aa4b bac2
00000040: fea7 bb42 d38b bbc2 4de2 b942 3af4 bac2
00000050: 75f9 b942 c5c4 bb42 2437 bbc2 7a56 bbc2
00000060: 34b6 bb42 ce3a bb42 559a bbc2 053b bbc2
00000070: 8033 bc42 0d8c bac2 5aab bb42 a3ed b842
00000080: f546 bbc2 b86d bb42 6c9d ba42 559f b942
00000090: 85d6 bbc2 8a3d bb42 ff90 bbc2 9a50 bbc2
000000a0: c589 bbc2 cd59 b9c2 226b bbc2 6212 bb42
000000b0: 39c8 bb42 524c bbc2 8030 bb42 2269 b9c2
000000c0: 7074 bbc2 3c90 bb42 cc79 bbc2 c0c2 b942
000000d0: 6ce0 bac2 3aff b942 7fab bbc2 d172 bbc2
