Final project/competition/savemodel/price_predict2_600.pth (torch_old, 533319 bytes, 44 tensors)

price_encoder.attention.weight f4 [1, 100]
0	0xc1cd828e	-25.688747
1	0xc1ce526a	-25.790241
2	0xc1ce0745	-25.75355
3	0xc1cdbab0	-25.716156
4	0x41ce0421	25.752016
5	0xc1cdfa5d	-25.747248
6	0xc1ce723a	-25.805775
7	0x41ce45e5	25.784128
8	0x41ce0613	25.752966
9	0x41ce4d81	25.787844
10	0x41ce020b	25.750998
11	0x41cdf7c4	25.74598
12	0x41ce4bde	25.787045
13	0xc1cd98cd	-25.69961
14	0x41cd9e2e	25.702236
15	0x41cd8e73	25.694555
16	0x41ce4a38	25.78624
17	0x41ce46d4	25.784584
18	0x41ce6414	25.798866
19	0xc1ce7969	-25.809282
20	0x41ce456b	25.783895
21	0xc1ce4e2a	-25.788166
22	0xc1cdf53b	-25.744741
23	0xc1cdc829	-25.722734
24	0xc1cd7d4a	-25.686176
25	0xc1cdb6b0	-25.714203
26	0x41ce4424	25.783272
27	0xc1ce6823	-25.800848
28	0x41cdf7d8	25.746017
29	0x41ce42c2	25.782597
30	0x41cdd8bc	25.730827
31	0x41cd7a75	25.684793
32	0x41ce6e52	25.803867
33	0xc1ce0500	-25.752441
34	0xc1ce2a08	-25.770523
35	0x41cdfef1	25.749483
36	0xc1cdd674	-25.729713
37	0x41cdef67	25.741896
38	0x41cdf6db	25.745535
39	0xc1cdedfe	-25.741207
40	0xc1ce28fa	-25.770008
41	0xc1cdd336	-25.72813
42	0xc1ce173a	-25.761341
43	0x41ce1d11	25.764193
44	0x41cdf575	25.744852
45	0x41ce0891	25.754183
46	0x41cdf61e	25.745174
47	0x41cdfe24	25.749092
48	0xc1cd6fd6	-25.679607
49	0x41ce36bf	25.776731
50	0xc1cdfdd6	-25.748943
51	0xc1cdffd9	-25.749926
52	0xc1cdfdf2	-25.748997
53	0x41cda8c2	25.707401
54	0xc1cde083	-25.734625
55	0x41ce5a89	25.794207
56	0x41ce1c61	25.763857
57	0xc1ce0a01	-25.754885
58	0x41ce08e0	25.754333
59	0xc1ce03cb	-25.751852
60	0xc1cda38f	-25.704863
61	0xc1cd7ae1	-25.685
62	0x41cdc278	25.719955
63	0x41ce1f14	25.765175
64	0xc1cda7d8	-25.706955
65	0xc1ce24ef	-25.768034
66	0xc1cd6437	-25.673933
67	0xc1ce6c0d	-25.80276
68	0x41ce57f8	25.792953
69	0x41cd7be4	25.685493
70	0x41cdcf1a	25.726124
71	0xc1cdde71	-25.733614
72	0xc1cd9279	-25.69652
73	0xc1cc8ff2	-25.570286
74	0xc1ce2bc3	-25.771368
75	0x41cde472	25.736546
76	0x41cdfe62	25.74921
77	0x41ce2718	25.769089
78	0x41ce6425	25.798899
79	0xc1cde526	-25.736889
80	0xc1cdc13a	-25.719349
81	0x41ce2f52	25.773106
82	0x41cdcfbf	25.726439
83	0x41ce33cc	25.775291
84	0x41ce90c1	25.82068
85	0x41cdc9eb	25.723593
86	0xc1cde007	-25.734388
87	0xc1cdeb0c	-25.739769
88	0xc1cdf419	-25.744188
89	0xc1cda29d	-25.704401
90	0x41cdbea1	25.71808
91	0x41cda7eb	25.706991
92	0x41cdb368	25.7126
93	0x41cd78a5	25.683908
94	0x41ce4a1f	25.786192
95	0x41ce05fb	25.75292
96	0x41cd9007	25.695326
97	0x41cdc840	25.722778
98	0x41cdf7ca	25.74599
99	0x41ce3411	25.775423

price_encoder.encoder.weight_ih_l0 f4 [180, 45]
0	0x41ce30e2	25.773869
1	0x41ce8a0c	25.817406
2	0x41ce1d43	25.764288
3	0x41cdacb7	25.709333
4	0x3d06390e	0.032769255
5	0x41cd5dcb	25.670797
6	0x41ce73df	25.806578
7	0x41cd71e9	25.68062
8	0x41ce162a	25.760822
9	0x41cdcd4b	25.72524
10	0x41ce61c5	25.797739
11	0x41ce5249	25.790178
12	0x41ce68cc	25.80117
13	0xc1ce81e1	-25.813417
14	0x3d5317b9	0.051536296
15	0xbd151d5f	-0.036404964
16	0x3d3e4b59	0.046458576
17	0xbcc79c12	-0.024366412
18	0xbce05313	-0.027383363
19	0x41cdbb2d	25.716394
20	0x41ce35d8	25.77629
21	0x41cdcc6b	25.724813
22	0x41ce116a	25.758503
23	0x41b1ffcd	22.249903
24	0x41ce161d	25.760798
25	0x4145364c	12.325756
26	0x41c8ee09	25.116228
27	0x41cde116	25.734905
28	0xc1cdb699	-25.714159
29	0xbcb55aca	-0.022138018
30	0xbd256472	-0.040378995
31	0xba25eac0	-0.0006329231
32	0xbdbd4b9a	-0.092429355
33	0x41ce46ef	25.784636
34	0x41cddf02	25.73389
35	0x41cd9dfd	25.702143
36	0x41ce1321	25.75934
37	0x41cd9b92	25.700962
38	0x3ae09e60	0.0017137043
39	0x41cdb5d5	25.713785
40	0x41ce181a	25.761768
41	0x41ce5627	25.792067
42	0x41cd4b03	25.661627
43	0xbe40135a	-0.18757382
44	0xbde1a554	-0.11017862
45	0xc1ce400f	-25.781279
46	0xc1ce8c58	-25.818527
47	0xc1cdb6a9	-25.71419
48	0xc1cddb51	-25.732088
49	0xbda95bfd	-0.082694985
50	0xc1ce3fc5	-25.781137
51	0xc1cde0c1	-25.734743
52	0xc1cd2b30	-25.646088
53	0xc1ce5ead	-25.796228
54	0xc1ce0550	-25.752594
55	0xc1cd422a	-25.657307
56	0xc1cefa58	-25.872238
57	0xc1ce455d	-25.783869
58	0x41cd272d	25.644129
59	0x3d570880	0.05249834
60	0x3cb9144a	0.022592682
61	0xbd12b815	-0.035820086
62	0xbd16788a	-0.03673605
63	0xbcc62738	-0.024188623
64	0xc1cd8c7f	-25.693602
65	0xc1cee98f	-25.864042
66	0xc1cdc5c1	-25.72156
67	0xc1cdb20e	-25.71194
68	0xc1cc5282	-25.540287
69	0xc1cdd219	-25.727587
70	0xc1c46269	-24.548052
71	0xc1ce5eed	-25.79635
72	0xc1cd88a3	-25.691717
73	0xc1ce54de	-25.79144
74	0x3ce2c868	0.027683452
75	0x3d1bc936	0.038033687
76	0xbd0a5b32	-0.033778377
77	0xbc986ffc	-0.018608086
78	0xc1cda111	-25.703646
79	0xc1cdf643	-25.745245
80	0xc1ce0c5f	-25.75604
81	0xc1ce8ff4	-25.82029
82	0xc1ce6e15	-25.803751
83	0xbbb96aa0	-0.0056584626
84	0xc1ce8b1b	-25.817923
85	0xc1cd993b	-25.69982
86	0xc1ce2c13	-25.77152
87	0xc1ce0024	-25.750069
88	0x41b5f31e	22.74371
89	0xbd6cfe80	-0.057859898
90	0x41ce3598	25.776169
91	0x41ce330f	25.774931
92	0x41cec240	25.844849
93	0x41cd2fa7	25.648268
94	0xc24f4124	-51.813614
95	0x41cd75d1	25.682528
96	0x41ce1d4c	25.764305
97	0x41ce73a0	25.806458
98	0x41ce4e5a	25.788258
99	0x41ce57f8	25.792953
100	0x41ce7900	25.809082
101	0x41cd7738	25.683212
102	0x41cf08ce	25.8793
103	0x41ce07e1	25.753847
104	0xbba26ce8	-0.0049568303
105	0x3cc3f564	0.023920722
106	0x3d7aaf0d	0.061202098
107	0x3cff85f4	0.031191804
108	0x3c9add44	0.018904336
109	0x41cdf17a	25.742908
110	0x41cdd484	25.728767
111	0x41ce1181	25.758547
112	0x41ce09b7	25.754744
113	0x41c30980	24.379639
114	0x41cd7ef2	25.686985
115	0x4197010a	18.875507
116	0x41cb8f8d	25.445093
117	0x41ce9421	25.822329
118	0x41cd8fd3	25.695227
119	0xbd8c5340	-0.06851816
120	0xbd903240	-0.070408344
121	0x3d407656	0.046987854
122	0x3d41c1e0	0.047304034
123	0x41cdbab1	25.716158
124	0x41cdf060	25.74237
125	0x41ce6cbf	25.803099
126	0x41cdfa80	25.747314
127	0x41cd4904	25.660652
128	0x3d902faf	0.07040345
129	0x41cdbbab	25.716635
130	0x41cdb5cc	25.713768
131	0x41cd9e6c	25.702354
132	0x41cd9f4e	25.702785
133	0x41d53ab0	26.653656
134	0x3c923e5a	0.017851997
135	0xc1cd6952	-25.676426
136	0xc1ce0afc	-25.755363
137	0xc1ce1b33	-25.76328
138	0xc1cd85fc	-25.690422
139	0x3b8cfca8	0.00430258
140	0xc1ceaf75	-25.835672
141	0xc1ce3c67	-25.779493
142	0xc1ced2ad	-25.852869
143	0xc1cd775b	-25.683279
144	0xc1ce6c8b	-25.803
145	0xc1cdc96b	-25.723349
146	0xc1cf1a33	-25.887793
147	0xc1cd7ff8	-25.687485
148	0xc1cd7d1d	-25.68609
149	0x3c296438	0.010338835
150	0xbca41ff4	-0.020034768
151	0x3c188d20	0.009310991
152	0x3da16ee9	0.078824826
153	0xbd6969c6	-0.05698564
154	0xc1ce278c	-25.76931
155	0xc1ce6e31	-25.803804
156	0xc1cd28b6	-25.644878
157	0xc1ce3b29	-25.778887
158	0xc1b2a5c9	-22.33095
159	0xc1ce86be	-25.815792
160	0xc14e55fd	-12.895993
161	0xc1c9cb60	-25.224304
162	0xc1ce0f5b	-25.757498
163	0xc1cd7825	-25.683664
164	0xbd441e13	-0.047880244
165	0xbae6d1e0	-0.0017610155
166	0x3d446147	0.047944333
167	0x3dd32920	0.10310578
168	0xc1cddbd5	-25.73234
169	0xc1ced4cd	-25.853907
170	0xc1ce4695	-25.784464
171	0xc1ce53d8	-25.79094
172	0xc1cdfc38	-25.748154
173	0xbc9780c0	-0.01849401
174	0xc1ce28d1	-25.76993
175	0xc1ce40d8	-25.781662
176	0xc1cde691	-25.737581
177	0xc1cded96	-25.741009
178	0x39296e00	0.00016158074
179	0xbd4021d4	-0.04690726
180	0x41cdb64f	25.714018
181	0x41cd6f65	25.679392
182	0x41cd9cf5	25.70164
183	0x41ce0342	25.75159
184	0x3c2ad330	0.010426328
185	0x41ce6508	25.799332
186	0x41ce1f4b	25.76528
187	0x41ce346b	25.775595
188	0x41ce3990	25.778107
189	0x41cddaca	25.73183
190	0x41ce663d	25.799921
191	0x41cd9d86	25.701916
192	0x41cd28e4	25.644966
193	0xc1ceab2f	-25.833586
194	0x3d1a6840	0.037697077
195	0xbd0e83a5	-0.034793515
196	0xbd11539a	-0.03548012
197	0x3c8138f2	0.015774224
198	0x3dbb4c10	0.09145367
199	0x41cdc4de	25.721127
200	0x41cd8b7d	25.69311
201	0x41ce5f65	25.79658
202	0x41cec89f	25.84796
203	0x4140c83e	12.048887
204	0x41cdef08	25.741714
205	0x403e5f1c	2.974555
206	0x41b0df47	22.109022
207	0x41cc3674	25.526588
208	0xc1cd9589	-25.698015
209	0xbd4347ce	-0.0476759
210	0xbc93aab5	-0.018025735
211	0x3da88785	0.08228973
212	0x3baed6e8	0.0053356774
213	0x41cd1ccf	25.639067
214	0x41ced026	25.851635
215	0x41cdb46d	25.713099
216	0x41ce8b3d	25.817987
217	0x41cda793	25.706823
218	0xbd7aebbc	-0.06125997
219	0x41ce64a9	25.79915
220	0x41ce4139	25.781847
221	0x41cdb23b	25.712027
222	0x41ce66f6	25.800274
223	0x3d9af4ba	0.07566209
224	0xbd05deea	-0.03268329
225	0x41ce8b8b	25.818136
226	0x41cdebd4	25.74015
227	0x41ce5c79	25.795153
228	0x41cd8658	25.690598
229	0xbbb01920	-0.005374089
230	0x41cd3f51	25.655916
231	0x41ce197b	25.762442
232	0x41ce4827	25.78523
233	0x41ce435e	25.782894
234	0x41ce06dc	25.75335
235	0x41ccaf6e	25.585659
236	0x41cd48ce	25.66055
237	0x41cefe39	25.874132
238	0xc1ce11ac	-25.758629
239	0x3c82c618	0.0159636
240	0x3b49c720	0.0030788854
241	0xbdb4771e	-0.08811782
242	0xbd52e52a	-0.05148808
243	0x3c359f10	0.011085287
244	0x41cde2f8	25.735825
245	0x41ce2bd2	25.771397
246	0x41ce8a19	25.81743
247	0x41cdb73d	25.714472
248	0x40828885	4.079165
249	0x41cd7e32	25.686619
250	0x3f13567c	0.5755384
251	0x4168b79a	14.544825
252	0x41c40214	24.501015
253	0xc1cdf659	-25.745287
254	0x3db5975c	0.0886676
255	0xbdb4e34e	-0.088324174

price_encoder.encoder.weight_hh_l0 f4 [180, 45]
0	0x41ce8de1	25.819277
1	0xc1ce772c	-25.80819
2	0xc1ce2e85	-25.772715
3	0xc1ce8ce4	-25.818794
4	0x41ce00cc	25.75039
5	0x41cdec75	25.740458
6	0xc1cd6a15	-25.676798
7	0x41cd7685	25.68287
8	0x41cdfef9	25.749498
9	0x41ce692f	25.80136
10	0xc1cddd57	-25.733076
11	0xc1ce1aee	-25.76315
12	0xc1cd5219	-25.665087
13	0xc1cda773	-25.706762
14	0xc1cd7a05	-25.68458
15	0xc1ce7256	-25.805828
16	0xc1ce5cec	-25.795372
17	0xc1cd75c3	-25.6825
18	0x41cd8d66	25.694042
19	0xc1ceaca6	-25.834301
20	0x41cd9134	25.6959
21	0x41cdc04b	25.718893
22	0xc1ce437e	-25.782955
23	0x41ce6156	25.797527
24	0x41cea6a9	25.831377
25	0x41cd2853	25.64469
26	0x41cdedcd	25.741114
27	0x41ce53b4	25.79087
28	0x41cea27d	25.82934
29	0x41ce7a88	25.80983
30	0x41cd76b2	25.682957
31	0xc1ce9dfc	-25.82714
32	0x41cd6d61	25.678408
33	0x41cd601a	25.671925
34	0xc1cdef5c	-25.741875
35	0xc1cdefb8	-25.74205
36	0xc1ce5cd2	-25.795322
37	0xc1ce3534	-25.775978
38	0x41cd42a6	25.657543
39	0xc1cd2727	-25.644117
40	0xc1ce5b74	-25.794655
41	0xc1cdd9ab	-25.731283
42	0xc1cd9ba0	-25.700989
43	0x41cd99d6	25.700115
44	0x41ce9a01	25.825197
45	0xc1ce01cd	-25.75088
46	0x41cdea67	25.739454
47	0x41cd9811	25.699251
48	0x41cdaf0d	25.710474
49	0xc1cea065	-25.828318
50	0x41cdeeef	25.741667
51	0x41ce38d4	25.777748
52	0xc1cea0b7	-25.828474
53	0xc1ce3889	-25.777605
54	0xc1ce391a	-25.777882
55	0x41ce08b2	25.754246
56	0x41cd075b	25.628592
57	0x41cde2c0	25.735718
58	0x41cd52e5	25.665476
59	0x41ce1d97	25.764448
60	0x41cdc674	25.7219
61	0x41cd8a35	25.692484
62	0xc1ce2541	-25.76819
63	0xc1ce336d	-25.77511
64	0x41cd7e21	25.686586
65	0xc1ce158b	-25.760519
66	0xc1ce6eef	-25.804167
67	0x41ce58e5	25.793406
68	0xc1cdd6f2	-25.729954
69	0xc1ce6921	-25.801332
70	0xc1ce7c9e	-25.810848
71	0xc1ce1bc1	-25.763552
72	0x41ce55f0	25.791962
73	0xc1cdfc8c	-25.748314
74	0xc1ce1d5e	-25.76434
75	0xc1ce8383	-25.814215
76	0xc1ce0e2b	-25.756918
77	0xc1ce5bb0	-25.79477
78	0xc1cdf0a6	-25.742504
79	0x41cdab29	25.708574
80	0x41ce2c2b	25.771566
81	0x41ce0749	25.753557
82	0x41cec174	25.84446
83	0xc1cece08	-25.850601
84	0x41cd962a	25.698322
85	0x41cde2cf	25.735746
86	0x41cea66c	25.83126
87	0x41cdfd8e	25.748806
88	0xc1ce09e2	-25.754826
89	0x41cd868f	25.690702
90	0x41cd885c	25.691582
91	0xc1ccffee	-25.624966
92	0xc299647e	-76.69627
93	0xc299dd9a	-76.932816
94	0x41ce1a52	25.762852
95	0xc1ce1d24	-25.764229
96	0xc2995480	-76.66504
97	0x41cd830c	25.688988
98	0x41cd8118	25.688034
99	0x41ce0751	25.753572
100	0xc1cde1db	-25.735281
101	0xc29931c6	-76.59721
102	0xc1cd3e60	-25.655457
103	0xc1ced76e	-25.85519
104	0xc1cea42e	-25.830166
105	0xc1cef00d	-25.867212
106	0xc1cde20b	-25.735373
107	0x41cdd7ec	25.73043
108	0x41ce5466	25.79121
109	0xc1ceefca	-25.867085
110	0xc1cd9581	-25.698
111	0x429a2e42	77.09035
112	0xc1ce8ac9	-25.817766
113	0xc1caa1e8	-25.329056
114	0x41cdd552	25.72916
115	0x41cdf4c5	25.744516
116	0x429968ee	76.70494
117	0xc1ce3836	-25.777447
118	0x41cd5328	25.665604
119	0x41d051b2	26.03989
120	0x41cd567f	25.667234
121	0x429b500e	77.65636
122	0x41cd9f7e	25.702877
123	0x41cda55f	25.705748
124	0xc1cdf082	-25.742435
125	0xc1ce23d2	-25.76749
126	0xc299b5d0	-76.8551
127	0x41ca49fc	25.286125
128	0x41ced7f8	25.855453
129	0xc1ce2598	-25.768356
130	0xc1ce9f6b	-25.82784
131	0xc1cdf1a9	-25.742998
132	0xc1ce5660	-25.792175
133	0x41cdf07a	25.74242
134	0xc1cdb381	-25.712648
135	0xc1ce57c1	-25.792849
136	0x41ce7490	25.806915
137	0x41ce1374	25.759499
138	0x41ce4d1a	25.787647
139	0xc1cd7b55	-25.68522
140	0x41ce5d29	25.795488
141	0x41ce37d7	25.777266
142	0xc1cdb0ad	-25.711267
143	0xc1ce5562	-25.79169
144	0xc1cd4c87	-25.662367
145	0x41cefbbc	25.872917
146	0x41cdd445	25.728647
147	0x41ce304c	25.773582
148	0x41cde93f	25.73889
149	0x41cd5f1b	25.671438
150	0x41cdea31	25.739351
151	0x41cd9d53	25.701818
152	0x41cdd05c	25.726738
153	0xc1cdf6d6	-25.745525
154	0x41ce326d	25.774622
155	0xc1cdabca	-25.708881
156	0xc1cdaf40	-25.710571
157	0x41cec5d7	25.846601
158	0xc1ce354d	-25.776026
159	0xc1ce77bc	-25.808464
160	0xc1ce20fd	-25.766108
161	0xc1cdd085	-25.726816
162	0x41ce146f	25.759977
163	0xc1ce453d	-25.783808
164	0xc1ce2b87	-25.771254
165	0xc1ce17cc	-25.76162
166	0xc1cde854	-25.738441
167	0xc1ce5063	-25.789251
168	0xc1cea486	-25.830334
169	0x41ce6e24	25.80378
170	0x41ce29a5	25.770334
171	0x41ce22ef	25.767057
172	0x41cda556	25.70573
173	0xc1cea1f8	-25.829086
174	0x41cdc2f3	25.72019
175	0x41ce642a	25.798908
176	0x41ce7d97	25.811323
177	0x41cdc93e	25.723263
178	0xc1cd4e63	-25.663275
179	0x41ceae96	25.835247
180	0x41ce90c6	25.82069
181	0xc1ce1837	-25.761824
182	0xc1ce4300	-25.782715
183	0xc1cde96c	-25.738976
184	0x41ceb437	25.837996
185	0x41cdc6b6	25.722027
186	0xc1ce768f	-25.80789
187	0x41ce7466	25.806835
188	0x41cdf3fb	25.744131
189	0x41ce0689	25.753191
190	0xc1cd8fd4	-25.695229
191	0xc1cd6530	-25.674408
192	0xc1cd6588	-25.674576
193	0xc1ce5e1f	-25.795958
194	0xc1ce0221	-25.75104
195	0xc1cdf600	-25.745117
196	0xc1cdc040	-25.718872
197	0xc1cd3647	-25.651503
198	0x41cd4c95	25.662394
199	0xc1cdc678	-25.721909
200	0xc1cdbab5	-25.716166
201	0x41ce0753	25.753576
202	0xc1ce21dc	-25.766533
203	0x41cdb352	25.712559
204	0x41cddb33	25.73203
205	0x41cddd1c	25.732964
206	0x41ce1a6c	25.762901
207	0x41cde61f	25.737364
208	0x41ce9f02	25.82764
209	0x41ce7d68	25.811234
210	0x41ce21f0	25.766571
211	0xc1ce6f81	-25.804445
212	0x41ce9946	25.82484
213	0x41ce086f	25.754118
214	0xc1ce6b25	-25.802317
215	0xc1ce8c38	-25.818466
216	0xc1ce36c0	-25.776733
217	0xc1ce727b	-25.805899
218	0x41cde48f	25.7366
219	0xc1cd7b24	-25.685127
220	0xc1cdd9f7	-25.731428
221	0xc1cdea82	-25.739506
222	0xc1ce5e1f	-25.795958
223	0x41ce93fa	25.822254
224	0x41ce81be	25.81335
225	0x41ce2816	25.769573
226	0xc1cde306	-25.735851
227	0xc1cd7797	-25.683393
228	0xc1cdf87b	-25.746328
229	0x41cd9f8b	25.702902
230	0xc1cdc4cb	-25.72109
231	0xc1ccfc42	-25.623173
232	0x41ce4b8c	25.786888
233	0x41cdff3f	25.749632
234	0x41cdffbe	25.749874
235	0xc1cd66aa	-25.675129
236	0xc1cd1c95	-25.638956
237	0xc1cd80b7	-25.687849
238	0xc1cea292	-25.82938
239	0xc1cdded3	-25.7338
240	0xc1cdc2d6	-25.720135
241	0xc1cebc2b	-25.841879
242	0xc1ce01db	-25.750906
243	0x41cd615e	25.672543
244	0xc1cd6078	-25.672104
245	0x41ce73f2	25.806614
246	0x41cdf3da	25.744068
247	0xc1ce4f1b	-25.788626
248	0x41cd4f03	25.66358
249	0x41ce19ac	25.762535
250	0x41cd3e97	25.655561
251	0x41cdcbd4	25.724525
252	0xc1ce0073	-25.75022
253	0x41cda44e	25.705227
254	0x41ce4800	25.785156
255	0x41cda80a	25.70705

price_encoder.encoder.bias_ih_l0 f4 [180]
0	0x41ce4f72	25.788792
1	0xc1ce9c2c	-25.826256
2	0xc1c4624c	-24.547997
3	0xc1cd54b5	-25.66636
4	0x41cdbde6	25.717724
5	0x41ce8475	25.814676
6	0x41ce4c93	25.78739
7	0x41ce9056	25.820477
8	0x41cd6589	25.674578
9	0xc1cda95a	-25.707691
10	0x41ce47e0	25.785095
11	0xbf30cce2	-0.69062626
12	0x41cd6fea	25.679646
13	0xc1cea3a5	-25.829905
14	0x41cda431	25.705172
15	0x42b0c12b	88.37728
16	0x41cde9bd	25.73913
17	0xc1ce1e18	-25.764694
18	0xc2123e00	-36.560547
19	0x42b0ae49	88.3404
20	0xc1cde598	-25.737106
21	0x41cde9e2	25.7392
22	0x41cdc9b1	25.723482
23	0xc1cd7150	-25.680328
24	0x42b0bd13	88.369286
25	0x41cec867	25.847853
26	0x41ce4665	25.784372
27	0x41ce5082	25.78931
28	0x41cdcff6	25.726543
29	0xc1ce6135	-25.797464
30	0x428c20be	70.06395
31	0x41ce6010	25.796906
32	0xc1ce3d6d	-25.779993
33	0xc1ce5e6e	-25.796108
34	0x41cdfeb2	25.749363
35	0x41cf217d	25.891352
36	0xc1cdb767	-25.714552
37	0xc1ce6f3c	-25.804314
38	0x42986e52	76.21547
39	0xc1cea162	-25.8288
40	0x41ce9019	25.82036
41	0xc29bd1c4	-77.9097
42	0x41cf4892	25.910435
43	0xc1cda6eb	-25.706503
44	0xc1ccf9d6	-25.62199
45	0x41cdf2d6	25.743572
46	0xc1cd2dd3	-25.647375
47	0x41cdfe0f	25.749052
48	0xc1cdbf37	-25.718367
49	0x41ce858a	25.815205
50	0x41ce09ed	25.754847
51	0xc18be8e0	-17.488708
52	0x41cd960e	25.698269
53	0x41cdeb03	25.739752
54	0xc1cea26f	-25.829313
55	0xc1cda330	-25.704681
56	0xc1ce0f67	-25.75752
57	0x41cd686e	25.675991
58	0xc1cdf787	-25.745863
59	0x41ce1fc7	25.765516
60	0x42b0a845	88.32865
61	0x41cd9e06	25.70216
62	0xc1ce9444	-25.822395
63	0x42b0ff3a	88.49849
64	0x41cd55c1	25.666872
65	0xc1ce59e2	-25.793888
66	0x41ce492e	25.785732
67	0x41ce9f46	25.82777
68	0xc1cda437	-25.705183
69	0x41cdd139	25.72716
70	0xc1cd4c30	-25.6622
71	0x41cd5b57	25.6696
72	0x41cdb74f	25.714506
73	0x41cecdbe	25.85046
74	0xc1ce1f9b	-25.765432
75	0x42b0d986	88.42485
76	0x41ce146d	25.759974
77	0xc1ce2b69	-25.771196
78	0xc1cde5b7	-25.737165
79	0x429af08e	77.46983
80	0x41cddaec	25.731895
81	0xc1ce18ad	-25.762049
82	0xc1cd525d	-25.665216
83	0xc1ccd794	-25.605263
84	0xc1cda869	-25.707232
85	0x41ce93a7	25.822096
86	0x41d21f9c	26.265434
87	0xc213cc09	-36.949253
88	0xc1cea078	-25.828354
89	0xc1ce776f	-25.808317
90	0x41ce213a	25.766224
91	0x41cd7412	25.681675
92	0xc1cd868b	-25.690695
93	0x41ce4575	25.783915
94	0x41cdc909	25.723162
95	0xc1cd8039	-25.687609
96	0xc1cdadbe	-25.709835
97	0x41cd225d	25.641779
98	0x41ce5b62	25.79462
99	0xc1cdba9e	-25.716122
100	0xc1cd6c45	-25.677866
101	0x41cd8828	25.691483
102	0xc1ce9dd9	-25.827074
103	0x41cdf74a	25.745747
104	0xc1cdeab0	-25.739594
105	0xc1cd83cb	-25.689352
106	0xc1ce386d	-25.777552
107	0xc1cdda05	-25.731455
108	0x429bccbc	77.89987
109	0xc2b07962	-88.237076
110	0xc1ce1446	-25.7599
111	0x41ce4699	25.784472
112	0xc1cd689b	-25.676077
113	0xc1cec22e	-25.844814
114	0x41ce005c	25.750175
115	0xc1ce275e	-25.769222
116	0xc1d1b33a	-26.212513
117	0xc1cddf5f	-25.734068
118	0x41ce8c89	25.81862
119	0x41ceaa96	25.833294
120	0x41ce0012	25.750034
121	0x41ce7b35	25.81016
122	0xc1ce092f	-25.754484
123	0xc1cd96eb	-25.69869
124	0xc1ce3f69	-25.780962
125	0xc1ce4b27	-25.786695
126	0x41ce3c12	25.779331
127	0x41ced82d	25.855555
128	0x429b20fe	77.56444
129	0x41ce7d1e	25.811092
130	0xc1cdba46	-25.715954
131	0x429a694a	77.20564
132	0xc1cd951c	-25.697807
133	0xc1cd176e	-25.63644
134	0x41ce7980	25.809326
135	0x41ced01e	25.85162
136	0xc1ce6263	-25.79804
137	0x41cea81e	25.832088
138	0xc1cdf6d3	-25.74552
139	0x41cddfac	25.734215
140	0x41ce4891	25.785433
141	0x41cd6f2a	25.67928
142	0x41cd74ad	25.68197
143	0x41cd6e45	25.678843
144	0xc1cd9366	-25.696972
145	0xc29ae1fa	-77.44136
146	0xc214c6fe	-37.19433
147	0x41cf8ec6	25.944714
148	0xc1ce6d03	-25.803228
149	0x41cd8b80	25.693115
150	0x41cdbd93	25.717566
151	0xc1bca2e6	-23.57954
152	0xc1ce00dc	-25.75042
153	0x41cdd102	25.727055
154	0x4185ca72	16.72385
155	0x42134561	36.817753
156	0x41cdf705	25.745615
157	0x41ce23ad	25.76742
158	0xc1ce5418	-25.791061
159	0x41cd2b6c	25.646202
160	0xc1ce14d5	-25.760172
161	0x41cd7eb3	25.686865
162	0xc19e43e2	-19.783146
163	0x41cdf54b	25.744772
164	0xc1cdff4d	-25.749659
165	0x41ced15f	25.852232
166	0x41cd7bfa	25.685535
167	0xc1ce0c26	-25.755932
168	0xc1ce9410	-25.822296
169	0x41d00c22	26.005924
170	0x41cdea97	25.739546
171	0xc1ccb23c	-25.587029
172	0xc1cd8b47	-25.693007
173	0x42b0c1ca	88.378494
174	0xc1ce7b91	-25.810335
175	0x41ce0c23	25.755926
176	0x41c5e59c	24.737114
177	0x41ce623a	25.797962
178	0xc1cdae68	-25.71016
179	0xc2b0bd20	-88.369385

price_encoder.encoder.bias_hh_l0 f4 [180]
0	0x41ce1a0e	25.762722
1	0xc1ce628e	-25.798122
2	0xc1c49208	-24.571304
3	0xc1cdf223	-25.74323
4	0x41cde280	25.735596
5	0x41ce46e8	25.784622
6	0x41cdead4	25.739662
7	0x41ce23e7	25.76753
8	0x41cdf271	25.74338
9	0xc1cd397c	-25.653069
10	0x41cdabad	25.708826
11	0xbf5e986e	-0.8695134
12	0x41cd92f9	25.696764
13	0xc1cdf230	-25.743256
14	0x41ce4bb2	25.78696
15	0x42b0a080	88.31348
16	0x41cd675d	25.67547
17	0xc1cd8239	-25.688585
18	0xc211a047	-36.40652
19	0x42b0a4f9	88.32221
20	0xc1ce5366	-25.790722
21	0x41cde2cd	25.735743
22	0x41cd8ecb	25.694723
23	0xc1ce0716	-25.75346
24	0x42b0cf00	88.4043
25	0x41cda07a	25.703358
26	0x41cf3383	25.900152
27	0x41ce0d8e	25.756618
28	0x41ce830a	25.813984
29	0xc1ce1057	-25.757978
30	0x428c2cde	70.08763
31	0x41cd5b8e	25.669704
32	0xc1cdbfcd	-25.718653
33	0xc1cdbbc7	-25.716688
34	0x41cd7724	25.683174
35	0x41cf238c	25.892357
36	0xc1cdd223	-25.727606
37	0xc1cd6f48	-25.679337
38	0x42986fcc	76.21835
39	0xc1ce31cb	-25.774313
40	0x41cdf8dd	25.746515
41	0xc29bb13c	-77.84616
42	0x41ce0d8a	25.75661
43	0xc1cdea96	-25.739544
44	0xc1cd7aa7	-25.684889
45	0x41ce120d	25.758814
46	0xc1cdd74a	-25.730122
47	0x41cd5fbc	25.671745
48	0xc1ce87ca	-25.816303
49	0x41ceb27b	25.837149
50	0x41ce1987	25.762465
51	0xc18c59c0	-17.543823
52	0x41cddce3	25.732855
53	0x41cda288	25.704361
54	0xc1cdbf80	-25.718506
55	0xc1ce4cb0	-25.787445
56	0xc1ce23a3	-25.7674
57	0x41cd8aa0	25.692688
58	0xc1cdb589	-25.71364
59	0x41cda538	25.705673
60	0x42b08c46	88.27397
61	0x41cdff38	25.749619
62	0xc1cdcd4e	-25.725246
63	0x42b0dea2	88.43483
64	0x41cdb446	25.713024
65	0xc1ce6228	-25.797928
66	0x41cddabc	25.731804
67	0x41cd8a03	25.692389
68	0xc1ce6dcd	-25.803614
69	0x41cdf2cd	25.743555
70	0xc1cd9843	-25.699347
71	0x41ce6603	25.79981
72	0x41cdbd31	25.717379
73	0x41cd4e8f	25.663359
74	0xc1ce4936	-25.785748
75	0x42b0c7a8	88.38995
76	0x41ce224f	25.766752
77	0xc1ce0109	-25.750505
78	0xc1ce6f7b	-25.804434
79	0x429b1254	77.5358
80	0x41ce2ed4	25.772865
81	0xc1ce3ece	-25.780666
82	0xc1cdae28	-25.710037
83	0xc1cd0af6	-25.630352
84	0xc1ce0c02	-25.755863
85	0x41ce6520	25.799377
86	0x41d213ca	26.259663
87	0xc2136945	-36.852802
88	0xc1ce3e0f	-25.780302
89	0xc1ce6f2c	-25.804283
90	0x41cdf105	25.742685
91	0x41cdb642	25.713993
92	0xc1cea4b1	-25.830416
93	0x41cdcce3	25.725042
94	0x41cdd91f	25.731016
95	0xc1ce2a7c	-25.770744
96	0xc1cda5ef	-25.706022
97	0x41ce4e43	25.788214
98	0x41ccfc54	25.623207
99	0xc1ce73b2	-25.806492
100	0xc1ce5f6f	-25.796598
101	0x41ce49d2	25.786045
102	0xc1cd3da3	-25.655096
103	0x41cd9c63	25.70136
104	0xc1ce4c02	-25.787113
105	0xc1ce1430	-25.759857
106	0xc1ce772c	-25.80819
107	0xc1ce8e35	-25.819437
108	0x429bc5ce	77.88634
109	0xc2b09871	-88.29774
110	0xc1ce473d	-25.784784
111	0x41cdbbf1	25.716768
112	0xc1ce89c6	-25.817272
113	0xc1cdd153	-25.72721
114	0x41cdc99a	25.723438
115	0xc1ce885b	-25.81658
116	0xc1d1913c	-26.195915
117	0xc1ce61c3	-25.797735
118	0x41cd99b7	25.700056
119	0x41ceb40f	25.83792
120	0x41cdb400	25.71289
121	0x41ced31d	25.853083
122	0xc1cdd2e6	-25.727978
123	0xc1ce1680	-25.760986
124	0xc1ce9794	-25.824013
125	0xc1ce1c89	-25.763933
126	0x41ce7863	25.808783
127	0x41cd7fa7	25.68733
128	0x429b3c98	77.61835
129	0x41ce7a48	25.809708
130	0xc1cd86d5	-25.690836
131	0x429a65a4	77.19852
132	0xc1ce4c0c	-25.787132
133	0xc1cd8cb1	-25.693697
134	0x41ce5744	25.79261
135	0x41cd48bd	25.660517
136	0xc1ce1d0f	-25.764189
137	0x41ce054b	25.752584
138	0xc1cdef69	-25.7419
139	0x41cdbfb4	25.718605
140	0x41ce4631	25.784273
141	0x41cd30d2	25.648838
142	0x41cd827b	25.688711
143	0x41ce4dfe	25.788082
144	0xc1ce0427	-25.752028
145	0xc29adfd6	-77.43718
146	0xc214d362	-37.20643
147	0x41ceec5a	25.865406
148	0xc1ce3162	-25.774113
149	0x41cdde9a	25.733692
150	0x41cebd18	25.84233
151	0xc1bc33e4	-23.525337
152	0xc1cea5a3	-25.830877
153	0x41cdf867	25.74629
154	0x4185d050	16.726715
155	0x42139aa9	36.901035
156	0x41ceadff	25.834959
157	0x41cde9f8	25.739243
158	0xc1cee85d	-25.863459
159	0x41cd8fa0	25.69513
160	0xc1ce81fb	-25.813467
161	0x41ce40a9	25.781572
162	0xc19e4ab2	-19.786472
163	0x41cd807f	25.687742
164	0xc1ce1865	-25.761911
165	0x41cf1dd4	25.889565
166	0x41cdd473	25.728735
167	0xc1ce8a51	-25.817537
168	0xc1cd9cd2	-25.701572
169	0x41ceedaf	25.866056
170	0x41cd8ad4	25.692787
171	0xc1cc8b94	-25.568153
172	0xc1cd59b0	-25.668793
173	0x42b0b203	88.34768
174	0xc1cea0e1	-25.828554
175	0x41ce546c	25.791222
176	0x41c5b47c	24.713127
177	0x41cdcf85	25.726328
178	0xc1ce193d	-25.762323
179	0xc2b0d8a7	-88.42315

atten_layer.0.weight f4 [45, 135]
0	0x3d27b326	0.040942334
1	0xbcd5d0bc	-0.026100509
2	0x3d551680	0.05202341
3	0x39f1f300	0.0004614815
4	0x3ced707a	0.028984297
5	0x3c30d5d8	0.010793172
6	0x3c8a5bd3	0.016889488
7	0x3cc7ea35	0.02440367
8	0xbd15d630	-0.03658122
9	0xbcb8c10e	-0.022552993
10	0xbd5775d3	-0.0526026
11	0x3c4cfdd0	0.0125116855
12	0x3d7f4ab6	0.06232711
13	0xbd6e9e1b	-0.05825625
14	0x3cc65fcf	0.024215607
15	0xbb12b910	-0.0022388138
16	0x3b778930	0.003777098
17	0x3d25ba35	0.040460784
18	0xbc9d1f4a	-0.019179959
19	0xbc93ff46	-0.01806606
20	0x3ce99d57	0.028517408
21	0xbb953c2c	-0.004554292
22	0xbd19b564	-0.037526503
23	0xbca28474	-0.01983855
24	0xbd035639	-0.03206465
25	0x3ca28e42	0.019843224
26	0xbaf33840	-0.0018556193
27	0x3bd26c0c	0.0064215716
28	0xbbff0174	-0.0077821556
29	0xbd169d07	-0.036770847
30	0xbc5f29fe	-0.013620852
31	0xbae40420	-0.0017396249
32	0x3c1aaaf4	0.009440172
33	0x3d00300e	0.03129583
34	0xbc1d2d84	-0.009593371
35	0xbc62d428	-0.013844527
36	0x3c666f98	0.014064692
37	0xbce43636	-0.027857881
38	0xbd0fafed	-0.035079885
39	0xbb7050b8	-0.0036669206
40	0xbc591e58	-0.013251863
41	0x3b380d38	0.002808405
42	0xbcb847ed	-0.022495234
43	0x3c9faa69	0.019490438
44	0x3d0ef132	0.03489799
45	0xbd0509ba	-0.03247998
46	0x3c2d28ee	0.01056884
47	0x3d5a5666	0.053305052
48	0x3bdf0a48	0.0068066455
49	0xbc95c4ed	-0.018282378
50	0xbd142b4e	-0.03617411
51	0x3ce5a3a7	0.028032137
52	0x3c802e52	0.015647087
53	0xbcd747c4	-0.026279338
54	0x3ce513ca	0.027963538
55	0x3c8a0edb	0.016852787
56	0xbcdc8e34	-0.026923276
57	0x3ba0e6a0	0.004910305
58	0x3cba29a3	0.022724932
59	0xbd0df931	-0.034661476
60	0x3b53b9c8	0.003230678
61	0xbc12a998	-0.008951567
62	0x3ba7b028	0.005117435
63	0xbd8cb57f	-0.06870555
64	0xbc8b7cf4	-0.017027356
65	0xbb2945c0	-0.0025828928
66	0xbd1f57e4	-0.03890218
67	0xbd5e5091	-0.054276053
68	0x3c952ce4	0.018209882
69	0xbcd12546	-0.025530469
70	0xbcb603e3	-0.02221865
71	0x3cce9d48	0.025221482
72	0x3d050eed	0.032484937
73	0x3d7285b8	0.059209555
74	0x3d7f8151	0.062379185
75	0x3c50f83a	0.012754494
76	0x3bab73b8	0.0052323006
77	0x3cb98524	0.022646494
78	0xbd039b62	-0.032130606
79	0xbcdde9e7	-0.027089072
80	0x3cb93db6	0.022612434
81	0x3d17fc2e	0.03710573
82	0xbbce37a8	-0.006293256
83	0x3cc72ff7	0.024314864
84	0xbc037fac	-0.008026045
85	0x3be64ad0	0.0070279613
86	0x3d227e88	0.03967145
87	0x3d05682a	0.03257004
88	0x3bfbd868	0.0076857097
89	0x3d4d7e30	0.05016917
90	0x41cde8e9	25.738726
91	0xc1be2b8d	-23.771265
92	0x418fc9ce	17.973537
93	0xc1ce4910	-25.785675
94	0x41ce023a	25.751087
95	0xc1ce6815	-25.800821
96	0xc1ce08de	-25.75433
97	0x41ce4dde	25.788021
98	0x41ce2d56	25.772137
99	0x41c21b73	24.263403
100	0xc1cd2c02	-25.646488
101	0xc1ce25ac	-25.768394
102	0xc1cf3643	-25.901495
103	0xc1ce7840	-25.808716
104	0xc1cc2067	-25.515821
105	0x41bb2ee3	23.397894
106	0xc1cdd696	-25.729778
107	0x41cd4adc	25.661552
108	0xc1beb38f	-23.837675
109	0x4194df85	18.60914
110	0x41ce1362	25.759464
111	0x41cea471	25.830294
112	0xc1ce2271	-25.766817
113	0xc1cdab77	-25.708723
114	0xc1cf2e72	-25.897678
115	0xc1cdadb3	-25.709814
116	0x41905211	18.040071
117	0xc1ce2841	-25.769655
118	0x41cda17a	25.703846
119	0xc1cdfeff	-25.74951
120	0xc1926acc	-18.302147
121	0x41cdd2a7	25.727858
122	0x41ce545a	25.791187
123	0xc1ce34df	-25.775816
124	0x418f8b9b	17.943167
125	0x419221e6	18.266552
126	0xc1ce388c	-25.77761
127	0xc1cede55	-25.85856
128	0xc1bfea0f	-23.989286
129	0x41cbe548	25.486954
130	0xc1ccb7c3	-25.589727
131	0xc1cdf82b	-25.746176
132	0x4191a286	18.204357
133	0x41ce4b4d	25.786768
134	0x41ce15cc	25.760643
135	0x3c17a32c	0.009255212
136	0x3cc32bdd	0.023824627
137	0x3ce035a4	0.027369328
138	0x39fec200	0.00048591197
139	0xbb9f87bc	-0.0048684757
140	0xbc61bef8	-0.013778441
141	0xbcbb8067	-0.022888375
142	0x3cce9442	0.02521718
143	0xbd1ab062	-0.037765868
144	0x3d8466d9	0.06464929
145	0xbc0dab52	-0.008646803
146	0xbbdc07d0	-0.0067147985
147	0xba4f0480	-0.0007897094
148	0xbc35c3e0	-0.0110940635
149	0x3b197940	0.0023418218
150	0x39a63400	0.0003170073
151	0xbd071f0a	-0.032988586
152	0xbcd18fd0	-0.02558127
153	0xbc1a1c0e	-0.009406103
154	0xbd6ef52e	-0.05833929
155	0xbd0938aa	-0.033501305
156	0xbcb1d8f6	-0.0217099
157	0x3d495cab	0.04916064
158	0x3cdc97f2	0.026927922
159	0x3b0f1748	0.0021833945
160	0xbcbd4f30	-0.023109049
161	0xbc7c2bd0	-0.015391305
162	0x3baf0e80	0.0053423047
163	0xbc649420	-0.013951331
164	0xbcc8e943	-0.02452529
165	0x3c4c0b84	0.012453917
166	0xbbd4d140	-0.006494671
167	0x3ced5bfc	0.028974526
168	0xbd5a22e3	-0.053255927
169	0x3ccd5bfc	0.025068276
170	0xbce03455	-0.027368704
171	0xbc6d60ac	-0.01448838
172	0x3cc56b1a	0.024098922
173	0x3d02edf2	0.031965204
174	0xbd3b63e5	-0.045749564
175	0xbb57e018	-0.0032939967
176	0xbc2148ac	-0.0098439865
177	0x3cb8dbca	0.022565741
178	0xbcf922e8	-0.030412152
179	0x3d64af9e	0.055831544
180	0x3c3d5e20	0.011558086
181	0xbc9167dc	-0.01774972
182	0xbd3402b9	-0.04394791
183	0xbd12927c	-0.03578423
184	0xbd786908	-0.06064704
185	0xbd43c20b	-0.047792476
186	0x3d08dd14	0.03341396
187	0xbd0ed168	-0.034867674
188	0x3b91d7d8	0.0044507794
189	0x3ba996c0	0.0051754415
190	0x3cc0b79c	0.023525052
191	0xbbf797b0	-0.0075559244
192	0x3c1846d2	0.009294229
193	0x3d20a8c0	0.039223433
194	0x3b197b10	0.0023419298
195	0xbbc85bfc	-0.006114481
196	0xbcd4010a	-0.025879402
197	0x3c66b220	0.014080554
198	0xbbf6a804	-0.0075273532
199	0xbc3d6150	-0.011558846
200	0x3cda0708	0.02661468
201	0xbcc623ca	-0.024186987
202	0xbd1b73dd	-0.037952293
203	0xbd36d5aa	-0.04463736
204	0x3c9f6c90	0.019460946
205	0x3d2ced97	0.04221877
206	0xbd4712d8	-0.048601955
207	0x3ccbb6e0	0.024867475
208	0xbce66f67	-0.028129293
209	0x3ce44bf1	0.027868243
210	0xbc54b0f0	-0.012981638
211	0xbc3f5840	-0.011678755
212	0xbc239396	-0.009983918
213	0xbcbd41d4	-0.023102678
214	0xbca7ca96	-0.020482343
215	0xbd617baf	-0.055049594
216	0x3d376377	0.04477259
217	0x3ad60580	0.0016328543
218	0x3c7ccd02	0.015429737
219	0xbc871c1a	-0.016492892
220	0xbcd2c245	-0.0257274
221	0xbb966828	-0.004590053
222	0x3a6d4e40	0.00090524927
223	0x3cd1f1a3	0.025627917
224	0xbc1199e4	-0.008886788
225	0xc1cddcd0	-25.732819
226	0x41bdf357	23.743818
227	0xc19adc83	-19.357672
228	0x41ce278f	25.769316
229	0xc1cdb076	-25.711163
230	0x41cdd78c	25.730247
231	0x41ce622f	25.797941
232	0xc1ce2f39	-25.773058
233	0xc1ce0f54	-25.757484
234	0xc1bf54d2	-23.916416
235	0x41cd7466	25.681835
236	0x41ce10d4	25.758217
237	0x41cda326	25.704662
238	0x41cdf1f2	25.743137
239	0xc1cddbb2	-25.732273
240	0xc1bb7012	-23.429722
241	0x41cd5ee6	25.671337
242	0xc1cd688a	-25.676044
243	0x41bcf31f	23.618711
244	0xc1a2cb63	-20.34931
245	0xc1cc4973	-25.535864
246	0xc1ce63a0	-25.798645
247	0x41ce43f0	25.783173
248	0x41cccf84	25.601326
249	0x41ce8384	25.814217
250	0x41cdeb53	25.739904
251	0xc19da948	-19.707657
252	0x41cdd0b6	25.72691
253	0xc1cddb36	-25.732037
254	0x41ce4d65	25.78779
255	0x419e3b5d	19.778986

atten_layer.0.bias f4 [45]
0	0xc1cfac47	-25.95912
1	0x41cee6ad	25.862635
2	0x41cd75cc	25.682518
3	0xc1bfd93f	-23.981077
4	0x41ce9eac	25.827477
5	0x41ceb962	25.840519
6	0xc1cfd046	-25.976696
7	0x41ce91f1	25.82126
8	0xc1ceae85	-25.835215
9	0xc1ea3fc7	-29.281141
10	0x41abeb64	21.489937
11	0x41ce93b3	25.822119
12	0x41cec767	25.847364
13	0x41ce9faf	25.82797
14	0x41b785d5	22.940348
15	0xc1cd2cc0	-25.64685
16	0xc1cf8b31	-25.942965
17	0xc1ceb398	-25.837692
18	0xc1ce9d0c	-25.826683
19	0x40034580	2.051117
20	0x41cf6aaf	25.927092
21	0xc1cf10fa	-25.88329
22	0x42ca8da4	101.27664
23	0xc19eaa31	-19.833101
24	0x4212e392	36.722237
25	0x41ceb347	25.837538
26	0x41ce4297	25.782515
27	0xc1ce2dee	-25.772427
28	0x41cea199	25.828905
29	0xc1cd23fe	-25.642574
30	0xc1ce90e5	-25.82075
31	0xc1abd4b8	-21.478867
32	0xc1cf2f6c	-25.898155
33	0x41a888ce	21.0668
34	0x4194def8	18.608871
35	0xc212f307	-36.73733
36	0x41ce8716	25.81596
37	0x41ce816c	25.813194
38	0x41cf6cc8	25.928116
39	0x41cf4968	25.910843
40	0xc1cf0d78	-25.881577
41	0xc1c9809b	-25.187796
42	0x41ce5f93	25.796667
43	0x405e558f	3.473972
44	0x41ce14b1	25.760103

atten_layer.2.weight f4 [1, 45]
0	0x43082954	136.16144
1	0xc30829c2	-136.16312
2	0xc307d224	-135.82086
3	0xc2a5f4ad	-82.97788
4	0xc30817f0	-136.0935
5	0xc308332a	-136.19986
6	0x43085336	136.32504
7	0x42a98255	84.754555
8	0xc2a957ef	-84.671745
9	0x42ad4115	86.62711
10	0xc2a865ed	-84.19907
11	0x42a95a47	84.67632
12	0x42a9529f	84.66137
13	0x42a95a33	84.67617
14	0x42a7bb25	83.86552
15	0xc2a8dfa9	-84.43684
16	0x4308255c	136.14594
17	0xc2a8f76b	-84.48324
18	0xc2a914c9	-84.540596
19	0x42a88307	84.25591
20	0xc3086cd2	-136.42508
21	0xc2a90d45	-84.52592
22	0xc3091750	-137.09106
23	0x42a8d0e9	84.40803
24	0xc2aa1b97	-85.05389
25	0x42a92865	84.578896
26	0x42a92d4b	84.58846
27	0xc2a909d1	-84.51917
28	0x42a92925	84.58036
29	0xc2a9232f	-84.56872
30	0x430841ea	136.25748
31	0x42a86d09	84.21296
32	0xc2a958cf	-84.673454
33	0xc2a88725	-84.263954
34	0xc2a7fbf3	-83.99209
35	0x42a91e51	84.55921
36	0x42a902e3	84.50564
37	0x42a91ff1	84.562386
38	0xc3085f82	-136.37308
39	0xc308260a	-136.14859
40	0xc2a92643	-84.57473
41	0xc2a83d93	-84.12026
42	0x42a8e55f	84.44799
43	0x42a78d69	83.77619
44	0xc3080e82	-136.05667

lstm.weight_ih_l0 f4 [180, 45]
0	0x41cdd6b4	25.729836
1	0x41ceaaf0	25.833466
2	0xc1ce1323	-25.759344
3	0x41cdc411	25.720736
4	0xc1ce3bc9	-25.779192
5	0xc1ce06fd	-25.753412
6	0x41cda2df	25.704527
7	0x41ce399b	25.778128
8	0x41cdd01e	25.72662
9	0xc1cefd88	-25.873795
10	0xc1cd44d4	-25.658607
11	0x41ce22eb	25.76705
12	0xc1ce3331	-25.774996
13	0xc1cdfde4	-25.74897
14	0x41cdd539	25.729113
15	0xc1cf085d	-25.879084
16	0x41ce00e5	25.750437
17	0xc1ce8527	-25.815016
18	0x41cef6bc	25.870476
19	0xc1ce6196	-25.79765
20	0xc1cef552	-25.869785
21	0xc1cd94fc	-25.697746
22	0xc1ced187	-25.852308
23	0xc1ce4eb8	-25.788437
24	0x41ce8001	25.812502
25	0x41cd8eae	25.694668
26	0xc1cdc03f	-25.71887
27	0x41ce0dc9	25.756731
28	0xc1ce3c14	-25.779335
29	0x41cd993f	25.699827
30	0x41cde0d0	25.734772
31	0x41cdcc31	25.724703
32	0x41cd6ce6	25.678173
33	0x41cd3882	25.652592
34	0xc1cdc16f	-25.71945
35	0xc1cd5f37	-25.671492
36	0x41ceb4c5	25.838266
37	0x41ce81ba	25.813343
38	0x41ce50b6	25.78941
39	0xc1ce7fae	-25.812344
40	0xc1ce5eae	-25.79623
41	0x41ce211b	25.766165
42	0xc1cd27c1	-25.644411
43	0xc1ce804d	-25.812647
44	0xc1cf419b	-25.907034
45	0x41cdf7ea	25.746052
46	0x41cdb0aa	25.711262
47	0xc1cf53b7	-25.915876
48	0x41cf399f	25.903135
49	0xc1ce0042	-25.750126
50	0xc1cda99b	-25.707815
51	0x41cef3db	25.86907
52	0x41ce5dde	25.795834
53	0x41cdc14e	25.719387
54	0xc1cea637	-25.83116
55	0xc1ce14a5	-25.76008
56	0x41ce0e46	25.75697
57	0xc1ce1d49	-25.7643
58	0xc1ce1101	-25.758303
59	0x41ce1d94	25.764442
60	0xc1ced4bb	-25.853872
61	0x41ce996f	25.824919
62	0xc1ce37e5	-25.777292
63	0x41ce6691	25.800081
64	0xc1cdb09c	-25.711235
65	0xc1ce3186	-25.774181
66	0xc1cdda43	-25.731573
67	0xc1ce6436	-25.798931
68	0xc1ce7a11	-25.809603
69	0x41cdb699	25.714159
70	0x41ce6706	25.800304
71	0xc1cde076	-25.7346
72	0xc1cdecd3	-25.740637
73	0xc1cde8e8	-25.738724
74	0x41ce895d	25.817072
75	0x41ce29ce	25.770412
76	0x41ce257f	25.768309
77	0x41ce7147	25.805311
78	0x41cf2ca6	25.896801
79	0xc1ce0e95	-25.75712
80	0xc1ce0581	-25.752687
81	0x41ce1210	25.75882
82	0x41cec545	25.846323
83	0x41cf36ae	25.9017
84	0xc1ce7b91	-25.810335
85	0xc1cdb2f1	-25.712374
86	0x41cdf470	25.744354
87	0xc1ced47f	-25.853758
88	0xc1ce7abd	-25.80993
89	0xc1cf20e2	-25.891056
90	0x41cdc6c1	25.722048
91	0x41cf3001	25.89844
92	0xc1ce74f8	-25.807114
93	0x41ce84d2	25.814854
94	0xc1cec39d	-25.845514
95	0xc1cda5ce	-25.70596
96	0x41cebf0f	25.84329
97	0x41cbc0af	25.469084
98	0xc1cea2ce	-25.829494
99	0xc1cea2e0	-25.829529
100	0xc1ce0ebd	-25.757196
101	0x41ce4f29	25.788652
102	0xc1ce727e	-25.805904
103	0xc1cdd948	-25.731094
104	0x41ce0980	25.754639
105	0xc1ceae8f	-25.835234
106	0x41ce0a1b	25.754934
107	0xc1ce0e4f	-25.756987
108	0x41cee97a	25.864002
109	0xc1cea145	-25.828745
110	0xc1cdd6fe	-25.729977
111	0xc1ced9ed	-25.85641
112	0xc1cdffe9	-25.749956
113	0xc1ce9472	-25.822483
114	0x41ce6f27	25.804274
115	0x41ce1dd0	25.764557
116	0xc1ce1692	-25.76102
117	0x41cdf984	25.746834
118	0xc1cd7999	-25.684374
119	0x41cef099	25.86748
120	0x41ce5d8e	25.795681
121	0x41cdfc6a	25.74825
122	0x41ce8e0d	25.81936
123	0x41cdf557	25.744795
124	0xc1ceb5a6	-25.838696
125	0xc1ce2f38	-25.773056
126	0x41ce878c	25.816185
127	0x41cea5e9	25.83101
128	0x41cef021	25.86725
129	0xc1ce49c4	-25.786018
130	0xc1cdc6e2	-25.72211
131	0x41cd1e3c	25.639763
132	0xc1ce1537	-25.760359
133	0xc1cea0a3	-25.828436
134	0xc1ceed29	-25.8658
135	0x41cdd9e7	25.731398
136	0x41ce6b50	25.802399
137	0xc1cedf56	-25.85905
138	0x41ce4121	25.781801
139	0xc1ce3249	-25.774553
140	0xc1cd8c3d	-25.693476
141	0x41cec7f5	25.847635
142	0x41ce64a5	25.799143
143	0x41ce0cd7	25.75627
144	0xc1cea465	-25.83027
145	0xc1ce035f	-25.751646
146	0x41cda223	25.704168
147	0xc1ce425c	-25.782402
148	0xc1ce5b33	-25.79453
149	0x41ce2a92	25.770786
150	0xc1ce7073	-25.804907
151	0x41cdd471	25.728731
152	0xc1ce36c5	-25.776743
153	0x41ce006d	25.750208
154	0xc1ce8b30	-25.817963
155	0xc1cd7571	-25.682344
156	0xc1cde0e8	-25.734818
157	0xc1cd928c	-25.696556
158	0xc1cd70e3	-25.68012
159	0x41ce38ce	25.777737
160	0x41cddf60	25.73407
161	0xc1ce79a3	-25.809393
162	0x41cd7c17	25.68559
163	0xc1cd10a2	-25.633121
164	0x41cde5cf	25.737211
165	0x41ce53f1	25.790987
166	0x41cf25c5	25.893442
167	0x41ce0de8	25.75679
168	0x41cdd338	25.728134
169	0xc1cdc766	-25.722363
170	0xc1ce87a5	-25.816233
171	0x41cdce46	25.72572
172	0x41cf0edb	25.882254
173	0x41cdfca4	25.74836
174	0xc1cea66c	-25.83126
175	0xc1cdf32b	-25.743734
176	0x41cda7e9	25.706987
177	0xc1cd4ef2	-25.663548
178	0xc1cde55c	-25.736992
179	0xc1ceb772	-25.839573
180	0x41cd6fe9	25.679644
181	0x41ce9469	25.822466
182	0xc1ce1d7b	-25.764395
183	0x41cd7b17	25.685102
184	0xc1cd9319	-25.696825
185	0xc1cda679	-25.706285
186	0x41cdf2be	25.743526
187	0x41ce9363	25.821966
188	0x41ce4913	25.78568
189	0xc1cf0323	-25.876532
190	0xc1ce3d1d	-25.77984
191	0x41ce5d1a	25.79546
192	0xc1ce8b11	-25.817904
193	0xc1cdcb22	-25.724186
194	0x41ce78ea	25.80904
195	0xc1ce4833	-25.785254
196	0x41ce0fd3	25.757727
197	0xc1cda688	-25.706314
198	0x41ce8663	25.815619
199	0xc1cf6058	-25.922043
200	0xc1ce484b	-25.7853
201	0xc1cdb115	-25.711466
202	0xc1ce03ab	-25.751791
203	0xc1ce07a8	-25.753738
204	0x41cf1bdc	25.888603
205	0x41ce6e15	25.803751
206	0xc1cd494d	-25.660791
207	0x41cd56e8	25.667435
208	0xc1ce6270	-25.798065
209	0x41ce21ae	25.766445
210	0x41ce5e73	25.796118
211	0x41ce485c	25.785332
212	0x41ceb06a	25.83614
213	0x41cd865d	25.690607
214	0xc1cdfc47	-25.748182
215	0xc1cd9460	-25.697449
216	0x41ce75bc	25.807487
217	0x41cf08bc	25.879265
218	0x41cf0e7c	25.882072
219	0xc1ce646c	-25.799034
220	0xc1ce4aa0	-25.786438
221	0x41ce3573	25.776098
222	0xc1cdf86f	-25.746305
223	0xc1ceb71f	-25.839415
224	0xc1ced97b	-25.856192
225	0x41cde48f	25.7366
226	0x41cef1e6	25.868114
227	0xc1ce6417	-25.798872
228	0x41ce420c	25.78225
229	0xc1cde5c0	-25.737183
230	0xc1ce5076	-25.789288
231	0x41ce9526	25.822826
232	0x41ce0b36	25.755474
233	0x41cee8ad	25.863611
234	0xc1cea7f1	-25.832003
235	0xc1cf1167	-25.883497
236	0x41ce4b21	25.786684
237	0xc1cdc6f5	-25.722147
238	0xc1ce40cf	-25.781645
239	0x41cdfa03	25.747076
240	0xc1ceede5	-25.86616
241	0x41cdcc5f	25.72479
242	0xc1ce5bf8	-25.794907
243	0x41cec0fc	25.84423
244	0xc1ce4769	-25.784868
245	0xc1ce3ca1	-25.779604
246	0xc1ce13c1	-25.759645
247	0xc1cd5807	-25.667982
248	0xc1cf0229	-25.876055
249	0x41ced91e	25.856014
250	0x41cec751	25.847322
251	0xc1cd9ee0	-25.702576
252	0x41cd83d5	25.689371
253	0xc1ce4cba	-25.787464
254	0x41cea449	25.830217
255	0x41cda662	25.706242

lstm.weight_hh_l0 f4 [180, 45]
0	0xbc153f78	-0.00910937
1	0x3b7a9a40	0.0038238913
2	0x3cd78124	0.026306696
3	0x3cb9e47a	0.022691954
4	0xbd7b72d4	-0.061388806
5	0xbc8ec6a5	-0.017428705
6	0xbd4d4e0a	-0.050123252
7	0xbc99afaa	-0.018760521
8	0x3c607d34	0.013701726
9	0xbd7d66c9	-0.0618656
10	0xbd80cce4	-0.0628908
11	0x3cd32306	0.025773536
12	0xbd772140	-0.060334444
13	0x3cd68450	0.026186138
14	0x3b950af0	0.004548423
15	0xbc0977e8	-0.008390404
16	0xbca5bb02	-0.020230774
17	0xbd706273	-0.05868764
18	0xbd970845	-0.07374624
19	0x3d508046	0.05090358
20	0xbda916b0	-0.082562804
21	0x3caf15a4	0.021372624
22	0xbdb6ee9e	-0.08932231
23	0xbd09bccc	-0.033627316
24	0x3da33190	0.07968438
25	0xbc7bba1c	-0.015364196
26	0xbcf94a00	-0.030430794
27	0x3d0562a0	0.03256476
28	0x3bf9bc38	0.0076213144
29	0x3c32a9c0	0.010904729
30	0xbd1f5f76	-0.038909398
31	0x3cabb2b8	0.020959243
32	0xbd13ef33	-0.03611679
33	0xbd47b842	-0.048759706
34	0xbd696be5	-0.056987662
35	0x3d90cf02	0.070707336
36	0xbb087480	-0.0020821393
37	0x3d46da4c	0.048548028
38	0xbcf7f8c0	-0.03026998
39	0x3d788106	0.06066992
40	0x3bf39d60	0.007434532
41	0x3a66cc00	0.0008804202
42	0x3e02edf3	0.12786083
43	0x3d6bb10c	0.057541892
44	0x3ce944a8	0.02847512
45	0xbdb1880b	-0.08668526
46	0xbb7eb340	-0.0038864166
47	0x3d78bde4	0.06072797
48	0xbdc1051b	-0.09424802
49	0xbc500810	-0.012697235
50	0x3c1c2244	0.009529654
51	0xbcb792ed	-0.022408927
52	0x3c636f30	0.01388149
53	0x3c473fe0	0.012161225
54	0x3d99c1e3	0.07507684
55	0xbcd86630	-0.026415914
56	0xbcc4dd04	-0.02403117
57	0xbd7f9aa0	-0.06240332
58	0x3c66de8c	0.014091145
59	0x3be7b9f0	0.007071726
60	0x3c1c96b8	0.0095574185
61	0xbc2e5de4	-0.010642502
62	0x3cf6b090	0.030113488
63	0x3d627b20	0.055293202
64	0xbd0e3cdc	-0.03472601
65	0x3d9004ca	0.070321634
66	0xbbd0b118	-0.0063687675
67	0x3db1e675	0.08686534
68	0xbdbe11ac	-0.092807144
69	0xb849c400	-4.8104674e-05
70	0xbca429c2	-0.020039443
71	0x3d104b40	0.035228014
72	0xbdf434a3	-0.11924102
73	0xbd724578	-0.05914828
74	0xbd47ebcc	-0.048808858
75	0xbdd6d326	-0.10489492
76	0xbd676bc5	-0.05649926
77	0x3d589037	0.05287191
78	0xbd5df1be	-0.05418562
79	0xbd43c770	-0.04779762
80	0x3dc0db8c	0.09416875
81	0x3d5f2c6e	0.05448573
82	0xbdc27012	-0.09494032
83	0xbd43be11	-0.047788683
84	0xbd3f0007	-0.046630885
85	0xbd03b460	-0.03215444
86	0xbd0e9d9f	-0.034818288
87	0xbd4e65e4	-0.05039014
88	0x39d85500	0.0004126206
89	0x3c928fe8	0.017890885
90	0x3d384984	0.044991985
91	0x3d94d3b4	0.07266942
92	0x3c98f7a6	0.018672775
93	0xbc6999f8	-0.0142579
94	0xbd4cc323	-0.049990784
95	0x3c813af0	0.015775174
96	0xbcc10658	-0.023562595
97	0xbd182263	-0.03714217
98	0x3da97001	0.08273316
99	0x3bdc6940	0.006726414
100	0x3aeeeb00	0.0018227994
101	0xbdc7c2aa	-0.09753926
102	0xbd0bdd36	-0.03414651
103	0xbd19149e	-0.037373178
104	0x3c902d82	0.017599825
105	0xbd8a932a	-0.067663506
106	0x3cd32d4c	0.025778435
107	0x3db985e0	0.09058738
108	0x3dc1479a	0.09437485
109	0x3b448c10	0.002999071
110	0xbd9f3bde	-0.07775091
111	0xbd6ad390	-0.057330668
112	0x3d9fe188	0.078066885
113	0xbd1e19bc	-0.03859876
114	0xbd84d822	-0.064865366
115	0xbd632952	-0.055459328
116	0x3d82c106	0.063844725
117	0xbd03ef9d	-0.032210935
118	0xbd0d19cd	-0.034448434
119	0x3ac1fe80	0.0014800578
120	0x3aec3c80	0.0018023401
121	0x3d8510c4	0.064973384
122	0x3cbc367c	0.022975199
123	0x3be8f848	0.0071096756
124	0xbcd90cd8	-0.026495382
125	0xbc014148	-0.007889099
126	0x3d7379fe	0.059442513
127	0x3d83e120	0.064394236
128	0x3c84aa1c	0.016194396
129	0xbcbad761	-0.022807779
130	0x3cd4db38	0.025983438
131	0x3c91e838	0.017810926
132	0x3c95c21e	0.018281039
133	0xbd04e920	-0.032448888
134	0xbc160720	-0.009156972
135	0x3dc3b4fe	0.09556006
136	0x3e06b996	0.13156733
137	0x3cec2634	0.02882681
138	0xbceaa110	-0.028641254
139	0xbd9d0c03	-0.07668307
140	0x3ce88af4	0.02838657
141	0xbda55825	-0.08073453
142	0xbd9e8820	-0.077408075
143	0x3d8f83da	0.070075706
144	0xbdbe8775	-0.0930318
145	0x3ca014a4	0.019541092
146	0x3b918648	0.0044410564
147	0x3d7f6d51	0.06236011
148	0xbca48d8c	-0.020087026
149	0xbd692b46	-0.056926034
150	0xba312d00	-0.00067587197
151	0x3cd24b7c	0.02567076
152	0x3c1ec710	0.009691015
153	0xbd123204	-0.03569223
154	0x3e08a090	0.133425
155	0x3db416f2	0.08793439
156	0x3d0a2cc1	0.033734087
157	0x3da7b0e6	0.081880376
158	0x3d01ce3a	0.031690814
159	0xbda7307d	-0.08163545
160	0xbb013ee0	-0.0019721314
161	0xbda9e1fe	-0.08295058
162	0x3d184934	0.037179187
163	0xbc15a3d4	-0.009133298
164	0xbbfdd620	-0.007746473
165	0x3c7f76fc	0.015592333
166	0x3d5a11f3	0.053239774
167	0xbcaa9b10	-0.020825893
168	0x3b38bca0	0.00281886
169	0x3da5360c	0.08066949
170	0xbd9f1161	-0.07766987
171	0x3d6e2ad2	0.058146305
172	0xbd4982b4	-0.049196914
173	0x3d4e5870	0.05037731
174	0xbd01591f	-0.031579133
175	0xbcee08a4	-0.029056855
176	0x3c5f7d14	0.013640661
177	0x3a3a4e80	0.00071070343
178	0xbd287c2e	-0.041134052
179	0xbc617fba	-0.013763363
180	0xbc11ecd0	-0.008906558
181	0x3d6d93d4	0.058002308
182	0x3ccba816	0.024860423
183	0x3c9383e8	0.018007234
184	0xbd93b6e7	-0.0721262
185	0xbd50433e	-0.050845377
186	0xbd66248c	-0.056187198
187	0xbccab078	-0.02474235
188	0x3d85efba	0.06539865
189	0xbd84c880	-0.06483555
190	0xbd078d18	-0.03309354
191	0x3d1c120e	0.038103156
192	0xbc64abf8	-0.013957016
193	0xbd4c76b0	-0.049917877
194	0xbcf201a0	-0.02954179
195	0xbc131460	-0.008977026
196	0xbd5d6734	-0.0540535
197	0xbd1c8658	-0.038214058
198	0xbc38a540	-0.011269867
199	0xbca98c2c	-0.020696722
200	0xbd806ae4	-0.06270388
201	0x3d20dc35	0.039272506
202	0x3d43d3b8	0.047809333
203	0x3d0d5cee	0.034512453
204	0xbd34c97c	-0.044137463
205	0x3d733970	0.05938095
206	0x3d424bff	0.047435757
207	0x3d93dcd4	0.07219854
208	0x3d740aa0	0.059580445
209	0x3c9fbb77	0.01949857
210	0x3cf27eb2	0.029601429
211	0xbcc0c67e	-0.023532148
212	0x3bb31de0	0.005466208
213	0xbdc36406	-0.09540562
214	0x3dc030d6	0.09384315
215	0x3c1f2ab8	0.009714775
216	0xbd3d4fa1	-0.04621852
217	0x3c39d6a8	0.011342682
218	0x3aace820	0.0013191737
219	0x3cf73ffa	0.030181874
220	0x3cb69b27	0.02229078
221	0xbd03a3a2	-0.032138474
222	0xbc9fcc1c	-0.019506507
223	0xbd3ef9f0	-0.046625078
224	0xbcfcbaf8	-0.030850872
225	0x3d37dc97	0.044888105
226	0xbcc36fe0	-0.023857057
227	0x3b707640	0.0036691576
228	0x3db4e44a	0.08832605
229	0x3d7c1e72	0.061552472
230	0xbd8738e9	-0.066026516
231	0x3d003cf8	0.031308144
232	0x3c6b6842	0.014368119
233	0xbd99b128	-0.07504493
234	0xbbb73888	-0.005591456
235	0x3ca88b64	0.02057428
236	0xbdd1fd73	-0.1025342
237	0xbc9deeae	-0.01927885
238	0xbd9352f5	-0.07193557
239	0xbd0deaa2	-0.03464759
240	0x3d7a320d	0.06108289
241	0x3d1b62ec	0.037936136
242	0xbccb9ae2	-0.024854127
243	0xbd2d7ebe	-0.0423572
244	0xbc567c08	-0.013091095
245	0x3d813d10	0.06310475
246	0x3de27158	0.11056775
247	0xbc810007	-0.015747083
248	0xbd62da18	-0.05538377
249	0x3c9b7b64	0.018979736
250	0xbd29bc06	-0.04143908
251	0xbda4697e	-0.080279335
252	0xbc37d642	-0.011220517
253	0xbd604f55	-0.054763157
254	0x3dd6a0ed	0.10479913
255	0x3d9de898	0.07710379
